minerl-model.pth (torch, 847809 bytes, 8 tensors)

layer1.0.weight f4 [16, 3, 6, 6]
-0.05235843 -0.06070217 -0.06556424 -0.03501071 -0.03987913 -0.15616737 -0.010497401 0.018002607
-0.010039073 -0.07598723 -0.040559396 -0.09299739 -0.063687876 -0.11176428 -0.085432924 -0.045774147
-0.031179454 -0.095558904 -0.033109978 -0.05604532 -0.041801635 -0.06185177 -0.070546284 -0.07366763
-0.06301145 -0.029029753 -0.04020546 -0.06303599 -0.023406904 -0.12972905 -0.06351556 0.02738881
-0.046965506 -0.0032907974 0.045410935 -0.03143822 -0.03434491 -0.044999585 -0.04119898 -0.09459919
-0.115625866 -0.051312495 -0.054167148 -0.054050524 -0.02357058 0.011958834 -0.06530612 -0.13118482
-0.029966008 -0.07042486 -0.0649017 -0.035591006 -0.08249047 -0.10021956 -0.035422094 -0.0434582
-0.031164624 -0.03993435 -0.045865845 -0.1005901 -0.040093843 -0.05675589 -0.039797828 -0.054398894
-0.04447885 -0.12462793 -0.06246593 -0.0862745 0.06762746 -0.06708827 -0.049243823 0.023756754
-0.049087223 -0.059142392 -0.046279784 -0.054288868 -0.052570228 -0.014239819 -0.07514715 0.01610133
-0.025433097 -0.026536267 -0.048317257 -0.06190059 -0.008260589 -0.038156748 -0.039872732 -0.057876345
-0.076441765 -0.05599008 -0.06255861 -0.05988972 -0.016860645 0.002522177 -0.042947803 -0.015662087
-0.06370146 -0.04500449 -0.042690165 -0.088898756 -0.1420044 -0.063850135 0.031606928 0.047258288
0.04953514 0.01925264 -0.09325507 0.06858623 0.015230617 -0.13049391 0.020028463 -0.10010701
-0.02051961 -0.02194458 -0.007185417 -0.026036963 -0.011170055 -0.018822756 -0.067328505 -0.016836021
-0.061455507 -0.1199851 -0.11084354 -0.036861014 -0.121574305 -0.14245836 -0.06547308 -0.09591969
-0.0052990373 0.0032173176 -0.027576094 0.026974583 0.023782196 -0.042228974 -0.06325821 -0.12755725
0.0055612996 -0.113772415 0.014296906 -0.09824458 -0.016535554 -0.055394676 -0.10194883 -0.06599431
-0.07104585 0.01603474 -0.03878539 -0.062609866 -0.035298415 -0.05182555 -0.023465727 -0.132754
-0.06772389 -0.09839798 0.015510167 -0.011826838 -0.050009686 -0.09174512 -0.09889828 0.018009532
-0.09697378 -0.14564252 0.0011393513 -0.014840031 -0.10601025 -0.0645783 0.0035556175 0.02259559
-0.07887177 -0.06446324 -0.0746369 -0.09441429 -0.012020837 0.032460447 -0.025048755 -0.10734419
-0.0793811 -0.088089295 -0.09604538 0.004002393 -0.03362177 -0.09420035 0.009449346 0.02879873
-0.09728971 -0.02986932 -0.10015993 -0.03256391 0.016376927 0.025765674 -0.10091169 -0.05462754
-0.10994733 -0.13151851 -0.07036482 0.024523836 -0.13277861 -0.10862925 0.011943926 -0.11643559
0.0025661453 -0.07039942 -0.14368545 0.002828584 -0.026077984 -0.078266025 -0.06601036 -0.13541849
-0.031130219 -0.048070174 0.01150258 -0.093531966 -0.04712812 -0.01649152 -0.074555285 -0.079644844
-0.025234547 0.0655402 0.051814273 0.037006747 0.029211318 0.10183894 0.06294629 0.10678464
-0.030617759 -0.030970631 0.10409097 0.082705475 -0.06645883 -0.024772454 0.053544633 0.09443361
0.09527141 -0.02743328 0.059782624 0.0941458 -0.052002214 0.032624375 -0.033571735 -0.053577285
-0.008447581 0.04412491 0.060818125 0.03563926 -0.016950367 -2.5680805e-05 -0.03311925 -0.054425128
0.07780043 -0.048898183 0.032706838 -0.013638732 0.07098784 0.061248414 0.01340085 -0.054650012
00000000: cb75 56bd d7a2 78bd 8b46 86bd 6467 0fbd
00000010: 4c58 23bd 57ea 1fbe 4afd 2bbc 347a 933c
00000020: ed7a 24bc 319f 9bbd 9c21 26bd 6a75 bebd
00000030: ca6e 82bd ace4 e4bd 75f7 aebd ac7d 3bbd
00000040: 0e6c ffbc 63b4 c3bd 549e 07bd c78f 65bd
00000050: 3138 2bbd 4858 7dbd 927a 90bd 0edf 96bd
00000060: 260c 81bd cecf edbc 7bae 24bd 0319 81bd
00000070: d6bf bfbc b1d7 04be 7214 82bd 7f5e e03c
00000080: e75e 40bd 6baa 57bb d100 3a3d 5dc5 00bd
00000090: 40ad 0cbd 7c51 38bd 43c0 28bd 38bd c1bd
000000a0: 41cd ecbd 0d2d 52bd 5fde 5dbd 1564 5dbd
000000b0: 1717 c1bc fcee 433c 37bf 85bd 5055 06be
000000c0: 467b f5bc e93a 90bd 2feb 84bd e0c7 11bd
000000d0: c3f0 a8bd ea3f cdbd c216 11bd 3a01 32bd
000000e0: f44c ffbc 3392 23bd d3dd 3bbd 2f02 cebd
000000f0: 7139 24bd dd78 68bd 0c03 23bd 60d1 5ebd
00000100: 742f 36bd ee3c ffbd 46dc 7fbd afb0 b0bd
00000110: 4480 8a3d 9365 89bd e4b3 49bd 869d c23c
00000120: af0f 49bd 4b3f 72bd df8f 3dbd 015e 5ebd
00000130: e153 57bd 214e 69bc c0e6 99bd f0e6 833c
00000140: 1259 d0bc 9662 d9bc 51e8 45bd 798b 7dbd
00000150: 6c57 07bc 404a 1cbd 9751 23bd bf0f 6dbd
00000160: 808d 9cbd db55 65bd bb1e 80bd ec4e 75bd
00000170: 561f 8abc 1c4b 253b 09ea 2fbd c74d 80bc
00000180: e975 82bd a156 38bd e2db 2ebd 8d10 b6bd
00000190: 9a69 11be dcc3 82bd 4476 013d e891 413d
000001a0: 5ce5 4a3d b6b7 9d3c 84fc bebd f076 8c3d
000001b0: d689 793c 32a0 05be bb12 a43c e704 cdbd
000001c0: be18 a8bc 1fc5 b3bc a673 ebbb 784b d5bc
000001d0: 9b02 37bc 2e32 9abc 87e3 89bd b2eb 89bc
000001e0: c5b8 7bbd c0ba f5bd f001 e3bd 93fb 16bd
000001f0: f3fb f8bd 9be0 11be c016 86bd 8b71 c4bd
00000200: 8ca3 adbb a2d9 523b 43e7 e1bc cdf9 dc3c
00000210: e1d2 c23c 4af8 2cbd 858d 81bd 5e9e 02be
00000220: 903b b63b 8301 e9bd 923d 6a3c 7434 c9bd
00000230: 9275 87bc 87e5 62bd 8cca d0bd 0628 87bd
00000240: 7d80 91bd 495b 833c 6edd 1ebd 9a39 80bd
00000250: 1295 10bd 0747 54bd 323b c0bc aaf0 07be
00000260: d3b2 8abd e184 c9bd 5b1e 7e3c 5bc5 41bc
00000270: f5d6 4cbd dee4 bbbd 2e8b cabd ba88 933c
00000280: 309a c6bd 5023 15be 4956 953a 9a23 73bc
00000290: e71b d9bd a141 84bd 5d05 693b 631a b93c
000002a0: 8687 a1bd 4e05 84bd 3bdb 98bd 475c c1bd
000002b0: 0bf3 44bc 3ff5 043d 0c33 cdbc 45d7 dbbd
000002c0: 8f92 a2bd 2968 b4bd 71b3 c4bd 8226 833b
000002d0: fbb6 09bd 1dec c0bd 6ed1 1a3c 50eb eb3c
000002e0: d43f c7bd 81b0 f4bc a620 cdbd bc61 05bd
000002f0: e828 863c 8912 d33c caaa cebd 21c1 5fbd
00000300: 112c e1bd caac 06be 6e1b 90bd 36e6 c83c
00000310: 1ef7 07be 0379 debd 75b0 433c c875 eebd
00000320: c62c 283b 922d 90bd 4722 13be c45f 393b
00000330: 7fa1 d5bc f049 a0bd 7130 87bd 25ab 0abe
00000340: cd04 ffbc 3be5 44bd 5175 3c3c b08d bfbd
00000350: 6a09 41bd 3919 87bc 71b0 98bd d61c a3bd
00000360: aeb8 cebc f139 863d 343b 543d 6394 173d
00000370: 934c ef3c ef90 d03d fce9 803d e8b1 da3d
00000380: 18d2 fabc 1fb6 fdbc a52d d53d 7d61 a93d
00000390: 911b 88bd 9aef cabc 9e51 5b3d 6966 c13d
000003a0: a81d c33d c2bb e0bc a0de 743d 83cf c03d
000003b0: 4600 55bd 23a1 053d 8482 09bd db73 5bbd
000003c0: b967 0abc 52bc 343d 6d1c 793d 79fa 113d
000003d0: 7fdb 8abc 1c6d d7b7 0da8 07bd e2ec 5ebd
000003e0: d555 9f3d 7649 48bd 9bf7 053d fd74 5fbc
000003f0: 1362 913d 9edf 7a3d 3d8f 5b3c b1d8 5fbd

layer1.0.bias f4 [16]
-0.03600115 -0.0028306416 -0.02282333 0.044681907 0.059487317 0.03246398 -7.518023e-05 0.039538387
0.00031177027 0.06544917 4.162915e-05 -0.006229999 -0.048135567 0.019109694 0.00012760735 0.00020243527
00000000: f175 13bd 4982 39bb fef7 babc 6004 373d
00000010: f9a8 733d f3f8 043d 14aa 9db8 01f3 213d
00000020: 1975 a339 370a 863d f69a 2e38 0525 ccbb
00000030: cd29 45bd ef8b 9c3c 56ce 0539 ce44 5439

layer2.0.weight f4 [32, 16, 4, 4]
8.263947e-05 -0.00034216873 5.577091e-05 -0.0004993574 0.00012608385 -5.0876595e-05 0.00019625798 0.0001620687
0.0003304842 -1.2794044e-06 0.00026863825 0.0004331754 0.00011285654 -0.00011340076 -0.00011731577 -0.00027624876
-0.04533366 -0.047750358 -0.1127761 -0.04700079 -0.045276042 -0.06629853 -0.028933054 -0.0021968253
-0.10953152 -0.013636236 -0.03244081 -0.09266904 -0.07085375 -0.04227784 -0.056479234 -0.10017439
-0.0116125345 -0.010754126 -0.042178784 -0.026543388 -0.028861532 -0.04942279 -0.013314592 -0.06248835
-0.005506473 -0.07244846 -0.02244997 -0.07008784 -0.028611992 -0.04109633 -0.05112866 -0.004857521
0.0001664624 -0.0005628244 0.0005169152 0.0002478502 0.00018274407 -0.000119553355 4.5541958e-05 -3.4249424e-05
-0.00041908034 -0.00033267922 0.00031025935 -3.4211123e-05 0.0002100311 0.00022170998 -1.2459284e-05 -0.00016173854
-0.0002464602 -0.00012770496 1.2997552e-05 -0.0001523592 0.00030485226 -1.074879e-05 0.000121224264 -0.00025337562
-5.4418248e-05 0.00026862053 6.2000734e-05 -0.0003447998 -0.00035248883 -0.00017732652 6.536735e-05 5.7998623e-05
-0.0020324795 -0.014032099 -0.022736557 -0.025709879 -0.0064569213 -0.021460602 -0.011477983 -0.017882753
-0.002773881 -0.0033995276 -0.014762343 -0.032881293 -0.018540118 -0.008136829 -0.029758045 -0.013067176
7.387289e-05 5.7159217e-05 0.00014158156 -7.185494e-05 -0.00014797092 3.2716314e-05 -0.000112562484 -4.035529e-05
-7.0285e-05 4.411554e-05 -9.2795446e-05 -4.0710314e-05 -0.00011949819 0.00013452921 4.072701e-05 -0.00019380853
-0.09636382 -0.09462977 -0.08034305 -0.011593074 -0.089907184 -0.0475316 -0.093897335 -0.010713959
-0.029804504 -0.08175335 -0.005599222 -0.05987935 0.00043914554 -0.103440344 -0.038070675 -0.016169846
-0.027169488 -0.023824556 -0.0017721799 -0.082235776 -0.08040589 -0.054954093 -0.020227697 -0.0050077774
-0.065719925 -0.026352441 -0.0010967959 -0.05809602 -0.007195359 -0.0032164198 -0.046191894 -0.050248716
-0.029827612 -0.0034858081 -0.016509486 -0.03816276 0.0016408749 -0.0010824491 -0.0122764325 -0.046888962
6.1012608e-05 -0.001264574 -0.0027796873 -0.019985603 7.741002e-05 -0.02037654 -0.0038621747 -0.018056603
-0.008714534 -0.09164024 -0.00727995 -0.08922598 -0.08979247 -0.06400347 -0.09720457 -0.07436382
-0.04762999 -0.017548038 -0.036542498 -0.087096244 -0.055930074 -0.09871228 -0.015386265 -0.083197996
-0.03534999 0.0012587003 -0.10785704 -0.080714524 -0.08505033 -0.028214015 -0.09592291 -0.08184188
-0.08772274 -0.029430678 -0.041929662 -0.002381083 -0.08813456 -0.024304403 -0.014824993 -0.095794335
-0.00092332007 0.0004543116 0.00025381826 -0.0006161707 -0.001283196 -0.0041211215 -0.0054436754 -0.0022579208
-3.3838183e-05 -0.0005042181 0.0016992609 0.0011105986 -0.0024960015 -0.0044903383 -0.003448308 -0.008042048
-0.0033412185 -0.024208214 -0.06411895 -0.06810922 -0.0034839823 -0.10057357 -0.06692803 -0.07677839
-0.0682226 -0.018193256 -0.050659522 -0.024934513 0.0007370375 -0.11069996 -0.03906051 -0.0858846
-0.031142691 -0.008606028 -0.06790599 -0.063019656 -0.10883088 -0.0988996 -0.018763304 -0.10168435
-0.007220752 -0.057282835 -0.0645145 -0.02094566 -0.0018637313 -0.032926302 -0.058335498 -0.08134948
0.00034715928 0.0005045114 0.00039237723 -0.00015193151 -0.00011311464 0.0001873875 0.0005930199 -0.0031058078
1.9912419e-05 0.0010806508 -0.0004045265 0.00037189023 7.2882685e-06 -0.002085776 -0.0012867013 -0.0006149931
00000000: ba4e ad38 1c65 b3b9 8feb 6938 4fe7 02ba
00000010: 6035 0439 5464 55b8 9aca 4d39 fcf0 2939
00000020: d744 ad39 00b8 abb5 04d8 8c39 d11b e339
00000030: 65ad ec38 92d1 edb8 6d07 f6b8 7bd5 90b9
00000040: caaf 39bd e195 43bd 28f7 e6bd e683 40bd
00000050: 5f73 39bd 86c7 87bd 0305 edbc 9df8 0fbb
00000060: 1052 e0bd 856a 5fbc a8e0 04bd 44c9 bdbd
00000070: c51b 91bd 872b 2dbd c556 67bd 3b28 cdbd
00000080: 8042 3ebc 1332 30bc a9c3 2cbd 8571 d9bc
00000090: 056f ecbc 8d6f 4abd 7225 5abc c9f3 7fbd
000000a0: a56f b4bb dc5f 94bd 00e9 b7bc 378a 8fbd
000000b0: b263 eabc a054 28bd 496c 51bd d72b 9fbb
000000c0: 698c 2e39 828a 13ba 9881 073a e4f1 8139
000000d0: fd9e 3f39 b8b8 fab8 4e04 3f38 0aa7 0fb8
000000e0: 03b8 dbb9 736b aeb9 4eaa a239 ea7d 0fb8
000000f0: cb3b 5c39 d27a 6839 3808 51b7 5c98 29b9
00000100: 5437 81b9 8ae8 05b9 1010 5a37 9cc2 1fb9
00000110: 94d4 9f39 b455 34b7 c839 fe38 80d7 84b9
00000120: 263f 64b8 a3d5 8c39 6406 8238 3fc6 b4b9
00000130: 40ce b8b9 baf0 39b9 d415 8938 8c43 7338
00000140: 5933 05bb e4e6 65bc 0442 babc 869d d2bc
00000150: 9594 d3bb 25ce afbc 260e 3cbc da7e 92bc
00000160: 00ca 35bb 9cca 5ebb c1dd 71bc 89ae 06bd
00000170: 72e1 97bc 5650 05bc 25c7 f3bc b517 56bc
00000180: 35ec 9a38 3ebe 6f38 8375 1439 d4b0 96b8
00000190: a428 1bb9 e038 0938 860f ecb8 2a43 29b8
000001a0: f965 93b8 b308 3938 2d9b c2b8 5ec0 2ab8
000001b0: 1a9b fab8 6910 0d39 4bd2 2a38 1539 4bb9
000001c0: 655a c5bd 41cd c1bd e68a a4bd e0f0 3dbc
000001d0: 4221 b8bd 7fb0 42bd 3f4d c0bd 9a89 2fbc
000001e0: 9328 f4bc 4d6e a7bd ae79 b7bb 0d44 75bd
000001f0: 1e3d e639 88d8 d3bd ffef 1bbd a076 84bc
00000200: 8c92 debc b72b c3bc 7d48 e8ba 3b6b a8bd
00000210: d8ab a4bd 8b17 61bd 8eb4 a5bc 4818 a4bb
00000220: 2b98 86bd 13e1 d7bc 5dc2 8fba 18f6 6dbd
00000230: 0cc7 ebbb 92ca 52bb b633 3dbd 99d1 4dbd
00000240: 0959 f4bc 2872 64bb e73e 87bc 8e50 1cbd
00000250: a012 d73a f7e0 8dba 1723 49bc a40e 40bd
00000260: cae7 7f38 10c0 a5ba 6a2b 36bb d9b8 a3bc
00000270: 3057 a238 b4ec a6bc 8a1c 7dbb 71eb 93bc
00000280: 68c7 0ebc e1ad bbbd a68c eebb 1cbc b6bd
00000290: 1de5 b7bd 4014 83bd 3113 c7bd 0f4c 98bd
000002a0: aa17 43bd e7c0 8fbc 96ad 15bd 845f b2bd
000002b0: ef16 65bd aa29 cabd ac16 7cbc b663 aabd
000002c0: 27cb 10bd f9fa a43a 27e4 dcbd a84d a5bd
000002d0: de2e aebd 1421 e7bc 3b73 c4bd b79c a7bd
000002e0: fba7 b3bd 9b18 f1bc 70be 2bbd f20b 1cbb
000002f0: e47f b4bd 071a c7bc 87e4 72bc d22f c4bd
00000300: f60a 72ba ac30 ee39 e912 8539 8486 21ba
00000310: ea30 a8ba 790a 87bb dc60 b2bb a0f9 13bb
00000320: 79ed 0db8 812d 04ba bcb9 de3a 8191 913a
00000330: f593 23bb b023 93bb 02fd 61bb cbc2 03bc
00000340: 58f8 5abb 4e50 c6bc cc50 83bd d97c 8bbd
00000350: 8653 64bb 84f9 cdbd 9011 89bd fd3d 9dbd
00000360: 4ab8 8bbd 060a 95bc 5c80 4fbd 7743 ccbc
00000370: c035 413a a9b6 e2bd eafd 1fbd 44e4 afbd
00000380: f51e ffbc 4c00 0dbc 4c12 8bbd 7310 81bd
00000390: b9e2 debd e08b cabd 80b5 99bc e23f d0bd
000003a0: 0f9c ecbb 68a1 6abd 2e20 84bd 3c96 abbc
000003b0: 7248 f4ba bbdd 06bd 34f1 6ebd 8e9a a6bd
000003c0: ee02 b639 3041 043a fbb7 cd39 ce4f 1fb9
000003d0: f637 edb8 737d 4439 e474 1b3a cf8a 4bbb
000003e0: 9809 a737 a0a4 8d3a a116 d4b9 43fa c239
000003f0: c08d f436 84b1 08bb 88a6 a8ba 7d37 21ba

layer2.0.bias f4 [32]
-0.011179494 -0.008566894 -0.0006009369 0.08320541 4.7031906e-05 -0.0006789169 0.04563282 -0.013765958
0.06448566 -0.038340144 -0.037791144 0.04166938 -0.0043218737 0.042951956 0.076979555 -0.015909927
0.035667542 -0.030992474 -0.00509226 -0.0956764 0.00063610845 -0.0004950808 0.04417673 0.060557075
0.06570432 -0.016718643 -0.027544225 0.00028553724 -0.009952385 -0.012473283 0.00024439863 -0.043230947
00000000: 322a 37bc 285c 0cbc 3188 1dba 9967 aa3d
00000010: 2044 4538 58f9 31ba 7be9 3a3d 9d8a 61bc
00000020: 0f11 843d 8e0a 1dbd e3ca 1abd 83ad 2a3d
00000030: 819e 8dbb 64ee 2f3d 75a7 9d3d 8955 82bc
00000040: 2118 123d eee3 fdbc f9dc a6bb fdf1 c3bd
00000050: 84c0 263a 4fc8 01ba a9f2 343d b20a 783d
00000060: fd8f 863d 89f5 88bc 6da4 e1bc 29b4 9539
00000070: 540f 23bc be5c 4cbc a122 8039 ef12 31bd

layer4.0.weight f4 [128, 1568]
0.009214956 0.0089503955 0.01696698 0.02336243 0.006722224 -0.00091781205 0.0080055855 0.0320805
0.032975703 0.035579447 0.021079065 0.031967327 0.020970449 0.013506541 0.062602915 0.055588156
0.04036377 0.05659208 0.044690657 0.024359254 0.027249366 0.03524396 0.042124346 0.03652978
0.02848636 0.038825564 0.03382869 0.022492774 0.03943943 0.064412065 0.0546928 0.038819436
0.046588533 0.02525959 0.019318655 0.036138058 0.04438339 0.049000733 0.06818764 0.03799577
0.036104076 0.027204387 0.025938282 0.0154688805 0.02550713 0.038644675 0.025275145 0.016581446
0.0125886295 0.031470805 0.05360648 0.027808197 0.05606126 0.046208233 0.03501293 0.03160037
0.051629953 0.036033146 0.041923042 0.03899879 0.038171634 0.048153173 0.035849243 0.016802657
0.015708726 0.013315404 0.017731566 0.020327294 0.04873824 0.03989261 0.022524176 0.012870299
0.017197642 0.010290794 0.017041245 0.027012961 0.03429582 -0.0008720029 -0.0011411569 -0.000781113
-0.0002823001 0.02454441 0.026495127 0.032406423 0.05013987 0.0526326 0.04811874 0.05629278
0.027023548 0.06300584 0.031472515 0.031013723 0.03787493 0.05305101 0.055698115 0.04330223
0.03387018 0.04810288 0.04285991 0.058870357 0.066770025 0.028228909 0.032578014 0.021393722
0.034247153 0.055337973 0.03951576 0.061973125 0.050051227 0.0314034 0.0392691 0.06753751
0.03784197 0.05391645 0.059151504 0.068678595 0.0320443 0.036039203 0.063064575 0.042582255
0.039241645 0.024826659 0.025351001 0.039592378 0.035362177 0.037360497 0.038970698 0.045720622
0.043902565 0.068816744 0.04284884 0.051994193 0.03146785 0.05277873 0.07013302 0.05446857
0.0771181 0.041644037 0.06825137 0.030314162 0.058533132 0.069360316 0.058059257 0.046798386
0.043586675 0.06587953 0.04188607 -0.015521762 -0.004699633 -0.027617898 -0.034174185 -0.047035888
-0.045419186 -0.033994522 -0.02480949 -0.01143139 -0.0073901024 -0.037855253 -0.035100333 -0.035188098
-0.039637394 -0.021162095 -0.017859885 -0.006870263 -0.023898702 -0.032826312 0.0015436435 -0.031389926
0.007819356 -0.013179959 -0.032231692 -0.031530157 -0.014429469 -0.025759803 -0.031405985 -0.007359553
-0.028619653 -0.031254146 -0.032239262 -0.027337382 -0.01665208 -0.023405613 -0.012754375 -0.0036301566
-0.019042475 0.005323369 -0.025462093 -0.023672152 -0.021382041 -0.003989779 -0.029504132 -0.017054131
-0.013543862 -0.0237861 -0.010357987 -0.0058275107 6.748891e-05 2.5152338e-05 -9.943357e-05 -5.1508116e-05
4.838999e-05 -1.4497018e-05 -2.7198512e-05 1.34979855e-05 -0.00011823233 7.069767e-05 -2.8233837e-05 7.720516e-05
0.000109549575 5.0808176e-05 6.077214e-05 8.5422405e-05 -3.701578e-05 4.375338e-05 2.0095236e-05 -1.647386e-07
-3.3741606e-05 -0.00014939885 -0.00015962264 0.0001957371 -5.290074e-05 -3.5039586e-05 -5.1891227e-05 3.3685687e-05
0.0011934685 0.0038010485 0.0047600623 0.0050886464 3.480656e-05 0.00024249808 -1.7303064e-06 3.4052187e-05
4.365458e-05 -6.3876636e-05 -3.5646815e-05 -2.2036735e-05 2.7854778e-05 -6.207072e-05 6.813044e-05 -5.351455e-05
4.3919834e-05 2.398333e-05 -7.5201715e-06 2.4444349e-05 9.771e-05 -0.00013167378 6.5273256e-05 -9.027894e-05
9.5045e-06 -3.798532e-05 0.00025550948 0.00024685336 -0.00033317567 0.0007009262 0.00050318905 -4.426418e-05
00000000: 54fa 163c aea4 123c 56fe 8a3c 9162 bf3c
00000010: 1a46 dc3b 5399 70ba dc29 033c d866 033d
00000020: 8811 073d c1bb 113d 01ae ac3c 2cf0 023d
00000030: 38ca ab3c 8a4a 5d3c f535 803d 68b0 633d
00000040: 7b54 253d 19cd 673d 8d0d 373d 0f8d c73c
00000050: 103a df3c f85b 103d 948a 2c3d 40a0 153d
00000060: 3a5c e93c 8e07 1f3d f48f 0a3d c442 b83c
00000070: 3d8b 213d 79ea 833d 8f05 603d 2101 1f3d
00000080: 9ed3 3e3d 33ed ce3c 2842 9e3c 8005 143d
00000090: 5ccb 353d feb4 483d f6a5 8b3d 74a1 1b3d
000000a0: dee1 133d bcdb de3c 857c d43c 3071 7d3c
000000b0: 54f4 d03c e149 1e3d d20d cf3c d0d5 873c
000000c0: 8a40 4e3c 88e7 003d 7892 5b3d 04ce e33c
000000d0: 7ea0 653d d844 3d3d b869 0f3d 646f 013d
000000e0: ee79 533d 7e97 133d 7fb7 2b3d 32bd 1f3d
000000f0: dc59 1c3d 433c 453d a8d6 123d baa5 893c
00000100: 96af 803c da28 5a3c ca41 913c 6d85 a63c
00000110: c0a1 473d 6f66 233d 9f84 b83c f2dd 523c
00000120: 12e2 8c3c b89a 283c 159a 8b3c 494a dd3c
00000130: c679 0c3d 2097 64ba df92 95ba 9bc3 4cba
00000140: ae01 94b9 5c11 c93c 4f0c d93c 99bc 043d
00000150: 775f 4d3d 4895 573d 2818 453d 4293 663d
00000160: 7d60 dd3c 3509 813d 53e9 003d 7e10 fe3c
00000170: be22 1b3d 044c 593d b523 643d ae5d 313d
00000180: 75bb 0a3d 8707 453d df8d 2f3d 0b22 713d
00000190: b9be 883d 5040 e73c 8670 053d e341 af3c
000001a0: be46 0c3d 12aa 623d 47db 213d 88d7 7d3d
000001b0: 8402 4d3d daa0 003d a3d8 203d 1b51 8a3d
000001c0: 2e00 1b3d 7fd7 5c3d d948 723d 5da7 8c3d
000001d0: e240 033d d89d 133d 0028 813d bb6a 2e3d
000001e0: d9bb 203d 4761 cb3c e7ac cf3c 9e2b 223d
000001f0: eed7 103d 5207 193d bd9f 1f3d 8c45 3b3d
00000200: 2dd3 333d cbef 8c3d 4482 2f3d ddf7 543d
00000210: 6fe4 003d 822e 583d e7a1 8f3d 6f1a 5f3d
00000220: 18f0 9d3d f092 2a3d 60c7 8b3d 6855 f83c
00000230: 70c0 6f3d c80c 8e3d 8bcf 6d3d aaaf 3f3d
00000240: f187 323d d9eb 863d ba90 2b3d fd4e 7ebc
00000250: 61ff 99bb ee3e e2bc 3bfa 0bbd b4a8 40bd
00000260: 7809 3abd d73d 0bbd 463d cbbc ba4a 3bbc
00000270: ac28 f2bb 1c0e 1bbd 5ec5 0fbd 6521 10bd
00000280: d25a 22bd 215c adbc e54e 92bc f11f e1bb
00000290: 36c7 c3bc e274 06bd 1554 ca3a b992 00bd
000002a0: c21c 003c c1f0 57bc 6105 04bd c425 01bd
000002b0: 9469 6cbc 3906 d3bc 90a3 00bd 6828 f1bb
000002c0: c373 eabc 5904 00bd 510d 04bd a5f2 dfbc
000002d0: f169 88bc 21bd bfbc baf7 50bc ece7 6dbb
000002e0: f7fe 9bbc a86f ae3b e195 d0bc 1aec c1bc
000002f0: 6429 afbc b1bc 82bb a6b2 f1bc 1bb5 8bbc
00000300: 13e7 5dbc 11db c2bc 8cb4 29bc b4f4 bebb
00000310: d588 8d38 3cfe d237 fe86 d0b8 6b0a 58b8
00000320: 5bf6 4a38 3838 73b7 5c28 e4b7 6875 6237
00000330: 80f3 f7b8 8643 9438 b4d7 ecb7 34e9 a138
00000340: fbbd e538 dd1a 5538 97e5 7e38 ce24 b338
00000350: 6441 1bb8 d683 3738 3192 a837 00e3 30b4
00000360: c685 0db8 f3a7 1cb9 6060 27b9 c73e 4d39
00000370: bde1 5db8 78f7 12b8 c8a5 59b8 bb49 0d38
00000380: 286e 9c3a 031b 793b 4cfa 9b3b a9be a63b
00000390: 42fd 1138 1547 7e39 e03c e8b5 42d3 0e38
000003a0: c019 3738 82f5 85b8 7a83 15b8 87db b8b7
000003b0: aea9 e937 f72b 82b8 40e1 8e38 cf74 60b8
000003c0: 9036 3838 cf2f c937 c855 fcb6 d70d cd37
000003d0: a8e9 cc38 e911 0ab9 50e3 8838 2354 bdb8
000003e0: 8475 1f37 6d52 1fb8 e7f5 8539 196c 8139
000003f0: 15ae aeb9 5cbe 373a 72e8 033a 4da8 39b8

layer4.0.bias f4 [128]
-0.032851752 -0.014135411 0.003396692 -0.024876881 -3.804948e-05 -0.020580435 -0.030757237 0.00023395082
1.3636669e-05 -0.00014211303 -0.038586248 -0.032012183 -0.013048739 3.111248e-05 0.070292145 0.08705814
1.4167505e-05 -0.033847492 -0.028700683 5.2829007e-05 0.064372346 0.06004374 0.008640591 0.039329063
-0.02695104 -0.022883892 0.07806207 -0.008359138 0.00022937047 0.04351288 -0.007954076 0.109721124
-1.549759e-05 0.011105801 -0.023456657 0.00046131073 0.00016663622 -1.5892481e-05 -0.030756019 0.07273059
-0.0066399556 9.312557e-05 6.464613e-05 0.04054422 -0.02038254 0.004297477 -0.00022184126 0.05398657
0.089086376 0.097522415 -0.032555692 -7.693477e-05 0.0645617 -0.00011147736 -7.983317e-05 0.110427536
0.00011267818 -0.024719283 5.840986e-06 -0.044176057 -0.05182693 -0.022882665 7.7157194e-05 0.047585875
-0.0102677625 -0.030029742 -2.6270649e-05 -0.05337976 -0.0005568519 0.04731434 0.07538075 0.040708136
3.5647063e-06 -0.010977405 -0.00044210034 -0.0066372496 5.013366e-05 5.1501836e-05 -0.00723114 -0.0019425178
-0.029418716 -0.0002494648 -0.029683845 -4.579435e-06 0.04777076 0.09912333 0.06496561 -0.03218245
-0.00016245205 -0.019334165 -7.7195815e-05 -0.012673885 0.071264036 0.00016085443 -5.574703e-05 -0.028739287
2.2317894e-05 0.07240072 -0.010925957 -0.040880032 0.0060546994 -0.0300546 1.857169e-05 -0.0010930992
0.0032864395 -0.026247082 0.0044866847 0.07580946 -0.043756295 -0.021594778 -0.037016317 3.8907252e-05
0.09744147 0.045913655 -0.05341501 5.998712e-05 0.007265296 -0.01715467 -0.000902416 -0.016639905
-0.0328206 5.7293313e-05 -0.048879325 -0.024349911 -0.021902837 -0.028334526 0.09396145 0.0007088838
00000000: 8f8f 06bd 3698 67bc 099b 5e3b 9aca cbbc
00000010: 5197 1fb8 4d98 a8bc 9af6 fbbc b250 7539
00000020: 0cc9 6437 2d04 15b9 9d0c 1ebd 351f 03bd
00000030: 61ca 55bc c57e 0238 54f5 8f3d 8a4b b23d
00000040: f8b0 6d37 aba3 0abd b21d ebbc b794 5d38
00000050: a6d5 833d 6df0 753d 4491 0d3c 8317 213d
00000060: 6dc8 dcbc 0077 bbbc 02df 9f3d c4f4 08bc
00000070: 2b83 7039 903a 323d d051 02bc 78b5 e03d
00000080: d200 82b7 1bf5 353c 2d28 c0bc 14dc f139
00000090: 12bb 2e39 d850 85b7 0cf4 fbbc c7f3 943d
000000a0: fc93 d9bb 694c c338 a092 8738 b211 263d
000000b0: 49f9 a6bc dad1 8c3b 0f9e 68b9 0621 5d3d
000000c0: eb72 b63d d5b9 c73d 1e59 05bd 0a58 a1b8
000000d0: ed38 843d f4c8 e9b8 1b6c a7b8 d527 e23d
000000e0: a34d ec38 1880 cabc b0fd c336 f4f1 34bd
000000f0: 7a48 54bd 6d74 bbbc 74cf a138 68e9 423d
00000100: 1e3a 28bc ef00 f6bc ca5f dcb7 bca4 5abd
00000110: b3f9 11ba aecc 413d 3961 9a3d 93bd 263d
00000120: 3039 6f36 93da 33bc b4c9 e7b9 497d d9bb
00000130: 9c46 5238 ad03 5838 33f3 ecbb 159c feba
00000140: 85ff f0bc 99ca 82b9 892b f3bc 0ca9 99b6
00000150: 46ab 433d 2c01 cb3d b10c 853d bfd1 03bd
00000160: e457 2ab9 af62 9ebc 30e4 a1b8 20a6 4fbc
00000170: e1f2 913d 08ab 2839 ebd1 69b8 a76e ebbc
00000180: 5037 bb37 d446 943d c902 33bc d271 27bd
00000190: 8066 c63b 1135 f6bc 67ca 9b37 5346 8fba
000001a0: 4e61 573b 1f04 d7bc 0a05 933b fd41 9b3d
000001b0: cd39 33bd 88e7 b0bc 6c9e 17bd 5830 2338
000001c0: 658f c73d f50f 3c3d b3c9 5abd ae9a 7b38
000001d0: b811 ee3b f387 8cbc 1d90 6cba 6950 88bc
000001e0: e56e 06bd 3a4e 7038 b035 48bd 7779 c7bc
000001f0: 946d b3bc cf1d e8bc dc6e c03d 63d4 393a

layer5.0.weight f4 [3, 128]
-0.07391517 -0.064536594 -0.096838325 -0.004481968 -0.00012834373 -0.05790765 -0.0027783 -0.0044255457
-0.00019535114 -0.002898009 0.020400703 0.013629996 -0.028167862 -0.043636244 -0.091003045 -0.09875838
0.00021854194 5.5867666e-05 -0.011354053 4.0161198e-05 -0.1239397 -0.0017105401 -0.1387046 1.0875789e-05
-0.11926541 0.021324037 -0.05269075 -0.07348828 0.00084936345 -0.00014554677 -0.068433836 -0.12158498
0.00028607654 -0.12465034 -0.06253925 -8.257257e-05 0.030893466 3.3657307e-05 -0.0001629014 -0.10130957
3.9620463e-06 -4.279752e-05 -0.024198402 0.00022436318 -0.0075174575 -0.13414133 0.073430456 -0.00011752209
-0.1239632 -0.12619805 6.351468e-05 1.164819e-05 -0.00030858 -0.00019017147 2.2555538e-05 -0.12597336
-0.017469028 -0.037348863 -9.594174e-05 -0.00022712094 0.00011531376 -0.06657826 0.00033772225 -5.340321e-05
-0.02063922 0.0016708033 0.00012436754 -0.000103113016 -0.0121360645 2.2535394e-05 -0.07518037 -0.0002109794
-0.000119615856 -0.028110998 -0.105611086 -0.028546356 0.00034250985 8.656952e-05 -0.030143782 0.00032987352
0.0018239896 -0.0003199005 0.00022097344 -0.00017418692 5.089143e-05 -0.13189895 -0.07863995 -0.0571079
-0.00026135505 0.0027377424 -0.00037657697 -0.02034365 -0.07601935 -0.021947734 7.6182136e-05 -0.012494194
-0.00020662656 -0.11949489 -0.083513886 1.7760794e-05 -0.08872312 0.003611236 8.829947e-05 -5.033957e-05
5.3019445e-05 0.019936016 0.0003235321 -0.07531828 0.00011563445 -0.10548479 0.008163397 -0.00014273208
-0.09743115 -0.09879721 8.373698e-05 -0.047915485 -0.12774493 -0.023572968 -0.03908225 -0.0025254465
0.01513227 -9.045083e-05 3.1663803e-06 -0.13713478 -0.0027793932 -0.002427444 -0.12107603 8.884288e-05
-0.030815464 -0.04424251 -0.04365326 2.415914e-05 -9.344754e-05 -0.04576174 -1.3228588e-05 2.7268714e-05
-2.9120165e-05 -7.797117e-05 0.00011099101 -9.905427e-06 -0.00012626204 -2.3964822e-07 -0.053393405 -0.06374538
-0.00016537722 -0.0389281 -1.6484482e-05 1.2236829e-05 -0.051388696 -0.053208757 -0.045198064 -0.053386502
-0.034573294 -0.00027000395 -0.053276334 -0.030847272 2.0805126e-05 -0.051292427 -0.04587262 -0.065553725
4.3292275e-05 -0.047624186 -0.035861064 -0.06350403 0.00020904248 -0.0003048809 -0.04741229 -0.05044936
-0.047668435 0.0001490817 -0.00013392861 -0.06594335 -0.042329215 -0.042933475 -0.0001334089 -0.066389754
-0.061534498 -0.053166665 -0.047656946 -0.0002962151 -0.065045096 -0.054261852 5.00745e-05 -0.058480475
-0.00015707502 -0.03790223 -0.028864024 -0.044809133 -0.03534751 -0.031373315 0.00028330073 -0.051561844
0.00031991658 -5.186512e-05 -4.928952e-05 -0.03783714 0.00018958986 -0.0665609 -0.06275726 -0.0533405
6.792028e-05 9.2646296e-05 -0.035672884 0.0002243152 -0.00015637008 9.59337e-05 -8.35377e-05 -0.039284494
0.00030638283 3.4562498e-05 -0.047150414 0.00010153842 -0.06494 -0.06663721 -0.06658893 -0.041540224
-0.058899567 -7.247316e-05 0.00018341017 -0.0003384011 -0.052620333 0.00020232148 0.00026979658 -0.00014691957
-0.00015795522 -0.05459097 -0.031869993 -0.031283006 -0.043150377 -7.395242e-05 1.7172151e-05 -0.050369382
-0.049255602 -0.0002961562 -0.049070794 -0.050180003 -0.03279882 -0.04557583 -6.2579747e-06 4.0890176e-05
-0.062090453 -0.04975492 -0.039995197 2.3030787e-05 -0.044638764 -0.00012351015 0.00027443966 -0.00018337448
2.1589512e-06 3.912519e-06 -0.032750864 -0.039494816 3.2384058e-05 0.00022348866 -0.055071954 -0.06109269
00000000: d660 97bd c32b 84bd 2c53 c6bd 79dd 92bb
00000010: 0294 06b9 9230 6dbd 2414 36bb 2b04 91bb
00000020: 2cd7 4cb9 86ec 3dbb 601f a73c 5950 5f3c
00000030: 4ac0 e6bc ebbb 32bd ce5f babd d541 cabd
00000040: 6828 6539 7353 6a38 5a06 3abc c272 2838
00000050: 19d4 fdbd 3434 e0ba 9408 0ebe 2877 3637
00000060: 6c41 f4bd bfaf ae3c 42d2 57bd 0681 96bd
00000070: d1a7 5e3a ea9d 18b9 0a27 8cbd 8c01 f9bd
00000080: 8bfc 9539 ad48 ffbd 9414 80bd d02a adb8
00000090: 4b14 fd3c 422b 0d38 83d0 2ab9 647b cfbd
000000a0: b8f1 8436 7d81 33b8 ba3b c6bc 0843 6b39
000000b0: 0155 f6bb 585c 09be b562 963d 3176 f6b8
000000c0: 6be0 fdbd 103a 01be 2f33 8538 986c 4337
000000d0: e8c8 a1b9 c468 47b9 a635 bd37 29ff 00be
000000e0: 351b 8fbc 1ffb 18bd 5434 c9b8 5027 6eb9
000000f0: 9ad4 f138 2f5a 88bd 5010 b139 43fd 5fb8
00000100: 9513 a9bc dbfe da3a a868 0239 613e d8b8
00000110: 58d6 46bc 640a bd37 2af8 99bd 5a3a 5db9
00000120: 46da fab8 0949 e6bc a04a d8bd 0cda e9bc
00000130: e592 b339 a88c b538 18f0 f6bc e0f2 ac39
00000140: ef12 ef3a 51b8 a7b9 1bb5 6739 f2a5 36b9
00000150: 4274 5538 8510 07be fb0d a1bd f9e9 69bd
00000160: 7b06 89b9 b26b 333b 4e6f c5b9 baa7 a6bc
00000170: 08b0 9bbd bccb b3bc f9c3 9f38 73b4 4cbc
00000180: e5a9 58b9 bdb9 f4bd 5409 abbd 04fd 9437
00000190: 78b4 b5bd 7daa 6c3b 6b2d b938 b423 53b8
000001a0: 3261 5e38 db50 a33c be9f a939 7840 9abd
000001b0: c680 f238 6908 d8bd c5bf 053c 5aaa 15b9
000001c0: fc89 c7bd 3156 cabd f39b af38 0743 44bd
000001d0: 91cf 02be 191c c1bc b614 20bd f681 25bb
000001e0: 57ed 773c 6bb0 bdb8 007e 5436 0f6d 0cbe
000001f0: 7b26 36bb c115 1fbb b6f6 f7bd 2851 ba38
00000200: b670 fcbc a237 35bd c3cd 32bd 5ca9 ca37
00000210: 44f9 c3b8 aa70 3bbd 5af0 5db7 1ebf e437
00000220: 1447 f4b7 7484 a3b8 d8c3 e838 7c2f 26b7
00000230: 3565 04b9 00a9 80b4 0bb3 5abd f08c 82bd
00000240: 1c69 2db9 1273 1fbd 2848 8ab7 c84c 4d37
00000250: f47c 52bd 6df1 59bd 9b21 39bd ceab 5abd
00000260: ba9c 0dbd 518f 8db9 4938 5abd 6bb3 fcbc
00000270: ab86 ae37 0218 52bd eee4 3bbd 0841 86bd
00000280: ba94 3538 9411 43bd 0de3 12bd 670e 82bd
00000290: 6a32 5b39 6cd8 9fb9 6433 42bd fda3 4ebd
000002a0: fa3f 43bd d052 1c39 306f 0cb9 4f0d 87bd
000002b0: 6661 2dbd 03db 2fbd aee3 0bb9 5af7 87bd
000002c0: 990b 7cbd 4ac5 59bd ee33 43bd 514d 9bb9
000002d0: 5d36 85bd ad41 5ebd 1607 5238 3989 6fbd
000002e0: 81b4 24b9 5e3f 1bbd 3f74 ecbc c889 37bd
000002f0: 8dc8 10bd 4e81 00bd fb87 9439 8332 53bd
00000300: 7aba a739 c089 59b8 38bc 4eb8 1efb 1abd
00000310: a4cc 4639 1551 88bd e186 80bd 917b 5abd
00000320: 6c70 8e38 1a4b c238 bb1d 12bd 2736 6b39
00000330: 46f7 23b9 0330 c938 f630 afb8 c7e8 20bd
00000340: 02a2 a039 33f7 1038 cb20 41bd 06f1 d438
00000350: 43ff 84bd 1779 88bd c75f 88bd 1526 2abd
00000360: ac40 71bd bbfc 97b8 cb51 4039 6d6b b1b9
00000370: 6b88 57bd 4226 5439 7c73 8d39 6c0e 1ab9
00000380: c8a0 25b9 c89a 5fbd 1c8a 02bd 9c22 00bd
00000390: 73be 30bd e716 9bb8 ea0c 9037 2050 4ebd
000003a0: 3ec0 49bd 6a45 9bb9 75fe 48bd 8c89 4dbd
000003b0: 0e58 06bd b9ad 3abd 98fb d1b6 7e81 2b38
000003c0: 8f52 7ebd d1cb 4bbd 01d2 23bd 3d32 c137
000003d0: 23d7 36bd 8182 01b9 abe2 8f39 3648 40b9
000003e0: 80e2 1036 4848 8336 c525 06bd 51c5 21bd
000003f0: 1ed4 0738 4858 6a39 2193 61bd 543c 7abd

layer5.0.bias f4 [3]
-0.11661647 -0.06202815 -2.2567205e-05
00000000: 9ed4 eebd 3b11 7ebd b44e bdb7
