minerl-model.pth (torch, 852687 bytes, 8 tensors)

layer1.0.weight f4 [16, 3, 8, 8]
0	0x3c5201c6	0.012817806
1	0xbc9feeda	-0.019523073
2	0xbc6a9aaa	-0.014319101
3	0x3d5c33c7	0.053760316
4	0x3c82dc76	0.015974265
5	0xbd48683c	-0.04892753
6	0x3cf5eee0	0.030021131
7	0xbd51022d	-0.051027466
8	0x3d77c42c	0.06048982
9	0xbd2fd920	-0.042931676
10	0xbd673776	-0.056449376
11	0x3ca89ef0	0.0205836
12	0xbbea2db9	-0.007146564
13	0x3d90e28d	0.07074461
14	0xbc5fd909	-0.013662585
15	0xbb947c4a	-0.004531418
16	0x3c0961ae	0.008385105
17	0x3c230405	0.009949689
18	0x3d33e463	0.04391898
19	0xbc0eeb87	-0.008723146
20	0xbccb06e6	-0.024783563
21	0x3d1bafcf	0.03800946
22	0x3d526d2b	0.051373642
23	0xbd36e073	-0.044647645
24	0x3d8e99d0	0.06962931
25	0x3c28c1ab	0.01030008
26	0x3d56c403	0.052433025
27	0xbbc2584f	-0.0059309374
28	0x3d13081b	0.0358964
29	0x3d857e39	0.06518216
30	0xbc84a08e	-0.01618984
31	0x3bb62860	0.0055590123
32	0xbb0b2425	-0.002123126
33	0x3d738d66	0.05946102
34	0xbbf0bde7	-0.007346857
35	0x3bbe3428	0.0058045574
36	0x3d835fda	0.064147666
37	0x3d039d4f	0.032132443
38	0xbd35be7e	-0.04437112
39	0x3ccc8a20	0.024968207
40	0xbad7ab8e	-0.0016454326
41	0xbd74d82c	-0.05977647
42	0xbd8db0be	-0.069184765
43	0xbd91435d	-0.07092927
44	0x3d00870f	0.031378802
45	0xbbcf8e7b	-0.0063341237
46	0xbc9faeeb	-0.019492587
47	0xbd7860fa	-0.06063936
48	0xbccd8507	-0.025087846
49	0xbd0d5483	-0.034504425
50	0x3d811b2d	0.063040115
51	0x3d294d85	0.041333694
52	0x3c3ed3e7	0.011647201
53	0xbd94189b	-0.072312556
54	0xbd6c2515	-0.05765255
55	0xbd3b3a6e	-0.04571002
56	0x3d632e94	0.055464342
57	0xbc02e72c	-0.007989686
58	0x3d4a0ec8	0.049330503
59	0xbb41737f	-0.0029518304
60	0x3cce91cb	0.025216004
61	0xbd4cd208	-0.05000499
62	0xbc712296	-0.014717719
63	0xbcd9cb73	-0.02658627
64	0x3d6764db	0.056492668
65	0x3d310a62	0.043222792
66	0x3c21f3d2	0.009884791
67	0xbd21026b	-0.039308947
68	0xbd22ef71	-0.03977913
69	0xbd8939a1	-0.06700445
70	0xbd2bc341	-0.041934256
71	0x3d4694d6	0.048481785
72	0x3d716437	0.058933463
73	0x3d1f82bb	0.038943034
74	0x3d397a7c	0.045282826
75	0xbd942678	-0.072339
76	0x3c353442	0.0110598225
77	0xbcd61a42	-0.026135568
78	0xbce8d96e	-0.028423991
79	0x3cc15710	0.023601085
80	0x3c563378	0.013073795
81	0x3cfed50e	0.031107452
82	0x3d1c45b6	0.03815242
83	0xbd6f0638	-0.05835554
84	0xbd7d1438	-0.06178686
85	0x3d3fa814	0.04679115
86	0x3c2a6150	0.010399178
87	0xbd2d09c0	-0.042245626
88	0x3d5e22e6	0.0542325
89	0x3d180534	0.037114337
90	0xbd4d4966	-0.050118826
91	0x3d2b81bc	0.04187177
92	0xbb7cc170	-0.0038567446
93	0xbcb74c9c	-0.022375397
94	0x3d3c9f56	0.046050392
95	0xbd316f35	-0.043318946
96	0xbd739ca7	-0.059475567
97	0xbd618c9e	-0.055065744
98	0x3d3d69c9	0.046243463
99	0xbc0f5392	-0.008747952
100	0xbd886009	-0.06658942
101	0x3d408a48	0.047006875
102	0xbd803950	-0.062609315
103	0x3d43f9cc	0.047845647
104	0x3c01fad8	0.007933341
105	0x3c550f47	0.013004131
106	0xbb209054	-0.0024500089
107	0xbd713107	-0.058884647
108	0xbd462afc	-0.048380837
109	0x3d5d8295	0.05407961
110	0x3d5111b3	0.05104227
111	0xbc95b0fb	-0.018272867
112	0x3af6b3c9	0.0018821891
113	0xbb929e7a	-0.0044744583
114	0x3d54aff9	0.051925633
115	0x3d530fb9	0.051528666
116	0x3ccc4fa2	0.024940316
117	0x3d1ad40d	0.037799884
118	0x3d8e4b2f	0.06947934
119	0xbd0cd7f7	-0.034385648
120	0x3cbff166	0.023430537
121	0x3cee2e6e	0.029074874
122	0xbbafc180	-0.005363643
123	0xbc0c2cbc	-0.008555587
124	0xbcb59c1e	-0.022169169
125	0x3d23f53a	0.04002879
126	0xbd1cba57	-0.038263645
127	0x3d8f8d25	0.07009343
128	0xbd32a541	-0.04361463
129	0xbc96e377	-0.01841901
130	0xbd7702da	-0.060305454
131	0x3d8b9ef2	0.06817426
132	0x3cf48065	0.02984638
133	0xbc846a82	-0.016164068
134	0x3d8fdb75	0.0702428
135	0xbd2a1807	-0.04152682
136	0x3c3a529b	0.011372234
137	0xbd7d4089	-0.061829124
138	0xbd970de0	-0.07375693
139	0xbc5b2a52	-0.013376789
140	0xbc22fa5c	-0.009947386
141	0xbc4ab757	-0.012372813
142	0x3d5ad781	0.053428177
143	0x3d43157d	0.047627915
144	0x3cd085bb	0.025454393
145	0xbd750127	-0.059815552
146	0x3d5506bc	0.052008376
147	0xbd9572af	-0.07297265
148	0xbcd66a6a	-0.026173789
149	0x3d4ddad8	0.050257534
150	0x3d36adb8	0.044599265
151	0xbd035f5e	-0.03207337
152	0xbbc2a8a2	-0.0059405128
153	0xbd9e00ae	-0.077149734
154	0x3c948fd7	0.018134994
155	0xbc0b2b63	-0.008494231
156	0xbda30454	-0.0795981
157	0x3cbf4742	0.023349408
158	0xbbaa2acb	-0.0051930896
159	0xbd44ad9d	-0.048017133
160	0xbd975bfc	-0.073905915
161	0x3ca29069	0.01984425
162	0x3cfc4537	0.030794723
163	0xbd39d4b3	-0.04536886
164	0x3d483aee	0.048884325
165	0xbccdedf0	-0.025137872
166	0x3c8e76dd	0.017390663
167	0xbd08d6e8	-0.033408076
168	0xbc663341	-0.014050306
169	0xbd8e6907	-0.06953626
170	0x3d691b74	0.056910947
171	0xbcd1f5be	-0.025629874
172	0xbc04ceec	-0.008105975
173	0xbd3df946	-0.046380304
174	0x3d65470c	0.05597596
175	0xbd8e83b9	-0.06958718
176	0x3c5ec30f	0.01359631
177	0xbd7349e1	-0.05939663
178	0xbd563617	-0.052297678
179	0x3d8c2e2f	0.06844746
180	0xbd0bf279	-0.034166787
181	0x3990e1e2	0.00027634116
182	0xbd646c93	-0.055767607
183	0x3ba4b2b5	0.0050261864
184	0x3d461072	0.048355527
185	0x3d125b16	0.035731398
186	0x3d033630	0.0320341
187	0x3d41abc9	0.047282968
188	0xbd481fbf	-0.0488584
189	0xbd16d2e2	-0.036822207
190	0xbb068bd4	-0.0020530121
191	0xbd4117e6	-0.047141932
192	0x3d14b0b9	0.03630135
193	0xbd6e258a	-0.05814127
194	0xbc8d7984	-0.017269857
195	0xbc61c113	-0.013778943
196	0x3d705f8d	0.058684874
197	0xbd14bf90	-0.0363155
198	0xbd6453e1	-0.055744056
199	0xbd8b8949	-0.068132944
200	0x3c7ff6d9	0.015622818
201	0xbc9ee25d	-0.019395048
202	0x3c75a0d7	0.0149919605
203	0x3d113741	0.035453085
204	0x3d6841a8	0.05670324
205	0x3d0ed04e	0.034866624
206	0x3d34e515	0.044163782
207	0xbd9aab8d	-0.07552252
208	0x3cb4e5a7	0.022082163
209	0xbc037051	-0.008022384
210	0xbd79ed4e	-0.061017327
211	0x3c0bf57b	0.008542414
212	0xbd84d9d3	-0.06486859
213	0x3d3c2f01	0.045943264
214	0x3d69fa6d	0.05712359
215	0x3ca590a2	0.020210568
216	0x3d1397e8	0.03603354
217	0x3cc56037	0.02409373
218	0x3c5de8b5	0.013544251
219	0xbcb2a588	-0.021807447
220	0xbd764f82	-0.06013442
221	0xbca93020	-0.02065283
222	0x3d0123bc	0.03152822
223	0xbd206218	-0.03915605
224	0xbd6b77b8	-0.05748722
225	0xbcd26524	-0.025682993
226	0x3b11c531	0.002224278
227	0x3d76779d	0.060172666
228	0xbced58f8	-0.028973088
229	0x3d51c9ac	0.05121772
230	0xbcf77e3c	-0.03021156
231	0x3d74a046	0.05972316
232	0x3cee97ad	0.029125059
233	0xbd720cf1	-0.059094373
234	0x3d585fc3	0.0528257
235	0xbd5e6ee4	-0.054304972
236	0x3c4634ec	0.0120975785
237	0x3bd28179	0.0064241257
238	0xbd2a169f	-0.04152548
239	0x3cdb615c	0.026779823
240	0xbda00709	-0.07813842
241	0xbca8c841	-0.020603301
242	0x3d17de18	0.03707704
243	0xbd76bea8	-0.060240418
244	0x3c81c760	0.01584214
245	0xbd35a324	-0.044345036
246	0xbc31ab13	-0.01084401
247	0x3d47f86f	0.04882091
248	0xbd3eac0d	-0.0465508
249	0xbceaa0fe	-0.02864122
250	0xbc964991	-0.018345626
251	0x3c78c46a	0.0151835475
252	0x3d579f78	0.052642316
253	0xbd4b00ad	-0.04956119
254	0xbcaf2f74	-0.021384932
255	0x3c0b4cde	0.008502213

layer1.0.bias f4 [16]
0	0xbd7abcb3	-0.061215114
1	0x3c5cb607	0.013471133
2	0x3d1458af	0.036217388
3	0xbcc03fc1	-0.0234679
4	0xbd95ee0a	-0.07320793
5	0xbcb9e204	-0.02269078
6	0xbc38eadf	-0.011286466
7	0xbd0a26fb	-0.03372858
8	0xbcbe5711	-0.023234876
9	0xbd1b6d88	-0.037946254
10	0xbc017112	-0.007900493
11	0xbd8d7812	-0.06907667
12	0x3ccfde3b	0.025374522
13	0x3c2b0900	0.0104391575
14	0x3d0c66c3	0.03427769
15	0xb9a2bc17	-0.00031039186

layer2.0.weight f4 [32, 16, 4, 4]
0	0xbae9918b	-0.0017819864
1	0x3caba13e	0.02095091
2	0x3b1771dc	0.0023108637
3	0xbd32bbaa	-0.043636
4	0x3b1f6cbe	0.002432629
5	0x3d4d95d6	0.050191723
6	0x3d23ecbb	0.040020686
7	0x3d49acf5	0.04923721
8	0xbce11c76	-0.027479392
9	0x3d4b3cb1	0.049618427
10	0x3b6136c0	0.003436491
11	0xbd613997	-0.054986563
12	0x3d14ac77	0.036297288
13	0x3c8d0ea5	0.017218897
14	0xbcbd2d37	-0.02309285
15	0x3c9f456e	0.019442286
16	0x3d5113fd	0.051044453
17	0xbcd69c43	-0.026197558
18	0xbd54332f	-0.051806625
19	0x3c296545	0.010339086
20	0xbced4f46	-0.028968465
21	0xbd502345	-0.050814886
22	0xbaf48778	-0.0018656095
23	0x3d12b3b5	0.035815913
24	0x3c267462	0.010159584
25	0x3c0c7510	0.008572832
26	0xbcea7fc7	-0.028625382
27	0xbd36f261	-0.044664744
28	0xbd688826	-0.056770466
29	0x3b1f5a3b	0.0024315256
30	0x3b83c5bb	0.004021374
31	0xbd5aa9d3	-0.053384613
32	0x3ce8bdfd	0.028410906
33	0xbb81ada8	-0.003957469
34	0xbc7a8b33	-0.015291977
35	0xbc58ddf5	-0.013236512
36	0x3a6365ef	0.0008674552
37	0xbd4ea18a	-0.050447024
38	0xbd0b75cc	-0.034047887
39	0xbc2b1485	-0.010441904
40	0x3c9c1809	0.01905443
41	0xbcca1b24	-0.024671145
42	0x3d50a345	0.050936956
43	0x3d04dc4a	0.032436647
44	0xbd89cb7e	-0.06728266
45	0x3d19bd01	0.037533764
46	0xbc7e9713	-0.015538949
47	0x3d49fc25	0.04931273
48	0x3d40e877	0.047096696
49	0x3c44d9cb	0.0120148165
50	0xbcf36006	-0.029708873
51	0x3d480c83	0.048840057
52	0x3cc9bd87	0.024626506
53	0x3d471ca8	0.048611313
54	0xbcdd2266	-0.026993942
55	0x3c571bf3	0.013129222
56	0x3d666ec3	0.056257974
57	0xbd09b548	-0.03362015
58	0x3d11d73a	0.035605647
59	0xbb45b214	-0.0030165957
60	0x3c157c10	0.009123817
61	0x3d554463	0.05206717
62	0x3d70ddfb	0.058805447
63	0x3d3429ff	0.043985363
64	0xbd010b4b	-0.03150491
65	0xbcd877d8	-0.026424333
66	0xbd1d2dbe	-0.0383737
67	0x3cdf9a86	0.027295362
68	0x3a0e0aa2	0.00054184545
69	0x3d022b92	0.031779833
70	0x3cc4ad01	0.024008276
71	0x3d4b128e	0.049578242
72	0xbd6fbdbf	-0.058530565
73	0xbc8c4b77	-0.017125828
74	0x3cfb1f2d	0.030654514
75	0xbce3ec82	-0.027822737
76	0x3c865f87	0.016402973
77	0x3ca8c3f0	0.020601243
78	0x3c69a36a	0.014260152
79	0xbd7767ee	-0.06040185
80	0xbce94636	-0.028475862
81	0x3d085568	0.033284575
82	0x3d06b249	0.03288487
83	0xbce67d67	-0.028135968
84	0x3d55fb28	0.052241474
85	0xbd715be6	-0.05892553
86	0xbcccd13c	-0.025002114
87	0xbd28dfb6	-0.041228972
88	0x3c8c7d49	0.017149584
89	0xbc02e2d1	-0.007988648
90	0xbd1454ef	-0.03621381
91	0xbd6a9a09	-0.057275806
92	0xbc9dea48	-0.019276753
93	0x3ab86ff2	0.0014071448
94	0x3bc7e8cd	0.00610075
95	0x3963171a	0.00021657013
96	0xbd13f365	-0.03612079
97	0x3d3e178e	0.046409182
98	0x3c90f26f	0.017693726
99	0xbc6128db	-0.013742651
100	0x3cda7a73	0.026669716
101	0x3cd9c233	0.02658186
102	0x3d184371	0.037173692
103	0x3d2191e8	0.039445788
104	0x3c30d9c6	0.010794109
105	0xbb9153fd	-0.004435061
106	0xbd33b731	-0.043875877
107	0xbd7a5e8f	-0.061125334
108	0x3c650ca8	0.013980068
109	0x3c326974	0.0108894
110	0xbd0fdbc0	-0.03512168
111	0xbd740ce5	-0.05958261
112	0x3d0caecf	0.034346398
113	0xbcae2244	-0.021256573
114	0x3d0831e0	0.03325069
115	0x3ced1d4f	0.02894464
116	0xbc7ae60a	-0.015313635
117	0x3d0209a5	0.03174748
118	0x3cd808f5	0.026371459
119	0x3d16d323	0.03682245
120	0x3ce6cde2	0.028174344
121	0xbd171f82	-0.036895283
122	0x3c0dcccc	0.008654784
123	0x3d2cf6bf	0.042227503
124	0x3cea707f	0.028618095
125	0xbb60c3e8	-0.0034296457
126	0x3d11a4cf	0.035557564
127	0x3d2b1144	0.041764513
128	0x3ae1302b	0.0017180493
129	0xbd88cc08	-0.06679541
130	0x3cbb2e65	0.022849271
131	0x3cafd109	0.02146198
132	0x3cd7b0c6	0.02632941
133	0x3c86982d	0.016429985
134	0x3cea05e6	0.028567266
135	0xbc4993dd	-0.01230332
136	0xbc7583da	-0.014985049
137	0xbd034736	-0.032050334
138	0xbd38f8d5	-0.04515918
139	0xbd639176	-0.055558644
140	0xbc3020e6	-0.010750031
141	0xbd3fd512	-0.04683406
142	0xbbdca11a	-0.006733072
143	0x3cf1536d	0.029458726
144	0x3bf7cb97	0.0075621116
145	0x3c5ba7d4	0.013406713
146	0xbd170a0b	-0.036874812
147	0xbd033bcd	-0.032039452
148	0x3ce9ad12	0.02852491
149	0xbd17f1a1	-0.03709567
150	0x3d385c8e	0.045010142
151	0x3d0c86a8	0.034308106
152	0x3d238c90	0.039928973
153	0x3ae550f4	0.0017495439
154	0x3a2b8706	0.00065432524
155	0x3d73dd83	0.059537422
156	0xb953ee78	-0.00020211365
157	0xbc9f1134	-0.019417383
158	0x3d5a9d9e	0.05337297
159	0x3c468ba8	0.012118258
160	0xbcc8e87e	-0.024524923
161	0x3b35d352	0.0027744365
162	0x3bf45302	0.0074561844
163	0x3c98f49c	0.018671326
164	0xbce8e57d	-0.028429741
165	0x3cc3ef43	0.0239178
166	0xbcbc933d	-0.023019427
167	0x3c02fbda	0.007994616
168	0x3bf253cf	0.0073952447
169	0x3cf50215	0.02990822
170	0xbd866514	-0.06562248
171	0x3d4c8471	0.049930993
172	0x3d4a3634	0.0493681
173	0xbd768c66	-0.060192488
174	0x3cda2dc9	0.02663316
175	0x3ca89926	0.02058084
176	0x39100a5b	0.00013736768
177	0xbca2beca	-0.019866366
178	0x3d4ea9df	0.05045497
179	0x3c2caf18	0.0105397925
180	0x3b9dd6c1	0.0048168604
181	0x3a8408ec	0.001007346
182	0xbd87c803	-0.06629946
183	0x3d3d5d05	0.04623129
184	0x3c8d625c	0.017258815
185	0xbd1b6020	-0.03793347
186	0x3bd62e9f	0.0065363194
187	0xbd57a23c	-0.052644953
188	0x39df466b	0.0004258634
189	0x3d51914d	0.05116396
190	0xbbf58abf	-0.0074933465
191	0xbcc5f58f	-0.024164943
192	0x3d451f73	0.048125695
193	0xbd3d67f5	-0.04624172
194	0x3b0c3164	0.0021391744
195	0x3c1d7e9e	0.009612707
196	0x3c67f458	0.014157377
197	0xbd541f58	-0.051787704
198	0xbd1f3b2c	-0.03887479
199	0xbd606e61	-0.054792766
200	0xbc97faf7	-0.018552287
201	0x3d509d55	0.050931294
202	0x3ba29259	0.0049612937
203	0x3d3eec2d	0.046611954
204	0xbd5a8537	-0.0533497
205	0xbcf08741	-0.02936137
206	0x3d275833	0.040855598
207	0x3cc7ff97	0.024413867
208	0xbd185d51	-0.03719837
209	0x3bad456e	0.0052878177
210	0xbbd89852	-0.006609955
211	0xbd661b02	-0.0561781
212	0x3d124e24	0.035719052
213	0xba24707f	-0.0006272867
214	0x3d67ef83	0.0566249
215	0x3ce1a786	0.027545702
216	0x3d435a95	0.047693808
217	0x3c6553d0	0.013997033
218	0xbd78b288	-0.060717136
219	0xbba34b07	-0.004983309
220	0x3bc412d9	0.005983692
221	0x3cc26dbc	0.023733966
222	0xbc12288b	-0.008920799
223	0xbd3f9e4a	-0.046781816
224	0x3d32c40e	0.043644004
225	0xbd264094	-0.04058893
226	0xbc92abe8	-0.017904237
227	0x3d1cbbd8	0.03826508
228	0x3d05cba4	0.03266491
229	0xbc9ddbf2	-0.019269917
230	0xbd00c98a	-0.031442203
231	0x3d3975b8	0.04527828
232	0xbd773d78	-0.060361356
233	0x3d0243d2	0.03180296
234	0xbb8dd1dd	-0.004327996
235	0xbc9690ba	-0.018379558
236	0x3d3b7cd3	0.04577334
237	0x3c02b038	0.007976584
238	0xbd7b24f1	-0.061314527
239	0x3c3d06cb	0.011537264
240	0x384b0ea6	4.8412614e-05
241	0x39292867	0.00016132147
242	0x382b5b47	4.0854586e-05
243	0xb926fa34	-0.00015924202
244	0xb919932f	-0.00014646047
245	0x3a5b2e44	0.0008361081
246	0x3902c18a	0.00012469865
247	0xb5fc1370	-1.878112e-06
248	0xba9579e7	-0.0011404128
249	0x37f13dc4	2.87582e-05
250	0x38d3f9ba	0.00010107779
251	0x39c9e85e	0.00038510835
252	0xba9d00ac	-0.001197835
253	0x39a04f67	0.00030576737
254	0x39943d4f	0.00028274438
255	0x382a80b3	4.065102e-05

layer2.0.bias f4 [32]
0	0x3c56f25f	0.013119309
1	0x3d4a5868	0.049400717
2	0x38658162	5.471835e-05
3	0xba459a65	-0.000753796
4	0xbcd6dee6	-0.026229333
5	0x3cefed1a	0.029287864
6	0xbc9d84b4	-0.019228317
7	0xbd236882	-0.03989459
8	0x3c80c10d	0.015717054
9	0xbbe3c825	-0.0069513493
10	0x3c29da4d	0.010366988
11	0xbd43dde0	-0.04781902
12	0xbd84fd3c	-0.06493613
13	0xba392ac3	-0.0007063562
14	0x3c1a7ff7	0.009429923
15	0x3d45204d	0.048126508
16	0xbca1fdb6	-0.0197743
17	0x3cfe9f29	0.031081753
18	0xbca074d4	-0.019586958
19	0x357df4b0	9.460591e-07
20	0xbd4cfb66	-0.05004444
21	0x3d1fc697	0.03900775
22	0x3c1a21c8	0.009407468
23	0xbbfdcf61	-0.0077456688
24	0xbd6b5fb0	-0.0574643
25	0xbc54427d	-0.012955305
26	0x3c2d9480	0.010594487
27	0x3b116988	0.0022188146
28	0xbb85ffd5	-0.0040893354
29	0x3d0ca409	0.034336124
30	0xbc935585	-0.017985115
31	0xb8ef66d8	-0.00011415564

layer4.0.weight f4 [128, 1568]
0	0xbcc99704	-0.024608143
1	0xbc799d73	-0.015235293
2	0xba5d8dd6	-0.0008451616
3	0xbcae61b3	-0.021286821
4	0x3c269ea6	0.010169661
5	0xbcf0898d	-0.029362464
6	0xbccfccf8	-0.025366291
7	0x3c0fd17f	0.008777975
8	0xbc447448	-0.011990614
9	0xbc94df29	-0.018172817
10	0xbc930e9c	-0.017951302
11	0xbc9be087	-0.019027961
12	0xbba25099	-0.0049534556
13	0xbb9aa599	-0.004719448
14	0xbced32e9	-0.02895494
15	0xbcbdad6c	-0.023153983
16	0xbc8ed5c8	-0.017435923
17	0xbc8c7dcd	-0.01714983
18	0xbc73a9cd	-0.014872027
19	0x3c17f7b5	0.009275367
20	0x3a034e15	0.00050088885
21	0x3c9c7caf	0.019102423
22	0xbc068396	-0.0082100835
23	0x3b4a4dd8	0.0030869152
24	0xbcf3c4e4	-0.02975697
25	0xbcced7f3	-0.025249457
26	0xbca0ae69	-0.019614415
27	0xbc9064c2	-0.01762617
28	0xbcca712d	-0.02471217
29	0xbc8ba5eb	-0.01704689
30	0xbbdf6e0c	-0.0068185385
31	0x3c65d170	0.014026985
32	0x3c763070	0.015026197
33	0xbccf4067	-0.025299264
34	0x3c4c2c89	0.01246179
35	0x3c8c6273	0.017136788
36	0x3c06bda5	0.008223926
37	0xbcf5603c	-0.029953115
38	0xbc029b71	-0.00797163
39	0x3c5d74fa	0.013516659
40	0x3c198761	0.009370656
41	0xba39c66b	-0.00070867565
42	0xb9857a50	-0.00025458867
43	0xbbc0ac7e	-0.0058799377
44	0xbbb07499	-0.0053849933
45	0xbc9426b6	-0.018084865
46	0xbcd12c40	-0.025533795
47	0x3c987b4c	0.01861348
48	0xbcea1063	-0.028572267
49	0x3c628aea	0.013827065
50	0x3ab9be59	0.0014171108
51	0x3b0135e9	0.001971597
52	0x3c919325	0.01777036
53	0xbbfa6276	-0.007641132
54	0xbc95b8e5	-0.018276641
55	0xbcd85586	-0.026407968
56	0x3bf2b6ba	0.0074070366
57	0xba14093a	-0.0005647127
58	0xbc8ff81e	-0.017574366
59	0xbc3c00ae	-0.011474771
60	0x3c77258a	0.015084634
61	0x3b829d79	0.0039860574
62	0x3c23c899	0.009996557
63	0x3be3045a	0.006928009
64	0xbcf6871f	-0.030093728
65	0xbceea5ab	-0.029131731
66	0x3b6f5ca1	0.0036523717
67	0x3bbcf05c	0.0057659578
68	0xbca44dc4	-0.020056613
69	0xbcfab3dc	-0.030603342
70	0xbb1cd23b	-0.0023929018
71	0xbc72ce4a	-0.014819691
72	0x3c02a031	0.007972763
73	0x3a8369b1	0.0010026005
74	0xbcfbde02	-0.03074551
75	0xbc9d322d	-0.019188965
76	0x3c7ea191	0.01554145
77	0xbc84e7f0	-0.016223878
78	0x3c51564e	0.012776924
79	0x3b1d48bc	0.0023999652
80	0xbc9a4f3b	-0.018836608
81	0x3c907848	0.01763548
82	0x3bfd7c9f	0.0077358033
83	0xbcdf4904	-0.027256496
84	0xbaab4443	-0.0013066608
85	0x3bbcd877	0.0057631093
86	0x3c9afc41	0.018919112
87	0x3c722920	0.014780313
88	0x3c7907cf	0.015199616
89	0xbca5f15d	-0.020256693
90	0xbc8b0e0f	-0.016974477
91	0xbbf5fb34	-0.0075067524
92	0xbce2b960	-0.027676284
93	0xbc4c4377	-0.012467257
94	0x3c593d77	0.013259283
95	0xbc74b8a4	-0.0149366
96	0x3c45b7cb	0.012067745
97	0x3c35dc80	0.011099935
98	0xb7caa296	-2.4155986e-05
99	0xb50811d8	-5.0689914e-07
100	0xbc803bba	-0.01565348
101	0xbc9e9f8c	-0.019363187
102	0x3b6fe399	0.0036604165
103	0xbbe248e6	-0.006905663
104	0xbc63be7f	-0.013900398
105	0x3716f0b3	8.996739e-06
106	0xb8aa3075	-8.1152575e-05
107	0x3a253ed5	0.0006303613
108	0x3bb0ab08	0.0053914823
109	0xbad272b3	-0.0016055912
110	0x3b8ba930	0.004262112
111	0xbc94b6b5	-0.018153528
112	0x3b8b61ef	0.004253618
113	0x3c074045	0.008255069
114	0x3c48d110	0.012256876
115	0xbb5e9ab9	-0.0033966734
116	0xbc3e2f62	-0.011607977
117	0x392efa53	0.00016687186
118	0x37837a17	1.567327e-05
119	0xbc9c6daa	-0.01909526
120	0xbca5b06a	-0.020225722
121	0xbc322b51	-0.010874585
122	0x3c866fe3	0.016410774
123	0x3af28190	0.0018501747
124	0xb951d2b7	-0.0002001029
125	0xb8ed1016	-0.00011304037
126	0xbbfcd1de	-0.007715448
127	0x3c5f9ebd	0.013648686
128	0xbb739810	-0.0037169494
129	0x354d0494	7.6375113e-07
130	0xb833995b	-4.281975e-05
131	0x388b8917	6.6535715e-05
132	0xb8edb26e	-0.00011334276
133	0xbcdb91d5	-0.026802937
134	0xbbf84f4e	-0.007577813
135	0x3c0140d3	0.00788899
136	0x3abccfa2	0.0014405141
137	0xbcf38c8f	-0.02973011
138	0xbc3ac81a	-0.011400247
139	0xbbd2457e	-0.0064169755
140	0xbc2ce40f	-0.01055242
141	0xbcc3a310	-0.023881465
142	0x3c9b9dc0	0.01899612
143	0xbc18c4cd	-0.009324265
144	0xbb341784	-0.0027479837
145	0x3c0819e9	0.008306959
146	0xbcc9dc39	-0.024641143
147	0x392924b6	0.00016130772
148	0xbc603f37	-0.013686947
149	0xbca01f75	-0.01954625
150	0x3c4e1e86	0.01258052
151	0xbcdf2d7a	-0.027243365
152	0xbb56ace5	-0.0032756862
153	0xbb81e198	-0.0039636604
154	0x3923b4b0	0.00015612203
155	0xba7c0828	-0.00096142525
156	0x3c1d3095	0.009594102
157	0x3bbae434	0.0057034735
158	0x3b2425d1	0.0025046954
159	0xbbd06c5e	-0.0063605746
160	0x3aeb52a6	0.0017953708
161	0xbcc9fdd1	-0.024657162
162	0xbbd29301	-0.0064262156
163	0xbc96afbf	-0.01839435
164	0x3bfd2fa0	0.0077266246
165	0xbcb2c454	-0.021822132
166	0x3be3e311	0.0069545587
167	0xbb7b03e2	-0.0038301875
168	0xbc9d8c9a	-0.019232083
169	0xbcf5fd14	-0.030027904
170	0xbc961fee	-0.018325772
171	0xbcd80e47	-0.026373995
172	0xba999254	-0.0011716583
173	0xbc994b37	-0.018712623
174	0xbba18562	-0.0049292305
175	0xbc9a91b3	-0.018868303
176	0x3c289c78	0.010291211
177	0xbc0b6823	-0.008508715
178	0xbba3a182	-0.0049936185
179	0x3bcf038f	0.006317563
180	0x3b460a90	0.0030218698
181	0xbcc32df1	-0.023825618
182	0xbc1e719a	-0.009670639
183	0x3a1ae4fd	0.00059087557
184	0xbb99b224	-0.0046904255
185	0xbcd29766	-0.025706958
186	0xbcd28059	-0.025695967
187	0xbcced552	-0.025248203
188	0xbb859cc4	-0.004077526
189	0xbc611023	-0.013736757
190	0xbb96e3ae	-0.0046047783
191	0x3c1d5fce	0.009605361
192	0xbc7f2e3c	-0.015574988
193	0xbcd9d015	-0.026588479
194	0x3b39b7db	0.0028338346
195	0xbc9ae580	-0.018908262
196	0xbc4844f2	-0.012223469
197	0xbc492b16	-0.012278339
198	0x3bedecf0	0.007260911
199	0xbc0e7684	-0.0086952485
200	0xbc0581a7	-0.008148587
201	0x3c022a50	0.007944658
202	0xbcb8c3c7	-0.022554291
203	0xba9993a3	-0.0011716973
204	0xbb2d8648	-0.0026477743
205	0x3b57dd3b	0.003293826
206	0xbc81125a	-0.015755821
207	0x3c0e5128	0.008686341
208	0xbc8ee94f	-0.017445235
209	0xbc6530f8	-0.013988726
210	0x3bf6655b	0.0075194067
211	0x3c62944f	0.013829305
212	0xbc623a2a	-0.013807813
213	0x3b0a572e	0.0021109092
214	0xbceaedfd	-0.028677935
215	0x3aecd062	0.0018067474
216	0xb75066af	-1.2421674e-05
217	0x3bb14073	0.0054092943
218	0x3c91d6a8	0.017802551
219	0xbcfba47f	-0.030718086
220	0x3c923a72	0.017850135
221	0xbcf112df	-0.029427944
222	0xbc252d16	-0.01008155
223	0x3889c51c	6.5693835e-05
224	0x3c38ebae	0.011286659
225	0xbce2cee7	-0.02768655
226	0x3b9120b2	0.0044289464
227	0x38506ef0	4.9694383e-05
228	0x38ab3fab	8.1657745e-05
229	0x3824da91	3.9304203e-05
230	0xbbf09ac5	-0.0073426687
231	0xbac93652	-0.0015351272
232	0xbb857415	-0.004072676
233	0x3c9a8256	0.018860977
234	0xbc89385f	-0.016750513
235	0x3c846f82	0.016166452
236	0x3b1e219f	0.0024128926
237	0xbca0d01e	-0.019630488
238	0x3c49ca1d	0.012316254
239	0x3b3725bd	0.0027946078
240	0xbbf1f082	-0.007383407
241	0x3c89923d	0.016793365
242	0xbbd34c42	-0.0064482996
243	0x3c65d617	0.014028094
244	0xbbb752a1	-0.005594567
245	0x3b7702e2	0.0037690927
246	0x3c1b0d46	0.009463614
247	0x3b9bceae	0.0047548627
248	0x3aa97c9a	0.0012930811
249	0x39be4157	0.00036288306
250	0x3c8e3dcb	0.01736345
251	0xbbad5fb6	-0.0052909506
252	0x3c4c6e6b	0.012477498
253	0x3b946a66	0.0045292852
254	0x3c97e825	0.018543312
255	0xbc922d03	-0.017843729

layer4.0.bias f4 [128]
0	0xbc783ae8	-0.015150763
1	0xbc4a13dd	-0.012333837
2	0x341cb300	1.4593752e-07
3	0xbb51a3b0	-0.0031988434
4	0x3b0fef65	0.0021962759
5	0xb7066908	-8.011477e-06
6	0xb8a613ef	-7.91921e-05
7	0x380379be	3.1346215e-05
8	0x3871a13e	5.7609046e-05
9	0x3cf7e72c	0.030261599
10	0xb7d1fd11	-2.5032585e-05
11	0x37da47a1	2.602098e-05
12	0xb720f990	-9.594849e-06
13	0x3b0f9aa4	0.0021912241
14	0x3cb5deaf	0.02220091
15	0xbc1d995c	-0.009619083
16	0xba023be8	-0.0004968033
17	0xbb965a9b	-0.0045884377
18	0xb728abb2	-1.0053556e-05
19	0xbbc1747f	-0.00590378
20	0xbc2bf491	-0.010495321
21	0xbc385717	-0.011251233
22	0xba6860f4	-0.0008864545
23	0xbb319e32	-0.0027102348
24	0xb84ed89e	-4.9315968e-05
25	0xbc8270cf	-0.015922932
26	0x386bc545	5.6212088e-05
27	0x3bf58c00	0.007493496
28	0x3ade3ef9	0.0016956023
29	0xbbd084cd	-0.0063634873
30	0xbc161c2a	-0.009161988
31	0xbce221f5	-0.027604083
32	0x3c058d53	0.00815137
33	0xbc5066ae	-0.012719793
34	0xb822be55	-3.880107e-05
35	0x3c00bc5d	0.007857409
36	0x3ce1a097	0.027542396
37	0x3ca38b43	0.019963866
38	0xbb53b290	-0.0032302476
39	0xb8e2edf2	-0.000108208405
40	0xbc519075	-0.012790789
41	0x3ce9edc6	0.028555762
42	0xb8f694bc	-0.00011757898
43	0x37691493	1.38926725e-05
44	0x3c9e3088	0.01931025
45	0xbc3cc089	-0.011520513
46	0x3b393768	0.0028261784
47	0x3b9aa290	0.004719086
48	0x3c232f0f	0.00995995
49	0xbc739cbe	-0.014868913
50	0xbb15632b	-0.0022794704
51	0xbbd75f3c	-0.006572632
52	0x3bfe7d62	0.0077664116
53	0x3bafe3e5	0.0053677433
54	0x38fd4dd5	0.000120784774
55	0xbcea0b14	-0.028569736
56	0xbcb344ae	-0.021883335
57	0xb7b93e4c	-2.2082728e-05
58	0x3c8278e6	0.01592679
59	0xbc83ccd2	-0.016088877
60	0xbc9f443a	-0.019441713
61	0x3cca8500	0.024721622
62	0xb9a66309	-0.00031735774
63	0xbc2b190a	-0.0104429815
64	0xbc8d32ad	-0.017236078
65	0x3c322248	0.010872431
66	0x372b8364	1.0222986e-05
67	0xbca117ff	-0.019664763
68	0xb5e25e40	-1.6865743e-06
69	0xb5d15708	-1.5597043e-06
70	0x389be695	7.433925e-05
71	0xb9489bac	-0.00019131479
72	0x3b0af223	0.0021201454
73	0xb87e23a0	-6.0591497e-05
74	0x370fd3d6	8.572786e-06
75	0xbcbe9d05	-0.023268232
76	0x384a6703	4.825649e-05
77	0xb838bfe3	-4.4047727e-05
78	0xb9bfa8b4	-0.00036556053
79	0x36e8aaf7	6.9340417e-06
80	0x3c2afc54	0.010436136
81	0xbc1a9d4a	-0.009436915
82	0x3c8d29f7	0.017231924
83	0x38939d57	7.038813e-05
84	0xbb95a2ea	-0.00456654
85	0xb7d8ed48	-2.58597e-05
86	0x3ce43853	0.027858889
87	0x3c3cf5f4	0.011533249
88	0xbc830a16	-0.01599602
89	0x3b3fd50a	0.0029271268
90	0xb83869ea	-4.396766e-05
91	0xbc979778	-0.018504843
92	0x3cb50669	0.022097783
93	0x3af8d66e	0.0018984803
94	0x3c699059	0.014255607
95	0x3aeffcc9	0.0018309589
96	0xbb87de4d	-0.0041463734
97	0x3bf009f4	0.0073254053
98	0xbc737cbc	-0.014861282
99	0xbc165ee3	-0.009177896
100	0xb8a31e1e	-7.7780554e-05
101	0x3c7ba18e	0.015358342
102	0xb8a7f9fc	-8.009744e-05
103	0x3c16aab8	0.009195976
104	0xbbabf60d	-0.0052478374
105	0xb62ac8d8	-2.544888e-06
106	0x370270c8	7.774863e-06
107	0x3c553e46	0.013015335
108	0xb886b67c	-6.423608e-05
109	0xb70e9aa3	-8.499864e-06
110	0x375e3ece	1.3246854e-05
111	0xbc896e24	-0.016776152
112	0x38d78efe	0.00010278633
113	0xb7d392e2	-2.5221558e-05
114	0xb8c0154e	-9.159242e-05
115	0xbc04ef0e	-0.008113636
116	0xbc6477c9	-0.013944575
117	0xbcbb1351	-0.02283636
118	0xbbd66689	-0.006542985
119	0xbc6e435e	-0.014542429
120	0x3669d332	3.4842637e-06
121	0xbc11bed8	-0.008895598
122	0x3749a771	1.2019519e-05
123	0x369d5360	4.6886707e-06
124	0x3767feab	1.3827967e-05
125	0xbb818bdf	-0.0039534415
126	0x3bbf30a1	0.0058346544
127	0xbc136f1c	-0.0089986585

layer5.0.weight f4 [3, 128]
0	0x3d953868	0.07286149
1	0x3d6dab71	0.058024827
2	0x37a34e48	1.9467567e-05
3	0x3d4031c4	0.04692246
4	0xbc287103	-0.01028085
5	0xbc37fe97	-0.011230133
6	0xbadecbbe	-0.0016997976
7	0xbb96d9e3	-0.004603611
8	0x3bec4e49	0.0072114808
9	0xbda5a2d6	-0.08087699
10	0x3be74ba4	0.0070585776
11	0x3786e601	1.6081149e-05
12	0xb9020f8b	-0.00012403556
13	0xbda1d80a	-0.07902534
14	0xbd1df4b8	-0.03856346
15	0x3d906377	0.070502214
16	0xbb109aae	-0.0022064853
17	0x3da4b838	0.080429494
18	0xbbedb9a3	-0.0072547956
19	0x39962fb9	0.00028645786
20	0xbc076924	-0.008264814
21	0x3d20c2d9	0.03924832
22	0x395616b7	0.00020417092
23	0x3cac9395	0.021066466
24	0xbbf8997d	-0.0075866566
25	0x3d95fd75	0.07323734
26	0xbaacadd8	-0.0013174368
27	0xbd869625	-0.065716065
28	0xba416729	-0.0007377738
29	0x3c6e4515	0.014542838
30	0x3d9c5dd5	0.076350845
31	0xbd2a1187	-0.04152062
32	0x3b47682f	0.0030427088
33	0xba2ab28e	-0.0006511592
34	0x3c41051a	0.011781001
35	0x3d9e71b2	0.077365294
36	0x36988aba	4.546103e-06
37	0xbc22af7e	-0.009929536
38	0xbd793902	-0.060845383
39	0x3969d97c	0.00022301631
40	0xbd702042	-0.058624513
41	0xbcf7010b	-0.030151865
42	0x377257d7	1.4444776e-05
43	0xb9f58f70	-0.0004683691
44	0xbc9406b5	-0.018069604
45	0x3d56741e	0.05235683
46	0xbab8cb84	-0.0014098738
47	0x3c2886ea	0.010286072
48	0x381db2ca	3.7598227e-05
49	0xbdaf27d2	-0.08552517
50	0xbac4e520	-0.0015021898
51	0x3d677bee	0.056514673
52	0x3d2c7eb2	0.042113014
53	0x3d9d826a	0.0769089
54	0x39f621b7	0.00046945896
55	0x3d6d9ec0	0.058012724
56	0xbdba018e	-0.09082328
57	0x39e880cb	0.00044346447
58	0x3d9f7e63	0.07787778
59	0x3d6cd2da	0.05781827
60	0xb7b79824	-2.1886146e-05
61	0xbd998f78	-0.074980676
62	0xbbad069d	-0.0052803294
63	0xbc362385	-0.011116867
64	0xbd3bf387	-0.045886543
65	0x3d70a88d	0.058754493
66	0x3bf118ae	0.0073576784
67	0x3d7453b0	0.059650123
68	0x39db92bf	0.0004188027
69	0xbb912fba	-0.0044307383
70	0x3834f701	4.3145385e-05
71	0x3d92f954	0.07176462
72	0xbc1ee685	-0.009698515
73	0xb895a027	-7.134704e-05
74	0x39db1518	0.0004178665
75	0xbd8498c3	-0.064744495
76	0x37a9104e	2.0153962e-05
77	0x380695f2	3.2087737e-05
78	0xbd5c8a21	-0.053842667
79	0xb8fd1e46	-0.00012069619
80	0xbd1cd795	-0.038291533
81	0x3ca705a2	0.020388428
82	0xbd358196	-0.044313036
83	0x39fbc0e0	0.00048018154
84	0xbd401b02	-0.046900757
85	0x3c3bb613	0.011456984
86	0xbd72fd01	-0.059323315
87	0xb7e776d9	-2.7592689e-05
88	0xbd0712fe	-0.032977097
89	0x3cc16d52	0.023611698
90	0xbac2694e	-0.0014832409
91	0xbd7a91ec	-0.06117432
92	0xbc48aeeb	-0.012248735
93	0x3d57d293	0.052691054
94	0x3d4d6493	0.050144743
95	0xbc33837b	-0.01095664
96	0xbd27e9cd	-0.040994454
97	0x3d2902a3	0.04126228
98	0x3d03b2d7	0.032152977
99	0xbd08bb74	-0.033381894
100	0xb7a6d730	-1.9888947e-05
101	0xbc1a15a5	-0.0094045745
102	0x38d63670	0.00010214455
103	0xb92cbb01	-0.00016472863
104	0xb7f757ec	-2.9485636e-05
105	0xb9440dfb	-0.00018697225
106	0xb944a7b4	-0.00018754491
107	0x3d82b140	0.06381464
108	0x3827cbe4	4.000579e-05
109	0x39b98edd	0.0003539239
110	0xb7533c9c	-1.2590692e-05
111	0xbc6640af	-0.014053508
112	0x38fe218d	0.00012117913
113	0xb82c3d2d	-4.106497e-05
114	0xb8c0fc80	-9.202305e-05
115	0x3d21160e	0.039327674
116	0x3d866971	0.0656308
117	0x3d9a49c8	0.07533604
118	0x3a8d976f	0.0010802577
119	0xbdb5ab16	-0.08870523
120	0x3b85f4fd	0.004088043
121	0x39565a56	0.00020442283
122	0x38c6e188	9.483384e-05
123	0xbbf00dbc	-0.007325856
124	0xb75d8b8a	-1.32051155e-05
125	0x3d972d45	0.07381681
126	0xbd24f2f5	-0.040270764
127	0x3d0a2540	0.03372693
128	0xbc5dcb01	-0.013537169
129	0xbd990b95	-0.07472912
130	0x3b206e05	0.002447964
131	0xb9426ead	-0.00018542512
132	0x3d589815	0.05287941
133	0x3a888c4d	0.001041779
134	0xba84c6e1	-0.0010130071
135	0xb8a0c82e	-7.666681e-05
136	0xb83e1b5c	-4.532501e-05
137	0xbca9898b	-0.020695468
138	0x3d8228ae	0.06355415
139	0x3c197953	0.009367305
140	0x390d94c0	0.00013502222
141	0x3cfab278	0.030602679
142	0xbd287e85	-0.041136283
143	0x3c1b8cb0	0.009493992
144	0xbd38e783	-0.04514266
145	0xbd7bc0ae	-0.06146305
146	0x3a1b9935	0.00059356104
147	0x3d129049	0.035782132
148	0x3b88fb01	0.0041803126
149	0x3bee38e0	0.0072699636
150	0x3d64d31e	0.0558654
151	0xbd9124d3	-0.07087102
152	0xb8e8e21c	-0.00011104738
153	0x3c434c2d	0.011920017
154	0xb8c39d06	-9.3275725e-05
155	0x3db03bb8	0.086051404
156	0x3d9c80f8	0.07641786
157	0x3d5aa96f	0.05338424
158	0xbd98e16a	-0.07464869
159	0x3ca3ea80	0.02000928
160	0x3d4985e4	0.049199954
161	0xbd8bb7e6	-0.06822185
162	0xb80407c4	-3.1478485e-05
163	0x3da54030	0.080688834
164	0xbd5a23f8	-0.05325696
165	0xbd39bef2	-0.045348115
166	0x3d87fdd7	0.06640213
167	0x389e67e6	7.55338e-05
168	0x3cc0da51	0.023541601
169	0xbbaff1c8	-0.0053693987
170	0x38612254	5.367615e-05
171	0xbab5d22f	-0.0013871844
172	0x3d47b828	0.04875961
173	0xbd0e7cd7	-0.034787025
174	0xbd1efb28	-0.03881374
175	0xbc8e2b88	-0.017354742
176	0xbd5026da	-0.0508183
177	0x3d04ee45	0.032453794
178	0x3d9170d5	0.07101599
179	0x3d4bf1ae	0.04979103
180	0x3bb820fc	0.0056191664
181	0x3d1d0d0a	0.038342513
182	0x38bf0d44	9.110061e-05
183	0xbd18e685	-0.037329216
184	0x3d6335e0	0.0554713
185	0xb75fa13f	-1.3329379e-05
186	0xbd6bd782	-0.05757857
187	0xba4aa3ee	-0.0007730116
188	0x3d93313f	0.07187127
189	0xbd9dbe2d	-0.07702289
190	0xbd66d1f6	-0.056352578
191	0xbcfc4a36	-0.030797105
192	0x3d57d232	0.052690692
193	0xbc66feae	-0.014098806
194	0xbb538184	-0.0032273242
195	0x3d9b821b	0.07593175
196	0x3bca7f4b	0.0061797253
197	0x38996733	7.314831e-05
198	0xbb3865a9	-0.0028136766
199	0xbd373677	-0.044729676
200	0xbb6cdd0a	-0.0036142492
201	0x389094f2	6.894198e-05
202	0x39343a21	0.00017187792
203	0x3d2c3916	0.04204663
204	0xb94f3a3f	-0.00019762757
205	0x36a3308d	4.8634306e-06
206	0xbda95bee	-0.08269487
207	0xb8312599	-4.2235104e-05
208	0xbbec1d73	-0.007205659
209	0xbd0a330d	-0.033740092
210	0x3d7af907	0.061272647
211	0xba1e0c0d	-0.00060290174
212	0xbdb438a2	-0.08799864
213	0xb91de09d	-0.00015056362
214	0xbcdcb7db	-0.026943138
215	0xbdaca19d	-0.08429263
216	0xbd8c5a8a	-0.068532065
217	0x3d172577	0.036900964
218	0xb953e15c	-0.00020206481
219	0x3cfa38a7	0.030544592
220	0xbce6fbb0	-0.028196186
221	0xbc84c3ec	-0.016206704
222	0xbd1bcb14	-0.038035467
223	0xbbf31363	-0.0074180826
224	0xbbefd851	-0.007319488
225	0x37d3f71a	2.5268226e-05
226	0x3d8ce6a4	0.06879929
227	0x3d9dae63	0.07699277
228	0xbc151fd1	-0.009101824
229	0xbd1f2b22	-0.038859494
230	0x38aeec4f	8.3409825e-05
231	0x3c6c3c97	0.014418743
232	0xbd1cf182	-0.038316257
233	0x38ccc15f	9.763496e-05
234	0x3bfe6576	0.00776356
235	0xbd1053b4	-0.035236076
236	0x39fbc6d5	0.00048022592
237	0xbbb7799a	-0.005599213
238	0xbc348802	-0.011018755
239	0x3c762d00	0.015025377
240	0x39566341	0.00020445605
241	0x3929ed2e	0.00016205452
242	0x38cd80b4	9.7991346e-05
243	0xbc31bb32	-0.0108478535
244	0x3bcf9a98	0.0063355677
245	0x3d82dca7	0.06389742
246	0xbd717156	-0.058945976
247	0x3d55af6e	0.052169256
248	0xbc5fdc5c	-0.013663378
249	0x3d3b2e20	0.045698285
250	0xbc07e34d	-0.008293939
251	0xb95d65f1	-0.00021114179
252	0x3c26708d	0.01015867
253	0xbc4fe43e	-0.0126886945
254	0xbd990864	-0.074723035
255	0x3b122f27	0.0022305937

layer5.0.bias f4 [3]
0	0x3d24f6e6	0.040274523
1	0xbafe3be1	-0.0019396507
2	0xb9f98487	-0.00047591722
