model.pth (torch, 11599 bytes, 8 tensors)

0.weight f4 [32, 4]
0	0xbac82e83	-0.0015272651
1	0xbb1daf86	-0.002406092
2	0x3a8637a3	0.001023997
3	0xba7dfbb9	-0.00096886937
4	0x3d0ef7d2	0.03490431
5	0xbdaec24d	-0.08533154
6	0xbe49628b	-0.19666497
7	0xbdc20658	-0.09473866
8	0xbd17a8ab	-0.03702609
9	0xbd478961	-0.048715
10	0xbecfb7dd	-0.40569964
11	0xbd3a46c7	-0.045477655
12	0x901934d4	-3.0214627e-29
13	0x0eaf25c6	4.3177205e-30
14	0x0e02a183	1.6101502e-30
15	0x0fa46059	1.620876e-29
16	0x3dfbfe43	0.12304356
17	0x3d7a923e	0.061174624
18	0x3fa4b89e	1.2868841
19	0x3e77366e	0.24141857
20	0xbd96e90e	-0.073686704
21	0xbf4d6053	-0.80225104
22	0xbf18d9a1	-0.59707075
23	0xbf095f61	-0.5366116
24	0xbfb0cb33	-1.3812011
25	0x3de34a40	0.110981464
26	0xbf9a0264	-1.203198
27	0x3de399c8	0.11113316
28	0xbc94001c	-0.018066458
29	0x3ced10e8	0.028938726
30	0xbe4e3d68	-0.20140612
31	0x3d102c84	0.035198703
32	0x3ba7fb87	0.00512642
33	0xbc28cd29	-0.01030282
34	0xbab129ab	-0.0013516446
35	0xbbeef075	-0.0072918483
36	0x3c12ba31	0.008955524
37	0xbe8809bb	-0.26569924
38	0x3f92c233	1.1465515
39	0xbc81dd24	-0.015852518
40	0xb7667525	-1.3736343e-05
41	0x37956317	1.7808326e-05
42	0x33f0bc9f	1.1210181e-07
43	0x35a1fab0	1.2068394e-06
44	0x3dd90ff5	0.10598747
45	0xbe7601a7	-0.24024068
46	0xbfb68000	-1.4257812
47	0xbec967bd	-0.3933696
48	0xbc22272b	-0.009897034
49	0xbd0e9fd1	-0.03482038
50	0x3f5e7956	0.86903894
51	0x3e08f0e3	0.13373141
52	0x3a4ad4f2	0.000773742
53	0x393a7828	0.00017783104
54	0xb6ae4efa	-5.194798e-06
55	0x39ed0751	0.00045209614
56	0x3d83cf98	0.0643608
57	0xbd217035	-0.03941365
58	0xbfb76741	-1.4328386
59	0x3da0d039	0.07852215
60	0x3a26b6ea	0.0006359654
61	0x3a1dc8e7	0.00060190115
62	0x3e6514b1	0.22371174
63	0x3b4e2456	0.0031454763
64	0x3cb94911	0.022617849
65	0xbd41694f	-0.04721957
66	0x3f1adf7e	0.6049727
67	0xbc87bb27	-0.016568733
68	0x3c2d9621	0.010594876
69	0xbd0ccde6	-0.034376048
70	0xbdae3a75	-0.085072435
71	0xbcd5c172	-0.026093218
72	0x3cb97d4d	0.022642756
73	0xbd83665e	-0.06416009
74	0xbdbd0bbd	-0.092307545
75	0xbd806cf7	-0.062707834
76	0x3af05907	0.0018337079
77	0xbb51287a	-0.0031914995
78	0x3d95a44b	0.07306727
79	0xbbb97c19	-0.0056605455
80	0x3d8fcae2	0.07021119
81	0xbeb81793	-0.35955486
82	0xbefc9ebe	-0.4933986
83	0xbe926a6c	-0.28596818
84	0x3da105a8	0.07862407
85	0x3d2ce60b	0.042211574
86	0x3f592815	0.84826785
87	0x3e44604b	0.19177358
88	0x32672a75	1.3455623e-08
89	0xb395617a	-6.956084e-08
90	0xb00c1948	-5.096763e-10
91	0xb3399e65	-4.3217728e-08
92	0xbe2c2098	-0.16809309
93	0xbf059602	-0.5218202
94	0x3f2ff6c8	0.68735933
95	0xbe67dd24	-0.22642952
96	0xbac4ac36	-0.0015004936
97	0x3b9f34d6	0.0048585935
98	0x3d10e543	0.03537489
99	0x3be28ebd	0.0069139884
100	0x3f15a9fc	0.584625
101	0x3f064e93	0.52463645
102	0xbf88d701	-1.0690614
103	0x3e127b21	0.14304782
104	0xa88b1338	-1.5440435e-14
105	0x2ac8b4e4	3.5652655e-13
106	0x99089ac7	-7.062292e-24
107	0xaa6a004b	-2.0783477e-13
108	0xbea966eb	-0.33086333
109	0xbb22e107	-0.0024853365
110	0x3eee2f55	0.46520486
111	0x3e458d42	0.19292167
112	0xbcc1136c	-0.023568831
113	0x3cc9bb88	0.024625555
114	0x3d0958a6	0.033531807
115	0x3c5bc365	0.013413285
116	0x381d4718	3.7497928e-05
117	0xb7268946	-9.9263325e-06
118	0x3a6356d1	0.00086722994
119	0xb59eb10b	-1.1823444e-06
120	0x3eea82a9	0.4580281
121	0xbdfd2f88	-0.123625815
122	0xbe35a9d6	-0.17740569
123	0xbe506ea8	-0.20354712
124	0xbaa8598d	-0.0012844071
125	0x39dcd883	0.00042122984
126	0x3d6abfe8	0.057311922
127	0x3b2b37c5	0.002612577

0.bias f4 [32]
0	0xbc68db14	-0.014212389
1	0xbe5f1282	-0.21784404
2	0xbac3d380	-0.0014940351
3	0x91601dc5	-1.7679658e-28
4	0x3dc26009	0.094909735
5	0xbc814007	-0.0157776
6	0x3df5cc80	0.12001896
7	0xbd9cf715	-0.07664315
8	0xbcd7d6e8	-0.026347592
9	0x3f6dbc83	0.9286577
10	0xb88c244e	-6.6824825e-05
11	0xbeef2edf	-0.46715447
12	0xbe85c743	-0.26128587
13	0xbb8ef31c	-0.004362477
14	0x3e37855c	0.17921966
15	0xbd9c73d7	-0.07639282
16	0xbe47789e	-0.19479606
17	0xbdf23c7c	-0.11827943
18	0xbe28bfa6	-0.16479358
19	0xbcd309f3	-0.02576158
20	0x3b5cb946	0.0033679768
21	0xbd9a13a4	-0.075232774
22	0xb4d423ca	-3.9514117e-07
23	0xbc21802b	-0.009857218
24	0xbcef02e8	-0.02917619
25	0xbf2d353d	-0.6765936
26	0xac3ec5aa	-2.711035e-12
27	0x3d500e36	0.050794803
28	0xbda9ccc9	-0.08291013
29	0xba541288	-0.00080899196
30	0x3f7dd3c2	0.9915124
31	0xbcbebbcb	-0.023282906

2.weight f4 [32, 32]
0	0x0000044d	1.543e-42
1	0x00000d5a	4.79e-42
2	0x3b90d455	0.004419843
3	0x00000750	2.623e-42
4	0xbd9cdcf4	-0.07659331
5	0xbd76499c	-0.060128793
6	0xbd388834	-0.04505177
7	0x80000d4c	-4.77e-42
8	0x0000079a	2.727e-42
9	0xbd9c5849	-0.076340266
10	0x000005e8	2.119e-42
11	0xbd8ac971	-0.06776703
12	0xa287569a	-3.6683516e-18
13	0x0000068f	2.353e-42
14	0xbe07e6b7	-0.13271604
15	0x000003e9	1.403e-42
16	0x00000aac	3.828e-42
17	0x80000479	-1.604e-42
18	0x8000052b	-1.854e-42
19	0x000006d6	2.452e-42
20	0xbd2ffae2	-0.04296387
21	0xbe004b4a	-0.1252872
22	0x000012f8	6.805e-42
23	0xbc9a6b47	-0.018849982
24	0x80000752	-2.626e-42
25	0xbddf5044	-0.10903981
26	0x8000031b	-1.114e-42
27	0xa4c00ed4	-8.3291847e-17
28	0x8000051e	-1.836e-42
29	0x000002d1	1.01e-42
30	0xbdab5bae	-0.08367096
31	0x800002fe	-1.073e-42
32	0xbace88f1	-0.0015757364
33	0xbee51b64	-0.4474746
34	0xbee538e4	-0.44769967
35	0x8faadfde	-1.6849525e-29
36	0xbed6db26	-0.41964072
37	0xbe62a470	-0.2213304
38	0x3e8e03b7	0.2773721
39	0xbbd936b0	-0.0066288337
40	0x3b20a0f7	0.0024510005
41	0x3f04112f	0.5158872
42	0x34f9b17b	4.6508998e-07
43	0xbe5644df	-0.2092471
44	0xbfe20fb9	-1.7661048
45	0x394a814a	0.00019312385
46	0x3e060394	0.13087302
47	0xbd14e77e	-0.03635358
48	0xbc767116	-0.01504161
49	0xbe887138	-0.2664888
50	0xbe369acd	-0.1783249
51	0xbc25e3b0	-0.010125086
52	0xbeb0c26e	-0.34523338
53	0xbea524f0	-0.32254744
54	0x30e42e77	1.660239e-09
55	0xbe8f08bc	-0.2793635
56	0xbc18c881	-0.009325148
57	0x3e07e83d	0.13272186
58	0x274906fe	2.7898144e-15
59	0xbe9319ff	-0.2873077
60	0xbb8ce906	-0.0043002395
61	0xb8e4e547	-0.000109145934
62	0x3e935615	0.28776613
63	0xbc6e9d55	-0.014563878
64	0xbabcf0ca	-0.0014415022
65	0xbed9eaac	-0.42561853
66	0xbecac5c4	-0.39604008
67	0x8fb9c7ee	-1.8319419e-29
68	0xbeb55eae	-0.35423797
69	0xbe4188ed	-0.1889989
70	0x3e8e33ad	0.277738
71	0xbac3f4b8	-0.0014950251
72	0x3b1ba687	0.002375038
73	0x3f0c3160	0.5476284
74	0x35ef5cb6	1.783387e-06
75	0xbe41cc5b	-0.18925612
76	0xbfd258c5	-1.643334
77	0x3947a21d	0.00019038511
78	0x3e06a09f	0.1314721
79	0xbceff3fe	-0.02929115
80	0xbc179697	-0.009252212
81	0xbe619f54	-0.22033435
82	0xbe22f140	-0.15912342
83	0xbc7901d3	-0.015198189
84	0xbea376b4	-0.319265
85	0xbe994075	-0.2993199
86	0x30e78f44	1.6848181e-09
87	0xbe8cd72c	-0.27507913
88	0xbc18efdd	-0.009334532
89	0x3e23d837	0.16000448
90	0x2791aa23	4.0430047e-15
91	0xbe3cf7d9	-0.18453921
92	0x3ac8d9cb	0.0015323696
93	0xb9044479	-0.00012614009
94	0x3e82bc9d	0.25534526
95	0xbc79cea8	-0.015247025
96	0x000000f9	3.49e-43
97	0x00000012	2.5e-44
98	0x8726b87d	-1.2542668e-34
99	0x0000007e	1.77e-43
100	0x07787f3c	1.8694837e-34
101	0x079a14db	2.3183602e-34
102	0x8a470ad2	-9.5835365e-33
103	0x800002ba	-9.78e-43
104	0x0000020a	7.31e-43
105	0x0912c412	1.7666303e-33
106	0x000009f7	3.575e-42
107	0x86bf858c	-7.2042444e-35
108	0x8508b033	-6.427052e-36
109	0x000005ee	2.127e-42
110	0x861b55d8	-2.9215328e-35
111	0x80000cb7	-4.561e-42
112	0x800002e3	-1.036e-42
113	0x8000076b	-2.661e-42
114	0x80000138	-4.37e-43
115	0x00001073	5.901e-42
116	0x89068e69	-1.6196624e-33
117	0x8708f8dc	-1.0304636e-34
118	0x00000cbb	4.567e-42
119	0x89ad88de	-4.1776944e-33
120	0x00000813	2.896e-42
121	0x063a6868	3.5059417e-35
122	0x80000512	-1.819e-42
123	0x89ae209c	-4.1919642e-33
124	0x800010c4	-6.014e-42
125	0x00000cf1	4.643e-42
126	0x8adc7bdc	-2.123182e-32
127	0x80000517	-1.826e-42
128	0xbae127c8	-0.0017177993
129	0xbee289e3	-0.44245824
130	0xbed5c8eb	-0.4175485
131	0x8fe6b03f	-2.2747639e-29
132	0xbeb31113	-0.34973964
133	0xbe887b1e	-0.2665643
134	0x3e934750	0.28765345
135	0xbc6daca6	-0.014506495
136	0x3b733af9	0.0037114008
137	0x3f065b6a	0.52483237
138	0x350d807e	5.2713574e-07
139	0xbdfc03c9	-0.123054095
140	0xbfd9f493	-1.7027763
141	0x3930e7f7	0.00016871082
142	0x3e61f694	0.22066718
143	0xbd5c497b	-0.053781014
144	0xbd8c525b	-0.068516456
145	0xbe8dac7c	-0.27670658
146	0xbe436d3a	-0.19084635
147	0xbc28b97e	-0.010298131
148	0xbebf66f8	-0.37383246
149	0xbe8b5218	-0.2721107
150	0x31330e33	2.6056e-09
151	0xbdbfa446	-0.093575045
152	0xbc30e326	-0.010796344
153	0x3dd9f7da	0.10642977
154	0x2743b6ec	2.7160848e-15
155	0xbe3e2750	-0.18569684
156	0xbbb223b2	-0.005436384
157	0xb8ccc886	-9.7648284e-05
158	0x3ec7322b	0.38905463
159	0xbc618b6b	-0.01376615
160	0xbad13718	-0.0015961854
161	0xbebfbfed	-0.37451115
162	0xbe83ac83	-0.25717553
163	0x901b1fca	-3.059285e-29
164	0xbe513129	-0.2042891
165	0xbe132173	-0.14368229
166	0x3e232973	0.1593378
167	0x3c3c6f1e	0.011501102
168	0x3ac822ed	0.0015269198
169	0x3f1c3a2b	0.6102626
170	0xb5d66469	-1.5973466e-06
171	0xbda6a4be	-0.08136891
172	0xbfc33cab	-1.5252889
173	0x39333b0b	0.00017092765
174	0x3d7c852b	0.061650436
175	0xbda5c518	-0.08094233
176	0xbddf0476	-0.10889523
177	0xbe315370	-0.17316985
178	0xbde5765e	-0.112042174
179	0xbb59dc0e	-0.0033242735
180	0xbe9f5eea	-0.311271
181	0xbe5e4a7f	-0.21708106
182	0x323c6a2d	1.0967182e-08
183	0xbe209842	-0.15683082
184	0xbc4cd6c7	-0.012502379
185	0x3e88ee64	0.26744378
186	0x26a80370	1.1658273e-15
187	0xbe0592b4	-0.13044244
188	0x3b1d8647	0.0024036334
189	0xb7d0c579	-2.4887488e-05
190	0x3eff2f0c	0.4984058
191	0xbc549fe1	-0.012977571
192	0x000007b5	2.765e-42
193	0x81f6de86	-9.0685434e-38
194	0xab5b1b6f	-7.78425e-13
195	0x80000417	-1.467e-42
196	0xb20c0a87	-8.151466e-09
197	0xba2e5f3a	-0.0006651763
198	0xbad21c69	-0.0016030195
199	0x80000705	-2.518e-42
200	0x80000972	-3.388e-42
201	0xbaa0a8d7	-0.001225735
202	0x00000373	1.237e-42
203	0xb0cf203d	-1.5070395e-09
204	0x91b5d4f0	-2.8687998e-28
205	0x800013e3	-7.134e-42
206	0xbabff6c4	-0.0014645685
207	0x80000360	-1.211e-42
208	0x10998c8c	6.0564406e-29
209	0x000004b9	1.694e-42
210	0x800002ca	-1e-42
211	0x80000dc8	-4.944e-42
212	0xa7928a4f	-4.0673095e-15
213	0xb0e085ef	-1.6336211e-09
214	0x000008a6	3.102e-42
215	0xba47654a	-0.0007606341
216	0x80000e44	-5.118e-42
217	0xb52a8ca1	-6.3534577e-07
218	0x80000202	-7.2e-43
219	0x16885ee9	2.2031882e-25
220	0x0000042f	1.501e-42
221	0x00000393	1.282e-42
222	0xbafe30a1	-0.0019393155
223	0x00000fb3	5.632e-42
224	0xbad7a982	-0.0016453716
225	0xbedd8e38	-0.43272567
226	0xbecce4aa	-0.40018207
227	0x8fd8074e	-2.1302058e-29
228	0xbec56fe6	-0.38561934
229	0xbe89f60a	-0.26945525
230	0x3e96b9cc	0.29438627
231	0xbc410747	-0.01178152
232	0x3b483741	0.0030550512
233	0x3ef509cf	0.47859046
234	0x34e4879f	4.2566987e-07
235	0xbdfc6265	-0.12323455
236	0xbfe4508a	-1.7837079
237	0x3961c30a	0.0002153033
238	0x3e365599	0.1780609
239	0xbd56dbf7	-0.05245587
240	0xbd5892d1	-0.05287439
241	0xbe853f07	-0.2602465
242	0xbe3accc6	-0.18242177
243	0xbc3600ae	-0.0111085605
244	0xbebe7c27	-0.37204096
245	0xbe9f7e7c	-0.31151187
246	0x3107c372	1.9756183e-09
247	0xbe5f9c88	-0.21837056
248	0xbc3a1ddb	-0.011359657
249	0x3dfd0cb5	0.12355939
250	0x27298d7d	2.3530162e-15
251	0xbe759017	-0.23980747
252	0xbb5e0104	-0.0033875117
253	0xb8d261d6	-0.00010031804
254	0x3ea8b4bb	0.32950386
255	0xbc584b7a	-0.013201589

2.bias f4 [32]
0	0xbdc2ec3d	-0.09517715
1	0x3e24cf67	0.16094743
2	0x3e0541b9	0.13013352
3	0x8b0750f2	-2.606095e-32
4	0x3e3b5c67	0.18296967
5	0x3dfbf6a4	0.12302902
6	0xbaf40b9a	-0.001861918
7	0x3e4f72fa	0.20258704
8	0x3e18af3f	0.14910601
9	0xbe51c02a	-0.20483461
10	0x3e18eadf	0.14933346
11	0xa6c5e0cc	-1.3730552e-15
12	0x3e1f5b14	0.15562087
13	0x8f8399b9	-1.2976809e-29
14	0x9418dd54	-7.717688e-27
15	0x3e1839c3	0.14865784
16	0x3e479755	0.19491322
17	0xbbda30e4	-0.0066586602
18	0x3e29bef4	0.16576749
19	0x3e1e9286	0.15485582
20	0x3de910b7	0.11380141
21	0x3e965646	0.29362696
22	0xbf0969f1	-0.5367728
23	0x3ec29bf2	0.38009602
24	0xbe697962	-0.2280021
25	0x3e3f8014	0.18701202
26	0xb18f27d1	-4.1663744e-09
27	0xba78f111	-0.0009496371
28	0x2326d0c0	9.0430826e-18
29	0xbf0a23e9	-0.53961045
30	0xbbbb585e	-0.0057173213
31	0x3f35e442	0.7105142

4.weight f4 [32, 32]
0	0x3bcb1d96	0.0061985953
1	0x3d9b035a	0.07568999
2	0x3da74963	0.08168294
3	0x89bcc0e4	-4.5440747e-33
4	0x3e23abf2	0.1598356
5	0x3e8c996f	0.2746081
6	0x3a76de25	0.00094172574
7	0x3e0fce48	0.14043534
8	0x3dce2bbb	0.10066935
9	0x3e3e519f	0.18585823
10	0x3e526c1b	0.20549051
11	0x924e210d	-6.5042877e-28
12	0x3db54d8d	0.08852682
13	0x9023e818	-3.232488e-29
14	0x8031c7b4	-4.571579e-39
15	0x3e3b30f7	0.18280397
16	0x3e036a0b	0.12833421
17	0xaf9d1945	-2.857609e-10
18	0xbdcc9297	-0.09988897
19	0x3e03f675	0.12886985
20	0xbb78e4b3	-0.0037978112
21	0x3ead4816	0.3384406
22	0xc03d5971	-2.958584
23	0x3ec731ee	0.3890528
24	0xbc9addc1	-0.018904569
25	0x3e25a843	0.16177468
26	0xb0298b75	-6.168002e-10
27	0x8ad73e40	-2.0727163e-32
28	0x137145ae	3.0452831e-27
29	0xc0264320	-2.597847
30	0x3b44ad54	0.0030010538
31	0xbd3b16cb	-0.045676034
32	0xbc3b808b	-0.011444221
33	0x3e71acb7	0.23601042
34	0x3e7efe65	0.24901731
35	0x89e0daf4	-5.413194e-33
36	0x3e86d8b8	0.26337218
37	0x3ec53888	0.38519692
38	0x3a5ccf9a	0.0008423269
39	0x3e81e8c2	0.25372893
40	0x3e7fceb5	0.24981196
41	0x3e2e526b	0.17023627
42	0x3e9dc88d	0.3081707
43	0x960ab2c7	-1.1203963e-25
44	0x3e54fa96	0.20798716
45	0x9016762c	-2.967332e-29
46	0x82202b34	-1.1767342e-37
47	0x3e80ce76	0.25157517
48	0x3e71ab67	0.23600541
49	0xb411c306	-1.3575126e-07
50	0x3e1fe026	0.1561285
51	0x3e8d5002	0.27600104
52	0xbd2950d7	-0.04133686
53	0x3efd12ea	0.49428493
54	0xc0264702	-2.598084
55	0x3f038192	0.51369584
56	0xbcd2b8c9	-0.025722878
57	0x3e990dd8	0.29893374
58	0xb02da624	-6.3173133e-10
59	0x8b641b3a	-4.3931686e-32
60	0x137a2b5e	3.1575818e-27
61	0xc0178ed6	-2.368093
62	0x3b403625	0.0029329148
63	0xbccee77c	-0.025256865
64	0x3bb09c54	0.0053897295
65	0x3d705dd4	0.05868323
66	0x3d8ec35d	0.06970856
67	0x89d779f8	-5.1874066e-33
68	0x3e07197e	0.13193318
69	0x3e82e219	0.25563124
70	0x3a96e37e	0.001151189
71	0x3df2ffea	0.11865218
72	0x3da1f7a6	0.07908563
73	0x3e3e436c	0.18580407
74	0x3e3ce2fe	0.18445966
75	0x936783c6	-2.9221268e-27
76	0x3d8de0cd	0.06927643
77	0x9023da00	-3.2314023e-29
78	0x8160d866	-4.129756e-38
79	0x3e261050	0.1621716
80	0x3dd6a90d	0.10481463
81	0xb01eb44d	-5.773629e-10
82	0xbdd88409	-0.10572059
83	0x3def38ed	0.116807796
84	0x3abb8559	0.0014306708
85	0x3eb85ca9	0.36008194
86	0xc03cceee	-2.95013
87	0x3eb88714	0.36040556
88	0xbca741dd	-0.020417148
89	0x3e1e40ea	0.1545445
90	0xb03797aa	-6.679054e-10
91	0x8c0d71f9	-1.0896542e-31
92	0x14f371ba	2.4581587e-26
93	0xc0269930	-2.6030998
94	0x3b45c7f5	0.0030178998
95	0xbd341daa	-0.043973602
96	0xbc62593e	-0.013815222
97	0x3e847cde	0.25876516
98	0x3e8bea55	0.2732722
99	0x89df4aa0	-5.3755474e-33
100	0x3e8e3fd6	0.27783078
101	0x3eca22d1	0.39479688
102	0x3a554064	0.00081349
103	0x3e8e8963	0.27839193
104	0x3e8ba3d5	0.2727343
105	0x3e2c00a0	0.16797113
106	0x3eae4ae4	0.34041512
107	0x96611b0f	-1.8183893e-25
108	0x3e609386	0.21931276
109	0x9015ce5a	-2.9544036e-29
110	0x81d4bff0	-7.815192e-38
111	0x3e83381d	0.2562875
112	0x3e807dec	0.2509607
113	0xb44660d2	-1.847541e-07
114	0x3e36559d	0.17806096
115	0x3e98db12	0.29854637
116	0xbd279e75	-0.0409226
117	0x3f02f316	0.5115217
118	0xc02749b0	-2.6138725
119	0x3f0b8d52	0.5451251
120	0xbcd0bdf1	-0.025481196
121	0x3e9dccf5	0.30820432
122	0xb02b7d7a	-6.238775e-10
123	0x0b07de8e	2.6167486e-32
124	0x925268b0	-6.6393353e-28
125	0xc0187923	-2.3823936
126	0x3b3f71ed	0.0029212192
127	0xbc94eb5b	-0.018178632
128	0x3bcc99fb	0.006243942
129	0x3d5c708b	0.053818267
130	0x3d882dc7	0.06649356
131	0x89d30912	-5.0804932e-33
132	0x3e0824d8	0.13295305
133	0x3e841af1	0.25801805
134	0x3a948c8f	0.0011333394
135	0x3df02047	0.117249064
136	0x3d9c3b36	0.07628481
137	0x3e3ef2a2	0.18647245
138	0x3e3f39d6	0.18674406
139	0x932fb48f	-2.2177128e-27
140	0x3d885721	0.066572435
141	0x902484d1	-3.2445615e-29
142	0x813da425	-3.4831585e-38
143	0x3e2409cd	0.16019364
144	0x3dd0b36a	0.101904705
145	0xafa21027	-2.9479105e-10
146	0xbdd846fc	-0.10560414
147	0x3df03ef8	0.1173076
148	0x3b4c4ae7	0.0031172575
149	0x3eb496ec	0.35271394
150	0xc03d11c6	-2.9542098
151	0x3eb78f0c	0.35851324
152	0xbca1d6c5	-0.01975573
153	0x3e18e679	0.14931668
154	0xb035d84e	-6.6154804e-10
155	0x8c389e22	-1.4222431e-31
156	0x14ef7816	2.4180198e-26
157	0xc025f596	-2.5931144
158	0x3b45e9bc	0.003019913
159	0xbd2cffa3	-0.04223598
160	0xb253e1ec	-1.2333185e-08
161	0xa2f48d1c	-6.6285738e-18
162	0xa10704e6	-4.574626e-19
163	0xafff7c78	-4.647267e-10
164	0xa63aeeb1	-6.48552e-16
165	0xa68b2459	-9.654915e-16
166	0x80000370	-1.233e-42
167	0xa33b8c7f	-1.01670415e-17
168	0xa30ec277	-7.739015e-18
169	0x00001074	5.902e-42
170	0xa18893a4	-9.254799e-19
171	0x80000a83	-3.771e-42
172	0xa792f9e2	-4.0794064e-15
173	0x80000644	-2.248e-42
174	0xaefbe38e	-1.145458e-10
175	0xa552382f	-1.8233632e-16
176	0xa666c89c	-8.0069156e-16
177	0xb650434c	-3.1033587e-06
178	0xa0909524	-2.4493242e-19
179	0xa23d35ca	-2.5642752e-18
180	0x00000067	1.44e-43
181	0xac52afd4	-2.99404e-12
182	0x000003c3	1.35e-42
183	0x939d8100	-3.9759576e-27
184	0x800001cb	-6.43e-43
185	0xb12a7bf2	-2.480871e-09
186	0x8000034b	-1.181e-42
187	0x2ab346ce	3.1845918e-13
188	0x8000152c	-7.595e-42
189	0x0000051b	1.831e-42
190	0x00000999	3.443e-42
191	0x06ab4e17	6.4437794e-35
192	0x3ae293c1	0.0017286466
193	0x3dfd7e45	0.123775996
194	0x3e015610	0.12630486
195	0x89ac66f4	-4.150431e-33
196	0x3e4d94df	0.20076321
197	0x3e8c568e	0.27409786
198	0x3a3de838	0.0007244381
199	0x3e37c0ad	0.17944594
200	0x3e15a70f	0.14614509
201	0x3e39444b	0.18092458
202	0x3e6a2790	0.22866654
203	0x91a30290	-2.5718445e-28
204	0x3df81c0e	0.12114726
205	0x901d5108	-3.1025215e-29
206	0x00109274	1.521905e-39
207	0x3e4bd998	0.19907224
208	0x3e29b9b1	0.16574742
209	0xb0963bbb	-1.0930913e-09
210	0xbd00c18f	-0.03143459
211	0x3e28cc2e	0.16484138
212	0xbcd1e740	-0.025622964
213	0x3eb7ccc5	0.35898414
214	0xc02e7c16	-2.7263236
215	0x3ee7f912	0.45307213
216	0xbc9cdf8a	-0.01914956
217	0x3e81ecc4	0.2537595
218	0xb01d6363	-5.7257504e-10
219	0x0bee801a	9.186701e-32
220	0x94c53131	-1.9911319e-26
221	0xc01b275d	-2.4242775
222	0x3b42506f	0.0029649993
223	0xbd804f11	-0.06265081
224	0x000004b2	1.684e-42
225	0xb70c1ef1	-8.351854e-06
226	0xb6a8a4b5	-5.0259646e-06
227	0x3154a58a	3.0944158e-09
228	0xb75112fe	-1.2461793e-05
229	0xb6952a42	-4.4454655e-06
230	0x0000137a	6.987e-42
231	0xb6e89f8c	-6.9327125e-06
232	0xb70376b0	-7.835843e-06
233	0x0000010a	3.73e-43
234	0xb58393c4	-9.803266e-07
235	0x0000060c	2.169e-42
236	0xb7d0242c	-2.4812376e-05
237	0x0000038b	1.271e-42
238	0xb0724c38	-8.81474e-10
239	0xb6c26bcd	-5.7942e-06
240	0xb7812304	-1.5394304e-05
241	0x800006fb	-2.504e-42
242	0xb11b9cef	-2.2644675e-09
243	0xb63fe29b	-2.859312e-06
244	0x80000bdd	-4.256e-42
245	0xb65aa923	-3.2582982e-06
246	0x800b9160	-1.062341e-39
247	0xaf820052	-2.364709e-10
248	0x000001df	6.71e-43
249	0xb9198a14	-0.00014642655
250	0x800004b6	-1.69e-42
251	0xb48dbd1e	-2.6400897e-07
252	0x000003a4	1.306e-42
253	0x8017d783	-2.189527e-39
254	0x80001406	-7.183e-42
255	0xb5bd9f17	-1.4127899e-06

4.bias f4 [32]
0	0x3e9f3923	0.3109828
1	0x3ec6f177	0.38856098
2	0x3e97adf8	0.29624915
3	0x3ecbf943	0.3983861
4	0x3e982ff3	0.29724082
5	0xa77d0674	-3.5114301e-15
6	0x3ea23f9a	0.3168915
7	0xb6a6ab20	-4.967107e-06
8	0x3ea73fce	0.32665867
9	0x3ea3b83b	0.31976494
10	0x3fa34200	1.2754517
11	0x3ea32eb4	0.3187157
12	0x3ecd42ed	0.40090123
13	0x3ec567f7	0.3855588
14	0x3edb519f	0.4283571
15	0x3ec71d36	0.38889474
16	0x3e97c883	0.29645166
17	0xbb56fcdb	-0.0032804522
18	0xb5eddc0d	-1.7721919e-06
19	0x3fbc6023	1.4716839
20	0x3ef3ba41	0.47603038
21	0x3f349783	0.7054369
22	0x3e9969dd	0.2996358
23	0xbdc0d41e	-0.09415458
24	0x3ea5b5e5	0.32365337
25	0xbe23156c	-0.1592614
26	0x3eacd37f	0.3375511
27	0x3ea4985d	0.32147494
28	0x3ec6a0dd	0.38794604
29	0xb588ffad	-1.0207201e-06
30	0xbede4d22	-0.43418223
31	0xac4458a5	-2.7902483e-12

6.weight f4 [2, 32]
0	0x3fd683b1	1.6758939
1	0x3fbaea12	1.4602683
2	0x3fdde5cc	1.7335753
3	0x3fb7138d	1.4302841
4	0x3fde69bc	1.7376018
5	0x36d1a231	6.247567e-06
6	0x3fc70373	1.5547928
7	0x3ab26a47	0.0013611995
8	0x3fc8d26d	1.5689217
9	0x3fcd5edd	1.6044575
10	0x3fb24184	1.3926244
11	0x3fcf1251	1.6177465
12	0x3fb69904	1.4265447
13	0x3fbae733	1.4601806
14	0x3fb2c53b	1.396644
15	0x3fbba8c1	1.4660875
16	0x3fde5d39	1.7372199
17	0xba799a42	-0.00095215824
18	0x385c4133	5.251281e-05
19	0x3fa7c53b	1.3107065
20	0x3f9f15a6	1.2428482
21	0x3f9d6491	1.2296315
22	0x3fdba4a1	1.7159616
23	0xbe870c48	-0.26376557
24	0x3fc7cc28	1.5609179
25	0xbf36be5a	-0.71384203
26	0x3fbca84e	1.4738863
27	0x3fd6cf10	1.678194
28	0x3fbbe92e	1.4680536
29	0x3557b09f	8.035076e-07
30	0xc0af8077	-5.4844317
31	0x318bc04c	4.067294e-09
32	0x3fe61cc1	1.7977525
33	0x3ff5778e	1.917711
34	0x3fedb3c9	1.8570491
35	0x3ff73efe	1.9316099
36	0x3fec3661	1.8454095
37	0x37050bc7	7.93016e-06
38	0x3fe44d34	1.783606
39	0x3b23e0bc	0.0025005778
40	0x3ff2f9fc	1.8982539
41	0x3fe52c51	1.7904149
42	0x3f0b4c95	0.5441373
43	0x3fe4a918	1.7864103
44	0x3ff77ce3	1.9334987
45	0x3ff57d9c	1.9178958
46	0x3ff83239	1.9390327
47	0x3ff5186a	1.9148076
48	0x3fed6fb4	1.8549714
49	0x3d21e797	0.039527502
50	0x381c7df3	3.7310598e-05
51	0x3ebe0b2f	0.37117907
52	0x3fcd2385	1.6026465
53	0x3fe3214c	1.7744536
54	0x3feabb47	1.8338403
55	0xbd74d7f5	-0.059776265
56	0x3ff43ee5	1.9081694
57	0x3e19227b	0.1495456
58	0x3fe1c5aa	1.7638447
59	0x3fec226e	1.8448007
60	0x3ff50d37	1.9144658
61	0xbb28f9e4	-0.0025783712
62	0x3fc406ca	1.5314572
63	0x320c169b	8.154212e-09

6.bias f4 [2]
0	0x3fa49c9a	1.2860291
1	0x3fe14663	1.7599605
