model.pth (torch, 11599 bytes, 8 tensors)

0.weight f4 [32, 4]
0	0xbf1bb421	-0.6082173
1	0x3f9b0da8	1.2113543
2	0x3e938d76	0.28818864
3	0x3f37091b	0.7149827
4	0x2bfa47f4	1.7783539e-12
5	0xab9d3999	-1.1171508e-12
6	0x1a51ca8e	4.338381e-23
7	0xaa3ffa8e	-1.7051136e-13
8	0xb999e516	-0.00029353116
9	0x398f8629	0.00027375043
10	0xb72a3928	-1.0146097e-05
11	0x39305479	0.00016816136
12	0xb7569eb0	-1.2792341e-05
13	0x37a55098	1.9707062e-05
14	0xb9571128	-0.00020510389
15	0xb742fb80	-1.1621858e-05
16	0xbfd5713a	-1.6675179
17	0x3e950e64	0.29112542
18	0xbeabb8c7	-0.3353941
19	0x3d8e3f90	0.06945717
20	0x3ed4124c	0.4142021
21	0xbe81ba2f	-0.2533736
22	0x3f5abf6e	0.8544835
23	0xbe3bd707	-0.18343745
24	0xb239ec5b	-1.0822158e-08
25	0x32e37427	2.6479098e-08
26	0xb1849918	-3.8591104e-09
27	0x32eae7d8	2.7346616e-08
28	0xbd45f1b2	-0.0483262
29	0x3f5827c7	0.84435695
30	0x3f12ee96	0.57395303
31	0x3f343175	0.70387965
32	0xbcd49700	-0.025950909
33	0xbb9ec968	-0.004845787
34	0x3faa0ad1	1.3284551
35	0x3e8e005b	0.27734646
36	0x32cd35b0	2.3889555e-08
37	0x3380f67e	6.005301e-08
38	0xadc91919	-2.28622e-11
39	0x33ccc475	9.5352256e-08
40	0x3d5a8d9d	0.05335771
41	0x3bd1d9a6	0.0064041195
42	0x3cbddc5e	0.023176368
43	0x3cd20fc7	0.025642289
44	0xbb1c959c	-0.0023892885
45	0xbd0dd917	-0.03463086
46	0x3dde220f	0.1084634
47	0x3c66cec9	0.014087387
48	0xbe218da2	-0.15776685
49	0x3f0928e0	0.53577995
50	0xbf4e3484	-0.8054888
51	0x3de0fdb5	0.10985891
52	0x36ad5519	5.1657084e-06
53	0xb67459a3	-3.6411009e-06
54	0xae3cd795	-4.2937726e-11
55	0xb60548b8	-1.9860872e-06
56	0x3e1f227b	0.15540497
57	0xbf44915c	-0.767843
58	0xbf151ad8	-0.58244085
59	0xbe981b2f	-0.2970824
60	0xbdf53f02	-0.119749084
61	0x3c00d797	0.007863901
62	0x3db46db6	0.08809988
63	0x3ef0839d	0.46975413
64	0xb91a58a8	-0.00014719611
65	0x396eddcf	0.00022780079
66	0x36f82dfb	7.396329e-06
67	0xb89f88aa	-7.6071665e-05
68	0xb77d15bd	-1.50850365e-05
69	0xb74f39ae	-1.2351591e-05
70	0xb95c03e9	-0.00020982292
71	0xb80c1b1d	-3.3403852e-05
72	0xbb9e05dd	-0.0048224763
73	0xbb8bbcf8	-0.00426447
74	0x39d193be	0.00039973663
75	0xbc5742f9	-0.013138526
76	0x3ddddc5b	0.10833045
77	0x3d3083e3	0.043094527
78	0xbe251d6e	-0.16124508
79	0x3cc93e57	0.024565859
80	0x363896ce	2.7505916e-06
81	0xb6b22445	-5.3090357e-06
82	0xb3a86fe4	-7.8434624e-08
83	0xb68fd6ce	-4.2867387e-06
84	0xbd96c72b	-0.07362207
85	0x3d69a83f	0.057045218
86	0xbf4bd44d	-0.7962082
87	0xbe171f34	-0.14757997
88	0x3cb549e3	0.022129958
89	0x3d8f618e	0.07001029
90	0xbdbfdbde	-0.09368108
91	0x3e18007d	0.14843936
92	0xbd7b8f5c	-0.061416015
93	0x3e097fe3	0.13427691
94	0x3cd2bffa	0.025726307
95	0x3e7ad788	0.24496281
96	0xbe32f4dc	-0.17476219
97	0x3efb22af	0.490499
98	0xbe9a83c5	-0.30178657
99	0xbe7fd757	-0.2498449
100	0xb4bdcd26	-3.5353258e-07
101	0x33938d0f	6.870879e-08
102	0xa8127d75	-8.131832e-15
103	0xb3b4d5a2	-8.420763e-08
104	0x065d6d5f	4.1645833e-35
105	0x1081e4a8	5.123383e-29
106	0x000327ea	2.89825e-40
107	0x918b786f	-2.2004556e-28
108	0xbb8738fa	-0.004126665
109	0x3b94ac6c	0.004537156
110	0xbca6161b	-0.020274213
111	0x3aa0948b	0.00122513
112	0xbc05ca44	-0.0081659
113	0x3e4909c5	0.19632633
114	0x3f69dd7a	0.9135357
115	0x3e4c6e45	0.1996394
116	0xbd22e67d	-0.039770592
117	0x3c0693eb	0.008213977
118	0xbf7e9fa9	-0.9946237
119	0xbe48b703	-0.19601063
120	0xb490a872	-2.694465e-07
121	0x3403e4b5	1.2283529e-07
122	0xb5cb9e97	-1.5170834e-06
123	0xb51df73c	-5.884683e-07
124	0xb990a201	-0.00027586523
125	0x3ab68d3a	0.0013927587
126	0xb7f3ac3a	-2.9048057e-05
127	0x3ab411a8	0.0013738172

0.bias f4 [32]
0	0xbdb59c8f	-0.08867752
1	0xad0bc52c	-7.945016e-12
2	0xbaa13d1c	-0.0012301537
3	0xb9b8801b	-0.0003519066
4	0xbf4cd8ff	-0.8001861
5	0xbe9a8652	-0.30180603
6	0xb4508757	-1.9420746e-07
7	0x3e2e7a69	0.17038883
8	0xbee35015	-0.44397035
9	0xb65dad9f	-3.3032627e-06
10	0xbec4e9a5	-0.38459507
11	0x3ec53159	0.38514212
12	0x3f0d9909	0.5531164
13	0xb7c3185d	-2.3257156e-05
14	0xbe103d39	-0.14085855
15	0xbe5b47ce	-0.2141411
16	0xba82749f	-0.0009952969
17	0xb941bce2	-0.00018476279
18	0xbd3a23f4	-0.045444444
19	0x3ec595b9	0.38590792
20	0xb7e16eff	-2.6873777e-05
21	0xbe800581	-0.250042
22	0xbeaa0ddb	-0.33213696
23	0xbefb6953	-0.49103794
24	0x3ecc31b2	0.39881665
25	0xb673e937	-3.634557e-06
26	0x928bcc48	-8.8224925e-28
27	0xbc8e2749	-0.017352717
28	0x3dd79393	0.105261944
29	0x3e221c68	0.15831149
30	0xb65ea08a	-3.3174024e-06
31	0xbb7eb287	-0.0038863735

2.weight f4 [32, 32]
0	0x80000175	-5.23e-43
1	0x00000cb1	4.553e-42
2	0x9eb48976	-1.9115094e-20
3	0x80000a47	-3.687e-42
4	0x00001160	6.233e-42
5	0x80000432	-1.505e-42
6	0x00000666	2.295e-42
7	0x8000035f	-1.21e-42
8	0x000010c6	6.017e-42
9	0xac8d0c5c	-4.008833e-12
10	0x000005d0	2.085e-42
11	0x9c04fc8c	-4.4001546e-22
12	0x800004ec	-1.766e-42
13	0x800000cd	-2.87e-43
14	0x00000f7b	5.553e-42
15	0x800001c3	-6.32e-43
16	0x34fa58c4	4.6630714e-07
17	0x800010f7	-6.086e-42
18	0x00000555	1.913e-42
19	0x9b206950	-1.3268918e-22
20	0x80000724	-2.562e-42
21	0x800005c5	-2.07e-42
22	0x00000e67	5.167e-42
23	0x800000a4	-2.3e-43
24	0x80000b77	-4.113e-42
25	0x80000bc7	-4.225e-42
26	0x80000964	-3.369e-42
27	0x00000634	2.225e-42
28	0x00000775	2.675e-42
29	0x00000d23	4.713e-42
30	0x80000ac5	-3.863e-42
31	0x000003a7	1.31e-42
32	0x3eebd9ff	0.46064755
33	0x8d21bccd	-4.9839216e-31
34	0x38b90fde	8.824443e-05
35	0xb336f0b9	-4.2594113e-08
36	0xbd916a90	-0.07100403
37	0xbed372f9	-0.41298655
38	0xa15a28d7	-7.3915324e-19
39	0xbd733b8d	-0.059382964
40	0xbe23c439	-0.15992822
41	0xb4b6b425	-3.4031214e-07
42	0x3d63f75b	0.05565582
43	0x3e6540cd	0.22388001
44	0xbe9ef60b	-0.3104709
45	0xb40a4888	-1.2878638e-07
46	0xbea5868d	-0.32329217
47	0x3d87c93c	0.06630179
48	0xb777bdc7	-1.4766533e-05
49	0xb435cec6	-1.6932162e-07
50	0xbbdedb4a	-0.0068010436
51	0x3eff805c	0.49902618
52	0x30746230	8.8906216e-10
53	0xbe1a3ffd	-0.15063472
54	0xbbfbab6e	-0.007680348
55	0xbddbc3be	-0.10730694
56	0xbe1432ec	-0.1447255
57	0x29caaae8	9.0002495e-14
58	0x80000bb7	-4.202e-42
59	0xa95eb321	-4.9449272e-14
60	0xbd551bea	-0.052028574
61	0xbc7c2b91	-0.015391246
62	0x80000769	-2.658e-42
63	0x3812ca9e	3.4997815e-05
64	0x3cf62fc0	0.030052066
65	0x00000a21	3.634e-42
66	0xb49ecbf5	-2.9578192e-07
67	0xacc97ff4	-5.7269692e-12
68	0xbeec5ac6	-0.46163005
69	0x3f2c9662	0.67416966
70	0xb14f9850	-3.0209044e-09
71	0x3edc82f0	0.43068647
72	0x3f878b45	1.0589377
73	0x3485f282	2.4949628e-07
74	0x3cdb6410	0.026781112
75	0x3ed9deec	0.42552888
76	0xbef36c94	-0.47543776
77	0xb30c3668	-3.2645772e-08
78	0xbfcc347e	-1.5953519
79	0x3e922608	0.2854464
80	0xb867587c	-5.51571e-05
81	0x800004c0	-1.704e-42
82	0x3c48c05f	0.012252896
83	0x3eb92534	0.36161196
84	0x80000969	-3.376e-42
85	0xbfbe0949	-1.4846584
86	0x3e34c336	0.17652592
87	0x3e579b7e	0.2105541
88	0x3d2c25a7	0.042028096
89	0x9445892c	-9.973011e-27
90	0x80000061	-1.36e-43
91	0xb12de16c	-2.530295e-09
92	0x3f41c0f7	0.75685066
93	0xbfdb6ee5	-1.7143217
94	0x000008aa	3.108e-42
95	0xb9067ff1	-0.00012826898
96	0x3e92f58c	0.28702962
97	0xa9d53f38	-9.470067e-14
98	0xb89f5956	-7.598351e-05
99	0xb7619438	-1.3445555e-05
100	0xbdb8f596	-0.09031217
101	0xbd9b8038	-0.07592815
102	0xaf9be7da	-2.8359076e-10
103	0xbe42d38a	-0.19026008
104	0xbe2ffd22	-0.17186406
105	0xb51d5730	-5.861393e-07
106	0x3d649cc1	0.055813555
107	0x3f2ea2a8	0.68216944
108	0x3dee78b9	0.1164412
109	0xb55d621c	-8.2471684e-07
110	0xbd44dc66	-0.04806175
111	0x3acdb184	0.0015693163
112	0x3922ad26	0.00015514027
113	0xb79b238a	-1.8493989e-05
114	0xbbd3cdcf	-0.0064637433
115	0x3e1a8b03	0.15092091
116	0xb3232bd5	-3.799126e-08
117	0xbd49638a	-0.049167193
118	0x3dc85f26	0.09783773
119	0xbb435375	-0.0029804383
120	0x3c99dd9d	0.018782431
121	0x2af69e42	4.3808192e-13
122	0x000001a1	5.84e-43
123	0xba5ce45e	-0.00084263633
124	0xbf2a93b9	-0.66631657
125	0xbec710cf	-0.3888001
126	0xad416726	-1.0993683e-11
127	0xb93a9646	-0.00017794324
128	0x3e8544ef	0.26029155
129	0xa9b7daa4	-8.1647606e-14
130	0xb7c15531	-2.3047063e-05
131	0xb7941674	-1.765343e-05
132	0xbcad0cbe	-0.02112424
133	0xbd0c56f4	-0.034262612
134	0xafb2ef5a	-3.254808e-10
135	0xbe4dead3	-0.2010911
136	0xbea2a417	-0.31765816
137	0xb5081cbb	-5.0705756e-07
138	0x3c88cfef	0.016700713
139	0x3f381dde	0.71920574
140	0x3d1de1c1	0.038545374
141	0xb44ed7d8	-1.9263769e-07
142	0xbebcd884	-0.36883938
143	0x3d13dad9	0.03609738
144	0x38d48191	0.000101330814
145	0xb79577be	-1.7817943e-05
146	0xbc08ff2c	-0.008361619
147	0x3e2c01cf	0.16797565
148	0x337cf9cc	5.890051e-08
149	0xbe9a6e1d	-0.30162135
150	0x3d8535cc	0.065044016
151	0x3bad9894	0.0052977297
152	0x3ddbe712	0.107374325
153	0x1e9894eb	1.6155217e-20
154	0x0000022e	7.82e-43
155	0xba1f7478	-0.0006082724
156	0xbf35de1e	-0.7104205
157	0xbf0270ab	-0.5095317
158	0xad6ecbf3	-1.35740195e-11
159	0xb9bcd1c1	-0.00036014433
160	0x3e2573a7	0.16157399
161	0xa9adb799	-7.7145924e-14
162	0x37e12378	2.6838607e-05
163	0xb7d49686	-2.5342462e-05
164	0x3db15c8a	0.086602286
165	0x3ddc769f	0.10764813
166	0xb088dbeb	-9.957807e-10
167	0xbddec6b4	-0.10877743
168	0xbf6b8e8d	-0.9201439
169	0xb4b3e45a	-3.3507496e-07
170	0x3cb13e2c	0.021636091
171	0x3f3edfb1	0.74560076
172	0xbd33ac32	-0.04386539
173	0x30f0ca95	1.7519876e-09
174	0xbe8b0f54	-0.27160132
175	0xbd636557	-0.055516567
176	0x3775c8e5	1.4649912e-05
177	0xb7ab3baf	-2.041258e-05
178	0x3aceb9e0	0.0015771948
179	0xbc2cb1df	-0.010540455
180	0x34404d96	1.7909619e-07
181	0xbed3bb65	-0.41353908
182	0x3c5ddbb0	0.013541147
183	0x3e1d197c	0.15341753
184	0x3e040f90	0.12896562
185	0x06443d2a	3.690844e-35
186	0x00000943	3.322e-42
187	0xb9cc496e	-0.00038964621
188	0xbf286917	-0.65785354
189	0xbf0654e0	-0.5247326
190	0xaf75533e	-2.2312194e-10
191	0xb9c4eec5	-0.0003756193
192	0xb4f2695c	-4.5152672e-07
193	0x80000346	-1.174e-42
194	0x80000c9c	-4.523e-42
195	0x80000932	-3.299e-42
196	0xb8aac8b3	-8.143615e-05
197	0xb235c1e8	-1.0579676e-08
198	0x3992320e	0.00027884584
199	0xb21dba91	-9.181023e-09
200	0x259acd36	2.6853798e-16
201	0x8000009c	-2.19e-43
202	0x0000003c	8.4e-44
203	0xb818ede3	-3.6461173e-05
204	0xb911be5e	-0.00013899195
205	0x00000590	1.995e-42
206	0xb6473ebf	-2.9689834e-06
207	0xa8982ed5	-1.68957e-14
208	0xb014833c	-5.402858e-10
209	0x0000009e	2.21e-43
210	0x00000680	2.332e-42
211	0xb7cf5784	-2.4717076e-05
212	0x00000a05	3.594e-42
213	0xb33c1c90	-4.379814e-08
214	0xa58adb73	-2.4087889e-16
215	0xa80b3207	-7.726898e-15
216	0xb863b73a	-5.429166e-05
217	0x80000e59	-5.147e-42
218	0x80000f6b	-5.531e-42
219	0x800004d9	-1.739e-42
220	0xb31617d7	-3.494628e-08
221	0xb818b477	-3.6407695e-05
222	0x8000045b	-1.562e-42
223	0x80000eaf	-5.267e-42
224	0x94df2f47	-2.2535893e-26
225	0x000002d4	1.015e-42
226	0x80000ada	-3.893e-42
227	0x00000b8e	4.145e-42
228	0x98410bcf	-2.4950627e-24
229	0x8f90a741	-1.426392e-29
230	0x0000033a	1.157e-42
231	0x14ee4151	2.4057621e-26
232	0x14d9da5e	2.1997531e-26
233	0x8000016b	-5.09e-43
234	0xaeca6b54	-9.204962e-11
235	0xa5df9552	-3.8785517e-16
236	0x9698c363	-2.468023e-25
237	0x00000187	5.48e-43
238	0x95caf3d8	-8.197187e-26
239	0x800000c5	-2.76e-43
240	0x00000c7a	4.476e-42
241	0x800010d6	-6.04e-42
242	0x8000054c	-1.9e-42
243	0x9b0e2103	-1.1756631e-22
244	0x000005b4	2.046e-42
245	0x0f38bad8	9.107885e-30
246	0x95dbcd1c	-8.8777e-26
247	0x0000115b	6.226e-42
248	0x152cf095	3.492491e-26
249	0x800007eb	-2.84e-42
250	0x00000fad	5.623e-42
251	0x80000294	-9.25e-43
252	0x946cba0a	-1.1951645e-26
253	0x95937286	-5.9553513e-26
254	0x80000407	-1.445e-42
255	0xba0dbcda	-0.0005406864

2.bias f4 [32]
0	0xa1bf1a7d	-1.2949675e-18
1	0x3f04bd27	0.51851124
2	0x3e6d2a32	0.23160627
3	0x3e37455a	0.1789755
4	0x3e724ee7	0.23662911
5	0x3e8654d9	0.2623661
6	0xba520e8c	-0.0008013032
7	0xb32e607d	-4.0600288e-08
8	0xb0fa631c	-1.8218063e-09
9	0xa791ecb2	-4.050221e-15
10	0xb3b3aa6c	-8.3663366e-08
11	0x3e6125bb	0.2198705
12	0x3e8b7e36	0.2724473
13	0xbedc56b9	-0.43034914
14	0xbe2abfe2	-0.1667476
15	0x3e1ae5ed	0.15126772
16	0x3edd3b0c	0.43209112
17	0xbdb71666	-0.08939819
18	0xbe0840aa	-0.13305917
19	0xba826670	-0.0009948742
20	0x3e209993	0.15683584
21	0x3ef3bc18	0.47604442
22	0x3efdd7a5	0.49578586
23	0x3e271102	0.16315082
24	0x3e50bfe1	0.20385696
25	0x3e1133e6	0.14179954
26	0xbbcc59b1	-0.006236278
27	0x3f739541	0.9514962
28	0xbe72790a	-0.23678985
29	0x3e662b6b	0.224775
30	0x3ea3ecf2	0.32016712
31	0x3eeebe7d	0.46629706

4.weight f4 [32, 32]
0	0xae21181a	-3.6628568e-11
1	0xbe086047	-0.13317977
2	0xbe5cf5ad	-0.21578093
3	0xbdca81b0	-0.09888017
4	0xbdce0d49	-0.10061128
5	0xbd464510	-0.048405707
6	0x3812d5b0	3.5008125e-05
7	0x80000718	-2.545e-42
8	0x00000835	2.944e-42
9	0x2a7a64c8	2.2239426e-13
10	0x0000048e	1.634e-42
11	0xbdd75a53	-0.10515275
12	0xbd90787d	-0.07054231
13	0xb964ae51	-0.00021808712
14	0x00000cba	4.565e-42
15	0xbdcef97a	-0.10106178
16	0xbd805b33	-0.06267395
17	0x27e44a12	6.336302e-15
18	0x315e34a4	3.2335175e-09
19	0x800001f7	-7.05e-43
20	0xbdde1264	-0.108433515
21	0xba88bb4b	-0.0010431794
22	0xbdc58c05	-0.09645847
23	0x3cc19d06	0.023634445
24	0xbdcdbefb	-0.10046192
25	0xbdf83f3a	-0.121214345
26	0x800004c8	-1.715e-42
27	0xbd55c364	-0.052188292
28	0x2f9f45e6	2.8971597e-10
29	0xbdad916f	-0.08475005
30	0x3a134a62	0.0005618689
31	0x3e636148	0.22205079
32	0x8f6b2910	-1.1594303e-29
33	0x3ea3d2eb	0.31996855
34	0xbf084824	-0.5323508
35	0x3f1ef6d4	0.6209538
36	0x3efe269a	0.49638826
37	0x3ea88961	0.32917312
38	0xb81aa95f	-3.68742e-05
39	0x1466be00	1.16495034e-26
40	0xac0474f3	-1.8823248e-12
41	0x92ced5a0	-1.305309e-27
42	0x2b83138b	9.313534e-13
43	0x3f15f9ab	0.5858409
44	0x3ec540ce	0.38526005
45	0xbf8c7e96	-1.0976131
46	0x3c5d2770	0.013498172
47	0x3f46ab18	0.7760482
48	0x3e86f89f	0.26361558
49	0xbba18fc7	-0.0049304697
50	0xb7d01905	-2.4807183e-05
51	0xb44635ec	-1.8459804e-07
52	0x3f382338	0.7192874
53	0xbe81f836	-0.25384682
54	0x3e1bb888	0.15207112
55	0xbe8e5bdd	-0.2780446
56	0x3ef218e4	0.47284615
57	0x3d0872c8	0.03331259
58	0x3a2ddcc1	0.0006632321
59	0x3f80d2a0	1.0064278
60	0xbcc80fd3	-0.024421608
61	0x3ecb5858	0.39715838
62	0x3c940a86	0.018071424
63	0xbf38f600	-0.72250366
64	0x90166cbf	-2.966606e-29
65	0x3edc6fa7	0.43053934
66	0xbed7368e	-0.4203381
67	0x3ef22a13	0.47297725
68	0x3ed743f7	0.4204404
69	0x3e658ebc	0.2241773
70	0xb82709e5	-3.9825118e-05
71	0x94b99617	-1.8739426e-26
72	0xac404e39	-2.7328263e-12
73	0x93095f57	-1.7338837e-27
74	0x2ac364e7	3.4708973e-13
75	0x3f057f6c	0.52147555
76	0x3e92908a	0.286259
77	0xc023feee	-2.5624347
78	0x3c56837d	0.013092873
79	0x3f2b2f15	0.66868716
80	0x3e8fb1e9	0.28065422
81	0xbbb3996a	-0.005480935
82	0xb8741025	-5.818917e-05
83	0xb4c50aa8	-3.6701863e-07
84	0x3f263616	0.6492628
85	0xbdec5bc3	-0.1154094
86	0x3e04bfba	0.12963763
87	0xbf1ba246	-0.60794485
88	0x3ed0f8ae	0.40814728
89	0x3dc6a7b2	0.09699954
90	0x3a21b001	0.0006167889
91	0x3f9eab51	1.2396032
92	0xbd53a33a	-0.051669337
93	0x3ea602b2	0.3242393
94	0x3e3116f3	0.1729391
95	0xbf199c82	-0.60004437
96	0x2e1d8660	3.5817016e-11
97	0xafa298c3	-2.9576172e-10
98	0xa1823747	-8.823774e-19
99	0xae611bb5	-5.1183686e-11
100	0xaf0eeb01	-1.2998315e-10
101	0xaf33315a	-1.6297488e-10
102	0x365c40fc	3.282038e-06
103	0x8000064f	-2.263e-42
104	0x000002cb	1.002e-42
105	0x00000120	4.04e-43
106	0x2610973c	5.0164997e-16
107	0xaf2451d9	-1.4944791e-10
108	0xad9f6eb1	-1.8125364e-11
109	0x21bfa1b7	1.2985469e-18
110	0x0000042b	1.495e-42
111	0xaca4e3d1	-4.686453e-12
112	0xac150117	-2.1174779e-12
113	0x80014e8a	-1.2001e-40
114	0x00000083	1.84e-43
115	0xaac653a7	-3.522991e-13
116	0xadb5dd0e	-2.0675486e-11
117	0xa2d4b7f1	-5.765747e-18
118	0xb2172772	-8.798326e-09
119	0x2621529e	5.5970063e-16
120	0xaefab338	-1.14005194e-10
121	0xafa181fa	-2.9378083e-10
122	0x00000399	1.29e-42
123	0xb139a20b	-2.7013154e-09
124	0x80000312	-1.101e-42
125	0xaed73dfa	-9.788077e-11
126	0x21177ae9	5.132346e-19
127	0xa79b562c	-4.311457e-15
128	0x039c0df2	9.172058e-37
129	0x3fd24ada	1.6429093
130	0x3f55f883	0.83582324
131	0x3f75c8c2	0.9600946
132	0x3f85b0c1	1.0444566
133	0x3f6ff088	0.93726397
134	0xb6af8b0a	-5.2315927e-06
135	0x11ec8770	3.7317705e-28
136	0xaae43f00	-4.054465e-13
137	0x80000554	-1.911e-42
138	0x1f3d3fba	4.007502e-20
139	0x3f8e159a	1.1100342
140	0x3f724806	0.9464115
141	0xbfdc8d87	-1.7230691
142	0x3bad4dc6	0.0052888123
143	0x3f83e5d8	1.0304518
144	0x3e8e4cb3	0.27792892
145	0xbb4226c2	-0.0029625152
146	0xb3c6aa37	-9.2510554e-08
147	0x34cab875	3.7759642e-07
148	0x3f8cba6c	1.0994391
149	0x3f41359e	0.7547244
150	0x3e9b0a5f	0.3028135
151	0xbf6f7fca	-0.93554366
152	0x3f889ff8	1.0673819
153	0x3f44f57e	0.7693709
154	0x357adceb	9.3453735e-07
155	0x404b3ade	3.175468
156	0xbb911fb0	-0.0044288263
157	0x3f8407ee	1.031492
158	0x400f5463	2.2395256
159	0x3f332187	0.69973034
160	0x915f8a0a	-1.7634135e-28
161	0x3eb7eb10	0.35921526
162	0xbf0d1efd	-0.5512541
163	0x3eefbf0a	0.4682544
164	0x3ed239be	0.4105968
165	0x3e7c1f19	0.24621238
166	0xb84876f0	-4.7794485e-05
167	0x95832bc0	-5.2979504e-26
168	0xac645fb4	-3.2453875e-12
169	0x94868231	-1.3581894e-26
170	0x2b60a06a	7.9803406e-13
171	0x3ef8d7d6	0.4860217
172	0x3e8e20ad	0.27759305
173	0xc0260c70	-2.5945091
174	0x3c67f7ed	0.014158231
175	0x3f2a3641	0.66489035
176	0x3e797b43	0.24363427
177	0xbbb73fab	-0.0055923066
178	0xb89698ae	-7.180996e-05
179	0xb389d5ab	-6.4184256e-08
180	0x3f1cc763	0.6124174
181	0xbe25e55c	-0.16200775
182	0x3e0a46ff	0.13503645
183	0xbf0e69c4	-0.55630136
184	0x3ec83e0b	0.39109835
185	0xbd5691c2	-0.0523851
186	0x3abdb00c	0.0014472022
187	0x3f8b0d9a	1.0863526
188	0xbd6a6ecb	-0.057234567
189	0x3ea50730	0.32232046
190	0x3e1221d0	0.14270711
191	0xbf17bd87	-0.5927357
192	0x0000119e	6.32e-42
193	0xbcc02871	-0.023456784
194	0xbc598de4	-0.013278458
195	0xbbaa2ea7	-0.0051935497
196	0xbb90b406	-0.0044159917
197	0xbaee4fd5	-0.0018181751
198	0xb4c34671	-3.6372833e-07
199	0x80000380	-1.256e-42
200	0x80000cb8	-4.563e-42
201	0x00000f86	5.569e-42
202	0x0000017d	5.34e-43
203	0xbb87f395	-0.0041489103
204	0xbc15debb	-0.009147341
205	0x39abe3d4	0.00032785407
206	0x2bc291d0	1.3825e-12
207	0xba8a70dc	-0.0010562199
208	0x3bbcddcb	0.0057637445
209	0xa14a803f	-6.8609994e-19
210	0x800006e8	-2.477e-42
211	0x33e9e15a	1.0890899e-07
212	0xba830496	-0.0009995874
213	0x3903c4a4	0.00012566388
214	0xbd7bc611	-0.061468188
215	0x3c349b9f	0.011023431
216	0xbb86a207	-0.0041086706
217	0xbbafb010	-0.0053615645
218	0x80001185	-6.285e-42
219	0xbd95a60c	-0.073070616
220	0x27f43417	6.778008e-15
221	0xbb1a5768	-0.0023550633
222	0xbbf75d37	-0.007548954
223	0xba1d851c	-0.00060089095
224	0x90a7c9ed	-6.6181e-29
225	0x3eb45fd2	0.35229355
226	0xbf138dc9	-0.5763822
227	0x3f04cd08	0.5187535
228	0x3ee0b828	0.438905
229	0x3e8d2c0c	0.27572668
230	0xb82d65ec	-4.1341336e-05
231	0x959b1b37	-6.264694e-26
232	0xac2bf14e	-2.4434513e-12
233	0x9381c279	-3.2755943e-27
234	0x2b5ec8e4	7.9149035e-13
235	0x3f045883	0.5169756
236	0x3ea5dc80	0.3239479
237	0xc010df23	-2.2636192
238	0x3c61a393	0.013771909
239	0x3f3247f7	0.6964106
240	0x3e85cadd	0.26131335
241	0xbba69721	-0.005083934
242	0xb8531850	-5.0328963e-05
243	0xb418bf1e	-1.4225631e-07
244	0x3f26c3ae	0.65142334
245	0xbe416871	-0.18887497
246	0x3e1d8822	0.15383962
247	0xbed3f069	-0.41394356
248	0x3ed820ce	0.42212528
249	0xbd5a23a5	-0.05325665
250	0x3ab12f25	0.0013518078
251	0x3f882851	1.0637304
252	0xbd3d672d	-0.046240974
253	0x3eb17531	0.34659722
254	0x3dbe75a5	0.09299783
255	0xbf1dde5d	-0.61667424

4.bias f4 [32]
0	0xbe19e4c5	-0.15028675
1	0x3eda0059	0.4257839
2	0x3eb2448c	0.34817922
3	0xb1f1f7a5	-7.042177e-09
4	0x3fb6f559	1.4293624
5	0x3ea1bd8f	0.31589934
6	0xbd514460	-0.051090598
7	0x3eb22b78	0.3479879
8	0xb0349c1f	-6.570548e-10
9	0x3f3188f1	0.6934958
10	0x3ee0c3c9	0.43899372
11	0x3f2f19ba	0.6839863
12	0xaef6a032	-1.1215241e-10
13	0x3ee3706a	0.44421703
14	0x3eb04123	0.34424695
15	0xb50ed64c	-5.3210965e-07
16	0x3f2b4624	0.669039
17	0x3ee55a38	0.44795394
18	0x3ed8d7a0	0.4235201
19	0x3ec23c92	0.37936836
20	0x3ea27ce5	0.31735912
21	0xb1462411	-2.8833294e-09
22	0x3eac865f	0.33696267
23	0x3e70f6f5	0.23531707
24	0x3edfaeb1	0.43687966
25	0xb947077b	-0.00018980906
26	0x3ee4be50	0.44676447
27	0x3edba7c8	0.42901444
28	0x3ee4ffea	0.44726497
29	0x3ee0105e	0.43762487
30	0x3ea3c9c6	0.31989878
31	0x3ee0c3bb	0.4389933

6.weight f4 [2, 32]
0	0xbd2c6233	-0.042085838
1	0x3ff5ea66	1.9212158
2	0x3fcd8d2c	1.6058707
3	0x3487ca5e	2.529295e-07
4	0x3f02e397	0.51128525
5	0x3fea032e	1.828222
6	0x3e7a4ebc	0.24444097
7	0x3fee1a6d	1.8601815
8	0xb2ff7fd9	-2.9744045e-08
9	0x4000e6e6	2.014093
10	0x3ff7dd42	1.9364398
11	0x400990fb	2.149474
12	0xb167e919	-3.3747425e-09
13	0x3fff2498	1.9933043
14	0x3fefdda1	1.8739511
15	0xb5d20b1a	-1.564945e-06
16	0x40094468	2.1448002
17	0x3ff81730	1.9382076
18	0x3ff62ccd	1.9232422
19	0x3feff55b	1.8746752
20	0x3fe3caeb	1.7796301
21	0xb423787b	-1.5224389e-07
22	0x3fd6e593	1.678881
23	0xbf8b9c69	-1.0907108
24	0x3ffa8412	1.9571555
25	0xba2aacef	-0.00065107545
26	0x3ff7fea2	1.9374583
27	0x3f9a2bea	1.2044652
28	0x3fa6ec8b	1.3040937
29	0x4004f040	2.0771637
30	0x3fdc817f	1.7227019
31	0x3ff17d67	1.8866395
32	0xbe3d86da	-0.18508473
33	0x3ffb4f17	1.9633511
34	0x400d3d0f	2.2068517
35	0xb48b411b	-2.5938138e-07
36	0x3fd55aee	1.6668375
37	0x400bb489	2.182894
38	0x3d620e42	0.05518938
39	0x4004766c	2.069728
40	0xb2a5c83c	-1.9299584e-08
41	0x3f53034d	0.8242691
42	0x3ffa16ea	1.9538243
43	0x3efa9783	0.4894372
44	0xb26fa371	-1.3948793e-08
45	0x3fec4ed8	1.8461561
46	0x40073b4d	2.1129944
47	0xb38c854b	-6.543504e-08
48	0x3f5c6cc0	0.8610344
49	0x3ff594db	1.9186052
50	0x3ffbc915	1.967074
51	0x40021bff	2.0329587
52	0x400aa975	2.1665928
53	0xb1e5ea0b	-6.691385e-09
54	0x400d200d	2.2050812
55	0xbf82c78f	-1.021715
56	0x3ff56764	1.9172177
57	0xb9eb1872	-0.00044840906
58	0x3ff6c3fc	1.927856
59	0x40077227	2.1163423
60	0x4008c3ac	2.1369429
61	0x3fe3f839	1.7810127
62	0x400b4682	2.1761785
63	0x3ff6bd2e	1.9276483

6.bias f4 [2]
0	0x3fa07d2b	1.2538198
1	0x3fc07570	1.5035839
