model.pth (torch, 11599 bytes, 8 tensors)

0.weight f4 [32, 4]
000000 97 30 e0 be 58 ab d5 3e 8b d0 55 bd 35 e4 b8 3e
       -0.4378707 0.41732287 -0.052200835 0.36111608
000010 80 f3 36 bf 59 3b b3 bf 20 b2 9e c0 49 e5 10 c0
       -0.714653 -1.4002486 -4.959244 -2.2639945
000020 f3 03 4f 3e df 82 c4 3e e6 53 c4 3e 84 e6 8f 3e
       0.2021635 0.38381097 0.3834526 0.28105557
000030 c1 c2 2d b4 5b 1d b8 34 2f 2d bf ae 10 6a 37 33
       -1.6182732e-07 3.429403e-07 -8.6937006e-11 4.270447e-08
000040 bc 4f 94 3f c4 e3 ab 3f d6 be 68 3f 9b 39 e5 bd
       1.1586833 1.3428884 0.9091619 -0.11192628
000050 ef f8 ab 30 ae 61 c1 b2 7f e5 14 a2 ae 8a 3e b3
       1.2512639e-09 -2.2512577e-08 -2.0179234e-18 -4.436395e-08
000060 5a 4d 9a 3d 3f 88 ed 3e 5c e0 ca 3f 60 61 01 3f
       0.07534285 0.4639301 1.5849719 0.5053921
000070 2d fe e3 3b 7c 6b ba ba 3a 3c b7 35 12 0d 21 3b
       0.0069577903 -0.0014222707 1.3652091e-06 0.002457444
000080 ea 63 45 3e 5d 01 8a 3e a1 55 13 c0 a6 2b a1 bd
       0.19276395 0.26954165 -2.3021014 -0.078696534
000090 a4 fe 3c c0 a7 4e 83 c0 f3 01 e7 c0 d1 b6 3f c0
       -2.953042 -4.103351 -7.218988 -2.9955332
0000a0 1d ab 51 3d 8b ae 44 3e f0 d8 c8 bf 8e 9e 71 3c
       0.051188577 0.19207208 -1.5691204 0.014747275
0000b0 86 bc 8e 23 38 2d 10 a7 4f 9d 36 9d 73 57 57 a8
       1.5475514e-17 -2.0008528e-15 -2.4168826e-21 -1.195386e-14
0000c0 38 b4 cb 3d 25 9a 0e bd 25 f9 5c bf a2 08 d7 be
       0.099464834 -0.034814972 -0.86317664 -0.41998774
0000d0 30 68 9f 3e 6f 11 3d 3e 2e 62 38 c0 29 03 e2 3d
       0.31134176 0.18463682 -2.8809924 0.11035759
0000e0 36 96 e9 3e e6 63 62 3d da e6 30 3f 9c d2 da 3e
       0.45622414 0.05527105 0.6910225 0.42738807
0000f0 5d 34 fc 29 43 0f f1 2d b9 cb c9 a0 cb eb a4 ac
       1.1200132e-13 2.7405305e-11 -3.4185537e-19 -4.6873386e-12
000100 fd 80 48 3a 1f 46 99 bb f3 94 90 3a 68 ee 20 ba
       0.0007648615 -0.0046775485 0.0011030718 -0.0006139041
000110 c9 eb 52 3e 13 12 88 3e e9 ea 21 3f 57 ae 3c 3e
       0.20597757 0.2657629 0.6324907 0.1842588
000120 47 9c 4d 3e d8 83 92 3d 94 6f b6 3f f2 54 7b 3e
       0.20079146 0.071540534 1.4252801 0.24544123
000130 13 d0 8b a7 4f 1a 52 26 6f 82 9d 24 d5 e3 96 26
       -3.8805845e-15 7.289404e-16 6.830886e-17 1.0470095e-15
000140 fd 50 b4 bd 82 92 2c bf 21 a1 2f 3f 3f e7 be be
       -0.0880451 -0.67411053 0.6860524 -0.37285802
000150 ea 33 55 be 59 fc 9d 3e e3 18 e8 bf 97 d5 be 3c
       -0.20820585 0.30856588 -1.8132595 0.023295207
000160 c4 1d 62 3d 3a 72 17 bf b3 c5 86 3f dd 17 1f be
       0.055204168 -0.5915867 1.0529083 -0.15536447
000170 ee 4d 57 bd 37 fd 93 bc f4 74 93 3f 0f 63 44 3e
       -0.052564554 -0.018065078 1.1520066 0.19178413
000180 74 79 67 b7 b9 4c 94 b6 57 6f 58 b5 c6 63 99 b7
       -1.3796951e-05 -4.4196754e-06 -8.062829e-07 -1.8285482e-05
000190 f4 40 49 3e ae 10 89 bd 01 92 d9 bf e2 ea 2c bf
       0.19653684 -0.066926345 -1.6997682 -0.675459
0001a0 b6 5c 9b bc fb 4e e2 bd 01 bd 82 bf e1 93 1c be
       -0.018965106 -0.110502206 -1.021393 -0.15290786
0001b0 06 67 12 bd 16 d2 b7 bc 07 47 5a bd 7a 9e 87 bc
       -0.035742782 -0.022439044 -0.053290393 -0.01655506
0001c0 51 c5 44 3f c4 3b 07 bd 6d 76 78 bf 3e 19 2d bd
       0.7686358 -0.03301598 -0.97055703 -0.0422604
0001d0 43 87 73 3e ef 67 31 3e ee 4b 98 be e4 2d 0b 3c
       0.23782067 0.17324804 -0.2974543 0.008494828
0001e0 ba 0a e1 bd bb 4d 8f bc ea c3 a2 3f f0 7a ca 3d
       -0.10988374 -0.01749312 1.2716038 0.0988673
0001f0 5b 14 ec b8 f3 86 b0 38 56 b8 18 b5 ae 30 38 38
       -0.000112571484 8.41747e-05 -5.6892657e-07 4.3914355e-05

0.bias f4 [32]
000000 bf 26 73 3e 78 fb d6 3e 92 8c a6 be 7a d4 bd b6
       0.23745249 0.4198873 -0.32529122 -5.6573745e-06
000010 2b 7a 02 40 19 d7 52 b4 44 d5 84 3f 85 6d 2e bd
       2.0387065 -1.9636026e-07 1.0377584 -0.042584915
000020 78 da a0 3d 76 fa 17 bf 01 9a b8 be 1d 75 0c aa
       0.078541696 -0.5936655 -0.36054996 -1.247513e-13
000030 3e f8 60 bd 22 40 46 bd a6 8e 84 3f 57 c1 2c af
       -0.054924242 -0.048401006 1.0356033 -1.5711997e-10
000040 6b 2b 84 bc 3b 79 92 be 68 66 b6 bd 46 3b 8d a8
       -0.016133985 -0.28608117 -0.08906251 -1.567985e-14
000050 ee 1e 4f 3f 23 1f f2 3e 1a 37 50 3f eb 59 bb 3e
       0.8090657 0.4728938 0.8133408 0.3659204
000060 e6 3a 4e b9 fb 95 32 bf ae 28 36 3f 11 6f 36 be
       -0.00019667632 -0.697601 0.7115582 -0.17815806
000070 29 f3 c4 3f 99 8b 06 3f c0 3b ab bd d2 97 93 b9
       1.5386707 0.5255676 -0.08361006 -0.0002815114

2.weight f4 [32, 32]
000000 49 3b 00 bc c0 d0 f4 bb ed f6 f3 a7 24 c6 31 af
       -0.007826635 -0.007471174 -6.7713766e-15 -1.616845e-10
000010 95 56 0f bc 93 0a 00 80 8c 17 48 b8 8c 04 00 00
       -0.00874867 -3.793e-42 -4.7705646e-05 1.631e-42
000020 93 ff b3 bb c7 0d 06 bc 99 cf 02 ac d6 02 00 00
       -0.0054931133 -0.008181996 -1.858935e-12 1.017e-42
000030 39 57 ac bb dc 98 fc ad f4 12 09 bc 68 5a 08 2f
       -0.005259421 -2.8716966e-11 -0.008366335 1.2401247e-10
000040 b7 0c 00 80 94 3a 62 94 1d d7 62 b4 29 60 9d b0
       -4.561e-42 -1.1421637e-26 -2.1126148e-07 -1.1450584e-09
000050 25 08 cd bb 95 27 00 bc fa 09 08 bc e3 7f 18 b0
       -0.0062570744 -0.007821937 -0.00830316 -5.5479016e-10
000060 60 f2 7e ab 11 d0 a6 bb bd a8 98 bb 06 00 00 00
       -9.057529e-13 -0.0050907214 -0.004658787 8e-45
000070 02 1e 0e bc 87 f7 07 bc 2f 15 00 80 f6 03 00 00
       -0.008674147 -0.008298761 -7.599e-42 1.421e-42
000080 d5 4c d0 3d 7b 42 ac 3e cd 7a 3b c0 a6 1a 77 b1
       0.101709045 0.3364447 -2.9293702 -3.5958378e-09
000090 b5 c5 39 3f 4d f1 e2 ac 08 4d 6a 3f be 1e 80 b9
       0.725673 -6.450096e-12 0.9152379 -0.00024436967
0000a0 7f 4a 7b bf 65 df da 3f 4f 6d 58 3d 46 2a 00 9e
       -0.98160547 1.7099425 0.05283862 -6.7850055e-21
0000b0 1d 91 82 bf 27 2b 34 3d 7b 08 96 3f 60 86 1e a2
       -1.0200535 0.043986466 1.1721338 -2.148413e-18
0000c0 6b a6 11 b7 17 c3 97 bf a3 38 26 bf 29 d5 59 a6
       -8.681421e-06 -1.1856412 -0.6493017 -7.5575885e-16
0000d0 bf d6 a7 be ab 5e 4b bf f4 0a 00 be ee 00 3c 3e
       -0.32781026 -0.79441327 -0.12504178 0.1835973
0000e0 5c 07 2b 35 ba f0 d6 bf 0c aa dc be 8f bb af bd
       6.3713173e-07 -1.6792214 -0.43098485 -0.08580696
0000f0 36 20 ab 3f 04 82 5e 3f 1f e1 83 bf 6c e3 0d 9f
       1.3369205 0.8691714 -1.0303077 -3.004603e-20
000100 21 02 00 00 0d 0c 00 80 e4 02 00 00 d4 04 00 80
       7.64e-43 -4.323e-42 1.037e-42 -1.732e-42
000110 f4 a0 25 92 b1 0b 00 80 d5 bc 0f 8c 9e 0a 00 80
       -5.226321e-28 -4.194e-42 -1.1073144e-31 -3.809e-42
000120 fc 03 00 80 c9 16 00 80 28 0d 00 00 81 01 00 80
       -1.43e-42 -8.174e-42 4.72e-42 -5.4e-43
000130 45 0a 00 80 d5 0b 00 80 78 ef a8 91 14 00 00 00
       -3.684e-42 -4.245e-42 -2.665331e-28 2.8e-44
000140 a9 13 00 80 65 04 00 00 50 09 00 80 ba 00 00 00
       -7.053e-42 1.576e-42 -3.34e-42 2.6e-43
000150 21 03 00 00 aa 03 00 80 8c 04 00 80 f7 60 f4 00
       1.122e-42 -1.314e-42 -1.631e-42 2.2442645e-38
000160 ab 01 00 00 3a 06 00 00 a8 0b 00 00 fd 00 00 80
       5.98e-43 2.234e-42 4.181e-42 -3.55e-43
000170 fd 96 04 92 aa f6 1c 87 86 13 00 00 bd 08 00 00
       -4.1837963e-28 -1.1808624e-34 7.004e-42 3.135e-42
000180 0a 0a 00 80 ec e7 99 12 e1 4c 00 00 71 0c 00 00
       -3.601e-42 9.712831e-28 2.7579e-41 4.463e-42
000190 10 95 a1 95 1f 01 00 80 66 02 00 00 4b 00 00 00
       -6.526256e-26 -4.02e-43 8.6e-43 1.05e-43
0001a0 66 7e 00 80 a9 56 a2 92 1c 0d 00 80 50 0c 00 00
       -4.5343e-41 -1.0245001e-27 -4.703e-42 4.417e-42
0001b0 24 14 00 00 f1 08 00 80 69 6c c6 94 62 00 00 00
       7.225e-42 -3.208e-42 -2.0035651e-26 1.37e-43
0001c0 17 02 00 00 62 06 00 80 6a 0a 00 00 13 72 12 bb
       7.5e-43 -2.29e-42 3.736e-42 -0.0022345826
0001d0 c8 07 00 80 62 42 11 00 08 38 65 93 25 04 00 00
       -2.791e-42 1.585017e-39 -2.893149e-27 1.487e-42
0001e0 b6 10 00 80 de 03 00 80 2e 06 00 80 3a 12 00 00
       -5.995e-42 -1.387e-42 -2.217e-42 6.538e-42
0001f0 19 e2 50 95 e5 bd 7e 94 d1 00 00 00 4e 11 00 00
       -4.2183625e-26 -1.2861173e-26 2.93e-43 6.208e-42
000200 24 ab a5 3d 8a 5c b9 3d 55 18 e1 3e 38 98 35 31
       0.08089283 0.090508536 0.43963876 2.6425493e-09
000210 d0 ff ff bd 21 81 71 17 0c a8 b5 3d 84 bb 8a bb
       -0.12499964 7.8034283e-25 0.08869943 -0.0042337794
000220 90 a3 dc 3d 2d b3 0f bd 08 d3 8f ba 71 36 84 25
       0.107733846 -0.035082985 -0.0010972926 2.293524e-16
000230 95 f0 11 bd 0f ac c7 3d fc b2 ba 3e 66 5b 94 96
       -0.035629828 0.097496144 0.3646468 -2.396837e-25
000240 46 45 f1 38 99 31 14 3f 78 fc 2a 3f 06 2e 33 a7
       0.00011504679 0.5788818 0.66791487 -2.486619e-15
000250 1e 78 87 bf 7d 00 60 bf 5b 57 81 bd 5d af 47 be
       -1.0583532 -0.87500745 -0.0631549 -0.1950049
000260 d0 03 e0 37 37 fe 78 be b3 b8 08 be dc 93 80 bd
       2.6704656e-05 -0.24315725 -0.13351707 -0.06278202
000270 b2 a5 07 3e ca ae 51 be ea dd 8a 3f 40 cf 44 b6
       0.13246801 -0.20476833 1.0848973 -2.9326911e-06
000280 3a 0b cc 3e b2 5c 44 be 69 4b c9 be 07 a8 c7 ab
       0.39852315 -0.19175985 -0.39315346 -1.4186437e-12
000290 70 24 40 be 8b 06 00 80 82 54 4c 3e 4a 66 cf 92
       -0.187639 -2.347e-42 0.19954112 -1.3088753e-27
0002a0 de 6d d9 be 0e fb fd be 5c 2e be 3c 3c 1b 05 00
       -0.42466635 -0.49605602 0.023215465 4.68947e-40
0002b0 2e 4f c6 3a ea 10 61 bd 53 c3 65 3d 7e 01 00 00
       0.0015129799 -0.05494777 0.05609448 5.35e-43
0002c0 7d 80 b8 3b 06 47 94 be 88 c2 44 3f 1b 10 00 80
       0.0056305514 -0.28960437 0.7685933 -5.778e-42
0002d0 23 27 4c 3e 2e 2e c0 bf 09 09 bf bd 0a 12 38 3f
       0.19936804 -1.5014093 -0.09327895 0.71902525
0002e0 f6 49 83 2f 33 af 9e 39 fb ef 39 bf c7 96 97 34
       2.3881314e-10 0.00030266642 -0.72631806 2.8235647e-07
0002f0 33 b1 61 be 31 25 44 bc f4 15 32 3f 86 e1 e6 2c
       -0.22040252 -0.011971758 0.6956475 6.5620313e-12
000300 1f de 50 3d 16 1d ad bd 40 9c ea 3c 70 01 00 80
       0.05099308 -0.08452813 0.028638959 -5.16e-43
000310 61 42 f8 3c aa 04 00 80 87 bf 7f bc 9a 07 00 80
       0.03030509 -1.673e-42 -0.0156096285 -2.727e-42
000320 61 0a 33 be b7 88 51 bd 15 11 00 00 aa 07 00 00
       -0.17484428 -0.051155772 6.128e-42 2.75e-42
000330 ef 8f 10 be 83 b8 6b be cf d8 23 be f3 09 00 00
       -0.14117406 -0.23019604 -0.16000675 3.569e-42
000340 1e 0c 00 80 20 aa c1 bd ce af f6 bd 34 28 e4 b3
       -4.347e-42 -0.09456277 -0.12045251 -1.062439e-07
000350 b2 59 5d be d5 c3 0d be 39 6d b0 bd 3b 76 c8 bd
       -0.21616247 -0.13844235 -0.086145826 -0.09788176
000360 08 7b 01 a4 29 11 a4 b9 a3 d1 20 be 25 42 05 bc
       -2.8076628e-17 -0.00031293303 -0.1570497 -0.008133446
000370 33 ed e2 bd a9 31 82 bd 30 11 5a be 3d 0f 00 00
       -0.110803984 -0.06357128 -0.21295619 5.466e-42
000380 8a f4 05 3f 65 de fe 3e ab c4 18 c0 e5 a7 10 b3
       0.5232626 0.4977905 -2.3870037 -3.3680312e-08
000390 a4 27 00 3f ff 62 8b b0 41 eb 04 3f 86 37 57 b5
       0.50060487 -1.0141717e-09 0.5192147 -8.017454e-07
0003a0 06 77 7c be f2 e8 cc 3f 07 e2 1d bf 86 75 50 92
       -0.24654779 1.6008589 -0.61673015 -6.5778086e-28
0003b0 82 6f 40 bf 45 54 f7 bd 73 47 bd 3e 5a cb a4 a4
       -0.7517015 -0.1207662 0.36968574 -7.1468153e-17
0003c0 b6 d3 a0 3a 30 91 a9 bf 8a 70 f3 be 69 32 e1 a4
       0.0012270126 -1.3247433 -0.47546798 -9.7663594e-17
0003d0 40 a7 a6 bd a3 0a 24 bf f3 6c 11 bf fa fb 95 3e
       -0.08137369 -0.6407873 -0.5680687 0.29293805
0003e0 e2 b6 c6 36 18 52 f8 bf 2f e3 7f bf 8f 81 77 bd
       5.92215e-06 -1.9400053 -0.9995603 -0.06042629
0003f0 87 98 23 3f ba 55 1b 3f e9 df 71 bf ce 80 c1 31
       0.63904613 0.60677683 -0.94482285 5.6316827e-09

2.bias f4 [32]
000000 42 4a 08 bc 22 27 97 3e c2 ad aa 92 d0 89 93 94
       -0.008318486 0.29522043 -1.0771343e-27 -1.4897564e-26
000010 77 c9 a5 3e cf 45 b1 be 47 6f e9 bd 1a 38 17 3e
       0.32380268 -0.34623572 -0.113981776 0.14767495
000020 14 6e 0f b9 8b 90 a6 3e 54 30 e7 bc 7a ea 05 3f
       -0.0001367855 0.32532153 -0.028221287 0.5231091
000030 fe a5 a1 bb 54 5d a7 be 22 cc a9 a8 4b 28 a5 3e
       -0.004933118 -0.3268839 -1.8851298e-14 0.32257304
000040 5e 1b 2d 3f 58 46 3a be 65 99 db bd 6b 44 c0 3e
       0.67619884 -0.18190897 -0.10722617 0.375522
000050 6f d9 28 bc ec e1 37 bd d6 52 7a b7 30 82 b2 bd
       -0.010305746 -0.04489319 -1.4920448e-05 -0.087162375
000060 0a 57 c5 b5 03 48 09 3e 3a 1a 5b bb 3c 5e 3c b7
       -1.4702975e-06 0.13406377 -0.003343238 -1.1227614e-05
000070 e1 0d ed bc b9 ee 66 b5 f4 6e 8c bb 94 55 45 be
       -0.028937282 -8.6029064e-07 -0.0042856876 -0.19270927

4.weight f4 [32, 32]
000000 76 f6 36 37 87 80 83 3d 6e 10 00 80 4d 10 00 00
       1.0905429e-05 0.06420999 -5.894e-42 5.848e-42
000010 9e 5e 04 bf 81 ea 18 c0 aa 5f b5 bc 02 43 c2 ba
       -0.51706874 -2.389313 -0.022140343 -0.0014820995
000020 2a e1 8e b3 0a c3 68 3d 67 7e 83 be bc f0 3d bc
       -6.6533474e-08 0.05682663 -0.25682375 -0.01159304
000030 82 f9 9b 3b 46 6b 05 be 72 93 cd 35 a6 9f 47 bd
       0.0047599683 -0.13029203 1.5316602e-06 -0.048736237
000040 78 ac 9c 3e 65 d7 9a be 24 3c 90 be 64 c1 77 bc
       0.30600333 -0.30242458 -0.28170884 -0.0151217915
000050 47 0e 04 3c bf 34 40 bf c5 7c 6f 9f 1c 8b 58 ba
       0.008060045 -0.75080484 -5.0713426e-20 -0.0008260475
000060 e0 65 30 32 84 72 8a bc c6 ba 93 ba 00 5d a9 36
       1.0267712e-08 -0.016900308 -0.0011270873 5.047419e-06
000070 06 e5 a5 bd b7 70 4f 3a f7 b3 37 ba e6 b6 69 bd
       -0.081003234 0.0007913219 -0.0007007713 -0.05705919
000080 2f 51 b7 36 c0 cd 99 3e 5f 01 00 80 11 0f 00 00
       5.463276e-06 0.30039787 -4.92e-43 5.405e-42
000090 48 d1 ed be cb 57 b7 bf a3 88 9c bc 28 88 28 3e
       -0.4644873 -1.4323667 -0.019108122 0.1645819
0000a0 c5 c0 5a b1 a1 6c 00 3e 33 54 8e be 46 99 91 be
       -3.1832752e-09 0.12541439 -0.27798614 -0.2843725
0000b0 80 12 98 3b 4e 6c 49 be 61 cf 2c 32 1e d1 93 3b
       0.0046408772 -0.19670221 1.005887e-08 0.0045110127
0000c0 c7 09 c5 3e e3 8a 24 bf 19 18 2a bf da 76 cb ba
       0.38484022 -0.64274424 -0.6644302 -0.0015523091
0000d0 bd d1 84 3b 27 25 24 bf e0 1a a9 08 f2 06 18 3c
       0.004053323 -0.6411919 1.0177636e-33 0.009279
0000e0 df df c1 2f 1d be 00 be c5 05 22 b9 42 5f f3 36
       3.5265565e-10 -0.12572522 -0.00015451673 7.253054e-06
0000f0 44 4b be bc 41 26 96 39 41 d9 07 b8 9b 3c 98 3d
       -0.023229249 0.0002863873 -3.238884e-05 0.074334346
000100 44 6d 75 b4 b6 a3 38 3f 9d 08 00 80 26 05 00 80
       -2.2857154e-07 0.72124803 -3.09e-42 -1.847e-42
000110 a7 22 4b 3d cd dd 5c 3f 8d 42 91 bd 00 3b 9d 3e
       0.049593594 0.8627594 -0.07092772 0.30709076
000120 38 d5 31 30 86 4b 26 3f d5 44 d5 3f 45 c7 ae be
       6.4695227e-10 0.6495899 1.6661631 -0.34136406
000130 cd 31 72 bb 86 2f a7 3f b1 09 43 21 4e ff d3 3e
       -0.0036955953 1.3061378 6.6081396e-19 0.4140572
000140 fa 72 19 bf 15 f8 ea ba ef d9 d6 bf ea 2d e4 be
       -0.59941065 -0.0017926717 -1.6785258 -0.4456628
000150 ad 9c 2b 3d 57 83 0d 40 40 52 02 80 1b d2 5d bc
       0.041897465 2.2111413 -2.13177e-40 -0.013538863
000160 ce 2a 0b 1f e6 bc 65 be 38 69 6a 38 7c cf cc 34
       2.9469802e-20 -0.2243534 5.588794e-05 3.8148926e-07
000170 c0 89 a7 3e 1c d5 9d b7 4c bf 2a 37 8d ea 99 3d
       0.32722282 -1.8815095e-05 1.0177329e-05 0.0751544
000180 2c cd 38 37 05 2e 48 3d a4 0f 00 80 b3 0f 00 80
       1.1015025e-05 0.048872013 -5.611e-42 -5.632e-42
000190 70 69 ed be 08 5d 19 c0 79 28 f0 bc 19 2e ae 3c
       -0.46369505 -2.3963032 -0.029316174 0.021262215
0001a0 0c e0 83 b3 a5 9d 57 bb 2f fe 34 be 54 32 0b bd
       -6.140917e-08 -0.003290036 -0.17675088 -0.033983544
0001b0 4e 11 9c 3b 2f 22 24 bd 80 8d c4 35 d3 0f 30 3d
       0.004762805 -0.040071663 1.464432e-06 0.04298384
0001c0 a1 e1 92 3e 8f 5d 6a be f3 8f 61 be f5 94 c7 3c
       0.28687766 -0.22887252 -0.22027569 0.02436302
0001d0 b5 03 04 3a 96 79 25 bf b1 0b a2 9f e1 92 8f bb
       0.0005035953 -0.6463865 -6.862901e-20 -0.004381523
0001e0 c5 e6 30 32 49 d7 b3 bd ee 66 62 ba e5 5d 93 36
       1.0297019e-08 -0.08781297 -0.00086365535 4.391872e-06
0001f0 46 4f 6c bd 58 ea 8e 3a 64 5c 4e ba cd 86 5d bd
       -0.05769279 0.001090358 -0.00078720436 -0.054083634
000200 1b 8a a6 ad 86 85 1c b3 43 05 00 00 23 b1 2e 36
       -1.8933346e-11 -3.644302e-08 1.888e-42 2.6031128e-06
000210 f0 68 9d 9f fa 0b 00 00 57 3a 02 80 68 c6 b7 b1
       -6.666569e-20 4.296e-42 -2.046e-40 -5.348557e-09
000220 cd 40 b2 2d 72 68 13 a5 fb 8d b9 9f c8 74 0a b3
       2.0265034e-11 -1.2785605e-16 -7.8585435e-20 -3.223684e-08
000230 1a 01 00 80 23 b9 91 1f 78 6e c5 b0 8e e0 87 a2
       -3.95e-43 6.171617e-20 -1.4365034e-09 -3.682958e-18
000240 21 8c aa 1f c6 09 00 80 21 0d bd 9d d4 c4 df a0
       7.2229624e-20 -3.506e-42 -5.004146e-21 -3.790792e-19
000250 a8 04 00 80 05 3c 85 1f 54 00 00 00 ba 08 00 00
       -1.67e-42 5.6426985e-20 1.18e-43 3.13e-42
000260 c8 a9 bb 30 a5 89 25 21 52 07 00 00 92 dd 44 31
       1.3654295e-09 5.6086346e-19 2.626e-42 2.8647702e-09
000270 c8 82 10 9b 0a f0 e0 2e 90 10 00 80 55 ec 8a 04
       -1.1953659e-22 1.022898e-10 -5.942e-42 3.266068e-36
000280 ec eb a0 33 6f a1 1d 3f 89 12 00 00 89 07 00 00
       7.4934945e-08 0.61574453 6.649e-42 2.703e-42
000290 07 80 e6 be 90 05 3a bf 4f 7e 5f bc 0c 28 bf 3d
       -0.45019552 -0.7266474 -0.013640954 0.0933381
0002a0 7c cf 47 a9 79 d2 24 3f a3 54 97 be 15 89 a6 3e
       -4.436684e-14 0.64383656 -0.2955676 0.3252646
0002b0 5b 38 32 3b 91 c4 87 3d b3 4a fd 1b 51 a2 a2 3d
       0.0027194235 0.06629289 4.1903612e-22 0.07941116
0002c0 68 f0 0c 3e 7b e8 a1 bf 42 37 42 c0 0b 11 9b 3c
       0.13763583 -1.2649072 -3.0346227 0.018929025
0002d0 f3 1e 5f 3d 2d e4 95 bf 7d 0a 00 80 ae a7 86 bc
       0.054472875 -1.1710259 -3.762e-42 -0.016437378
0002e0 9d 05 4a a0 6b 49 71 3e a9 2b bf 39 dc 75 fd 36
       -1.7111923e-19 0.23563163 0.00036462888 7.553708e-06
0002f0 4f c7 5c 3e 1a 7a a9 36 39 53 5b aa 60 76 63 3e
       0.21560405 5.050807e-06 -1.9479981e-13 0.22213125
000300 2b 56 09 37 5a e6 44 3e dd 0d 00 80 d9 0c 00 00
       8.185899e-06 0.19228497 -4.973e-42 4.609e-42
000310 4f af 02 be 83 31 17 c0 dc a4 66 bc 34 95 0a 3e
       -0.12762187 -2.362397 -0.0140773915 0.13533479
000320 54 78 ad b2 c8 cc ac 3d b0 bf 7d bf 44 d0 bb 3c
       -2.019457e-08 0.084374964 -0.99120617 0.022926457
000330 c8 9b 9d 3b 29 3d 27 bf a6 6e d9 34 8b cd 89 bd
       0.0048098303 -0.653277 4.0499907e-07 -0.06728657
000340 6b 9f dd 3e cc fc 0f bf de 02 43 bf 53 2e 85 bd
       0.4328569 -0.5624511 -0.7617625 -0.06502976
000350 94 19 3b bd 71 1f b0 bf ff 72 b2 9a de 62 fc 3c
       -0.04567869 -1.3759595 -7.380486e-23 0.030808862
000360 8e a0 dc 34 02 62 94 3e ca 40 aa ba 3e 94 f8 36
       4.1095012e-07 0.28981024 -0.0012989279 7.4082336e-06
000370 52 0b 8a bd 04 c1 d2 39 af 65 3a b9 91 4a 34 3d
       -0.067404404 0.0004019813 -0.00017776222 0.044016425
000380 44 ba 3b 37 fa 4a 1c 3e 31 0a 00 80 1f 14 00 80
       1.1189437e-05 0.15262976 -3.656e-42 -7.218e-42
000390 6b 2b 03 bf 89 3c fb bf df 35 1f bd 75 a4 3f 3d
       -0.51238126 -1.9627849 -0.038869735 0.046787698
0003a0 7d e8 2c b3 df ef 27 3b 25 59 bd be 8b c2 1e bd
       -4.0258318e-08 0.0025625152 -0.36982074 -0.03875975
0003b0 e1 61 9b 3b 93 0e 62 be d0 b1 e8 35 0b 51 bd 3d
       0.0047418927 -0.22075872 1.7337097e-06 0.09243973
0003c0 ce 3e d2 3e 2c 3f df be 10 09 c6 be 58 7d 72 be
       0.4106354 -0.43602884 -0.3867879 -0.23680627
0003d0 34 3f 0c bc 00 9f 31 bf dc 71 c1 9c 6c f0 e3 3c
       -0.008559991 -0.6938324 -1.2801101e-21 0.027824603
0003e0 4f e4 57 33 7f 52 5d bd ef 79 5e ba e4 09 ae 36
       5.0266234e-08 -0.054033753 -0.00084867975 5.1867555e-06
0003f0 e5 5f 70 bd 6f 07 86 3a 27 d6 3f ba 7c bc 15 bd
       -0.058685202 0.0010225604 -0.0007317983 -0.036556706

4.bias f4 [32]
000000 46 29 8f 3f 98 84 88 3f 59 10 c7 be fd 48 86 3f
       1.1184471 1.0665464 -0.3887966 1.0491024
000010 c0 78 a3 1f ee b7 17 3f 1f fa 9a 3f cf db 81 3f
       6.923295e-20 0.5926503 1.2107581 1.0145205
000020 29 84 84 3f 0a 2e 86 3f 06 35 a2 bc a0 57 83 3f
       1.0352832 1.04828 -0.019800674 1.0261116
000030 a1 6b 6f 3f 44 df 83 3f 29 4e 84 3f dc de 0d 3f
       0.93523604 1.030251 1.0336353 0.5541818
000040 58 f5 36 bf c3 b3 2c bf a2 f3 83 3f 62 c3 89 3f
       -0.71468115 -0.67461795 1.0308726 1.0762751
000050 69 6f 85 3f c6 e9 88 3f f3 8e 82 a4 e6 7e 8a 3f
       1.0424625 1.0696342 -5.662068e-17 1.0819976
000060 fd d4 a6 3f d4 50 88 3f 30 99 2d be 88 1b 88 3f
       1.3033749 1.0649667 -0.16952968 1.0633402
000070 01 ca 28 3f 82 39 90 3f db c7 82 3f 8e a6 00 a3
       0.65933233 1.126755 1.0217241 -6.974163e-18

6.weight f4 [2, 32]
000000 dc 6f fd 3f ba 95 ab 3f ab ae 93 bf df 3e 04 40
       1.9799762 1.3405068 -1.153768 2.0663373
000010 c8 c7 ae 35 a5 e1 16 3f 7a cb 08 40 ff 01 f6 3f
       1.3022154e-06 0.58938056 2.1374192 1.9219359
000020 08 5d f3 3f 7e e6 9d 3f 8c d9 19 3b db 18 ef 3f
       1.9012766 1.2335966 0.0023475615 1.867946
000030 97 9a 4f 3f 45 77 ec 3f 09 fb ef 3f ea fb 7d 3f
       0.8109526 1.8473898 1.8748485 0.99212515
000040 27 cc 4b c0 c4 06 f5 3d 34 71 07 40 1f 6c a2 3f
       -3.1843355 0.11964181 2.1162844 1.2689246
000050 3b e7 f7 3f e9 60 03 40 8e e6 8c 2e ea ec a0 3f
       1.9367441 2.05279 6.4074177e-11 1.25723
000060 3a 5f 9f 3f 70 13 05 40 88 99 0f 3c 3d 8c 03 40
       1.2450936 2.0793114 0.008764632 2.0554345
000070 4d ef 5c 3f 1a 9d 09 40 b0 e0 f7 3f fa 7d 35 3c
       0.86302644 2.1502137 1.9365444 0.011077398
000080 4f 4c ff 3f 53 28 f6 3f ab 64 12 be 44 31 f7 3f
       1.9945163 1.9231056 -0.14296214 1.931191
000090 ed fe 46 36 12 8b 91 3f 03 f0 d0 3f f4 35 0e 40
       2.9652685e-06 1.1370566 1.6323246 2.222043
0000a0 a2 4f 0a 40 a3 90 f1 3f 65 dd f4 3b 71 e0 06 40
       2.1611104 1.8872265 0.0074726813 2.1074488
0000b0 20 c6 98 3f 90 c5 01 40 18 0e 07 40 bd c6 8c 3e
       1.1935463 2.0276833 2.1102352 0.27495375
0000c0 df 23 7f 3f 99 ef ab bc 31 b6 e2 3f cd f4 f5 3f
       0.9966411 -0.020988273 1.771185 1.9215332
0000d0 34 86 05 40 f1 01 fc 3f f8 6c cd 2e 8c 3e f8 3f
       2.086316 1.9688092 9.3416774e-11 1.9394088
0000e0 9c 66 4b 3f e8 00 09 40 dd a0 d1 3d 4c 40 fe 3f
       0.79453444 2.1406803 0.1023576 1.9863372
0000f0 c7 49 f8 3e 19 66 ea 3f 7a a7 08 40 3b eb 3c 3c
       0.48493788 1.8312408 2.135222 0.011530693

6.bias f4 [2]
000000 ed 04 08 40 eb ef 86 3f
       2.1253006 1.0541967
