model.pth (torch, 11911 bytes, 9 tensors)

layer1.0.weight f4 [10, 3, 7, 7]
00000000: 755c 65b9 66ce 713d 751f 973d ca48 7f3d
00000010: 1d0c 05bd 3d71 9f3d d74d 69bc 25ad 9fbc
00000020: 9232 153d bf4e 8e3d cb07 b73c f016 30bd
00000030: f982 23bd 9316 d13b 3fa9 a9bc 8507 683d
00000040: 8fe2 8c3d 3569 483d c98b a5bd 7067 9a3c
00000050: 6dbf 76bd 8dac 3d3d 52f8 6cbd 1ae4 a63c
00000060: ee92 633d 975a 303b ce83 6b3d e6b5 2abd
00000070: 5d30 94bd b1ae 9dbd 918e 573d 8edd adbb
00000080: ee8e 89bd 3327 1ebd 335d 663d 0c72 8e3d
00000090: af11 4ebc 1279 273c 2087 433d 7089 93bc
000000a0: 127a 173b 1e32 55bd 3eba 36bd 7001 2bbd
000000b0: 05ff 9fbd 40a7 fdbc 8ba1 80bd 8e2c 963d
000000c0: e61f 69bd a181 893d 0a88 1cbc 67e6 ecbc
000000d0: 6a2a de3c cc29 7f3d 2ec7 543d d5a2 61bd
000000e0: 9be9 0abd 53ce 873d 662f 3ebd a1ea afbd
000000f0: 0e04 d23c a9d1 873c ec03 863d 458c 963d
00000100: 5e5f a13d 13ae a6bd 2925 873c 26fe 0cbd
00000110: b291 9e3d e067 023d 6bdf 393d 6ad0 a2bc
00000120: a4b4 a7bd 80b4 a2bc 25cb 6fbd 9289 93bd
00000130: 0483 8e3d 9bca 17bd ae58 8dbd b3f8 b0bc
00000140: 2a8e 1bbd c23c 90bd b575 88bd ad4c 89bc
00000150: 3465 ae3d 5122 57bd ae7e 943d dc5d 563d
00000160: 4f30 05bd 3e10 8f3d d729 353d 63a4 9bbd
00000170: c2b3 953d 98f3 f23c bd93 c2bb 2bff 9f3d
00000180: 09c3 a9bd e960 8cbc 3d06 693d 9df0 82bd
00000190: 357f 7fbc 8273 55bd cd41 773d 51d7 b2bd
000001a0: 251f 1c3d 2f39 3f3d 34b7 913d 4bc8 713d
000001b0: e91e a3bd 0444 55bd ee80 9cbd 0c23 213c
000001c0: f9bb 3fbc 4b78 85bd 3fae 1c3c 589c 3f3d
000001d0: 32fa 9c3d 95bf cdbc f90c 1b3d dc29 a9bc
000001e0: ce9a 9d3d 2095 073d 3ffa b9bb 348e ee3a
000001f0: d81f 723d 97f0 a03c 71fe 8cbc 0657 2dbb
00000200: 7eb5 58bc d6e1 0e3d 3566 d5bc 1795 a0bd
00000210: 919c 86bd c726 783d a3f5 1a3b 2659 803d
00000220: 2c1f aabc 3eff 96bd 6322 9d3d 1ac5 99bd
00000230: c3ff 823d 9775 fabc fa00 3f3d 6720 e7bc
00000240: 6b9e 06ba 8446 7b3d 1c24 a0bd 4009 89bd
00000250: b0bb e3bc 6e26 4ebd 8bb9 d2bc 866d 0ebd
00000260: 974c ef39 e109 d9bb 42db 9e3d 968a 72bd
00000270: 74b6 053d e2b5 f13b 4bea 243d 0c7f adbd
00000280: 4830 e2bc fa77 03bc e525 6abd f40f d23c
00000290: 5a67 013c 2134 fdbc 4435 0dbd ff54 863b
000002a0: 7b88 533d bf34 73bd 960b 013d 66ab 38bc
000002b0: 9cd0 09bd fe57 3d3c b8fc 7d3d 88e6 7fbd
000002c0: 4d1b 303d d0ee 823d c168 113b 8aaf 0fbd
000002d0: 50cc cf3c 5ec9 923d bb84 90bd 3165 9c3d
000002e0: 2c18 d0bc 3245 683d 75b8 85bd cfdb 69bd
000002f0: f379 37bd e124 85ba 016c b0bb 8907 f2bc
00000300: 465b 0c3d 55c3 34bc fae4 9d3d 4209 183d
00000310: 2e06 20bc 4437 d5bb 96b8 4dbd 5dd0 893d
00000320: 50f8 c3bc 6a1e 623c 4708 94bd 98ba a73d
00000330: 4cfe 87bc 953a 4abd 186a 36bc 583f 70bd
00000340: 615e e8bc 2b6c a53b 3688 96bc 7180 d93c
00000350: 4b9d 01bc 26c3 4ebd 7820 78bd 3122 79bd
00000360: a4b9 183c aca9 ad3c 23b1 3e3d 0fd6 a5bd
00000370: a313 293d 1b5b 673c 0ea0 c9bc a4a9 ea3c
00000380: e06a b03c 8088 a33b 1144 2cbd 2403 7bbd
00000390: 471a 3f3b fa61 34bd 521d 1f3d 61a6 9d3d
000003a0: 5969 0ebd 6fe5 743d cc03 a13c 4150 f23c
000003b0: 3819 273d 34c2 6cbd 11e3 633d 689e 06bd
000003c0: c241 7b3d 0d66 3abd 13ca e43c 7a60 d7bb
000003d0: 0397 203c 7cba 5b3d 618d 63bc dabe 2f3d
000003e0: 1dc2 33bd 34c1 a43d 22d9 013d 6d8e 0cbd
000003f0: d2e1 5bbd 6c50 903d 1e57 5cbd e045 05bd
-0.00021873585 0.059034728 0.07379047 0.062325276 -0.032482255 0.0778527 -0.01423975 -0.019491741
0.03642518 0.069486134 0.022342583 -0.042990625 -0.039919827 0.006380865 -0.020710586 0.056647796
0.0687915 0.04892846 -0.080833025 0.018848151 -0.06024115 0.046307135 -0.057854004 0.02037244
0.055560045 0.0026909465 0.057498746 -0.041677378 -0.07235787 -0.07699335 0.052626196 -0.0053059524
-0.06716715 -0.038611602 0.056241225 0.069553465 -0.012577458 0.0102217365 0.047736287 -0.018009871
0.002311353 -0.05204975 -0.04461121 -0.041749418 -0.07812313 -0.03096354 -0.06280812 0.07332717
-0.056915186 0.06714178 -0.009553919 -0.028918458 0.027119834 0.06229572 0.051947765 -0.05508693
-0.03391419 0.0663115 -0.04643192 -0.08589674 0.025636699 0.016579466 0.06543717 0.07350973
0.07879518 -0.08138671 0.016497212 -0.034422062 0.07742633 0.031837344 0.045379084 -0.01987477
-0.08188751 -0.01986146 -0.058543343 -0.07203974 0.06958583 -0.037058454 -0.0690168 -0.021602964
-0.037977375 -0.07042839 -0.06663076 -0.016760195 0.08515397 -0.05252296 0.07250725 0.052335605
-0.032516774 0.0698552 0.044229355 -0.07599714 0.07309677 0.02965717 -0.005938022 0.07812341
-0.08289153 -0.017136054 0.056890715 -0.063935496 -0.015594293 -0.05211211 0.060365487 -0.087324746
0.03811564 0.046685394 0.07115021 0.059028905 -0.0796488 -0.052066818 -0.07641779 0.009835016
-0.011702531 -0.06517085 0.009563028 0.04677996 0.076649085 -0.025115767 0.03785417 -0.020649843
0.07695542 0.0331012 -0.0056755836 0.0018200339 0.0591124 0.019645972 -0.01721117 -0.0026449575
-0.013226865 0.034883343 -0.026049713 -0.07840937 -0.065728314 0.060583856 0.0023644946 0.06267004
-0.020766817 -0.07372902 0.07672574 -0.07508297 0.06396439 -0.03057365 0.04663179 -0.028213693
-0.00051353005 0.061346546 -0.07819387 -0.066912174 -0.027799457 -0.05032962 -0.02572324 -0.03477242
0.00045642696 -0.006623492 0.07756664 -0.059214197 0.032644704 0.0073764184 0.0402625 -0.08471498
-0.027610913 -0.00802421 -0.057165045 0.025642373 0.007898176 -0.030908646 -0.034474626 0.004099488
0.05164383 -0.059376474 0.03150519 -0.011271333 -0.03364621 0.0115566235 0.06200859 -0.06247571
0.042994786 0.06393206 0.0022187682 -0.035079516 0.025365978 0.07167314 -0.07056566 0.07636488
-0.025402151 0.056706615 -0.06529323 -0.05709439 -0.044794034 -0.0010158085 -0.005383969 -0.029544609
0.034266733 -0.011032899 0.077096894 0.037118204 -0.009767098 -0.0065068323 -0.050224863 0.06729195
-0.023922116 0.013801197 -0.07228141 0.08189887 -0.01660075 -0.049372274 -0.011133693 -0.05865416
-0.028365316 0.005048295 -0.018375497 0.026550503 -0.007911037 -0.050479077 -0.06057784 -0.060823623
0.009321604 0.02119907 0.04655565 -0.08097469 0.041278493 0.014120842 -0.024612453 0.028645344
0.021535337 0.0049906373 -0.0420571 -0.061282292 0.002915995 -0.04403875 0.03884632 0.0769775
-0.034768436 0.059789117 0.01965513 0.029579284 0.040795535 -0.057802394 0.05563647 -0.03286591
0.06134201 -0.04550748 0.027928388 -0.00657278 0.009801629 0.053644642 -0.013888688 0.04290662
-0.043886293 0.08044663 0.031701215 -0.034315515 -0.053682156 0.07046589 -0.05379402 -0.03253734

layer1.0.bias f4 [10]
00000000: 4764 58bd e871 2c3c 5736 903b 94cc 15bb
00000010: 0265 43bd d194 4c3d dbc5 e53c c2b7 01bd
00000020: dd55 23bc e48d c1b9
-0.052830007 0.010525204 0.004401009 -0.0022857534 -0.04770375 0.04994661 0.028048446 -0.031669386
-0.009969202 -0.00036917545

layer2.0.weight f4 [5, 10, 2, 2]
00000000: 44a5 f4bd 2a5f 1c3d 7cd0 9aba 9dc9 b53c
00000010: ba63 b5bd 1ccf 6d3d 7c22 8bbd fd8d db3d
00000020: baf6 22be 048c 6d3d 4523 81bd d15c f43d
00000030: dca4 153c b878 fbbd 4749 e43d b5b3 103e
00000040: 9d80 e6bc 2ec1 fbbd fe46 82bd 732f d0bd
00000050: 4986 6e3d 408e 9ebd 23b9 d73d b27e 97bd
00000060: 3b28 dd3d 4e1f 18bd 5a4d b83d 666a 8f3d
00000070: b994 a53d 3f07 0abe 3239 66bd ac23 0ebc
00000080: 76d4 f13c e239 d03d 4b4d f6bd b8c6 053e
00000090: 3fe2 00be c961 1ebd 50a9 e5bd a1f3 16bd
000000a0: f00c 12bd 9ac9 b83d 9f06 ba3c 1ece f53d
000000b0: 8d50 25be b629 403d c977 0ebe f850 8fbd
000000c0: 2e90 f13d 514a 09be c196 64bc 5bb7 28bd
000000d0: 7eb1 a3bd bb00 22be a991 35be d6a8 863d
000000e0: a91e 80bc 2b9b 6bbd 0a1d b13d 48a9 ac3d
000000f0: 8588 033e 0de8 2bbd 4893 f3bd cb1d 0c3c
00000100: 9f71 843d 0fb1 b5bc ee33 1b3e e4c1 6d3d
00000110: 3a83 e43d 2bec a2bd 2395 bc3d 09fe 3dbd
00000120: dd45 c5bc 4174 fc3d dda2 c4bd cf72 403c
00000130: 710c b73d bfb8 a33d 178a a73d d8de 7e3d
00000140: ebe0 dabd f06b 7f3d 06fb 5a3d 31bf e53d
00000150: 31e4 153d 1890 3e3b 50ad bb3d e9a5 ab3d
00000160: 96ad 02be 9131 c3bb 2f05 ddbc 78eb a63d
00000170: a644 473d a392 4bbc 6b66 d8bd c081 59bd
00000180: e41c 40bd 7401 033e 0e2a a93d d5cf 91bd
00000190: a0dd 193d a863 efbd bf09 febd fbf6 86bd
000001a0: 8aa4 5fbc 0e20 d5bd 217f 1cbd f266 033d
000001b0: dc34 143e ded8 67bd 92a5 edbd bcad b83d
000001c0: 8b7a a83d 64f6 efbd a238 5cbd 7fee fabc
000001d0: 1307 5f3d c08a 5dba f523 113a b588 483d
000001e0: f1f0 ce3d 3f0f 5fbd 2802 c5bd b1c8 133e
000001f0: 57fc a23d d701 d43c ec98 39bd 4e42 a1bd
00000200: c36c fc3d 9486 9ebd 7b9f 0fbd 297b 0a3e
00000210: f7b6 d73c 0ed3 cfbd b1b9 dabc e112 a5bd
00000220: 1fd1 963d 5097 a83d cb59 9a3c b103 d4bd
00000230: e79c 103e e098 503d 0f03 f7bd 3483 13be
00000240: 0f65 3f3c 0b91 b03d c742 b8bd 62fd ce3d
00000250: 7288 81bd 0c06 68bd 8254 05be 3a62 dc3d
00000260: 7338 a73c 1c7d 20bd 0b84 f83b 5f73 ff3d
00000270: b876 cb3d 903e 86b8 9609 543d 3fb2 e73a
00000280: c356 5d3d 07b5 9b3d 95ca 8dbb d8c4 d53b
00000290: b6b4 13bc 7249 d0bb 78b6 0abe 2be2 173e
000002a0: bef5 003e cef0 8c3d 9cc7 c4bc d04d 54bd
000002b0: cd14 91bc f57b 973d 7ae6 203e 4703 b2bd
000002c0: cf1b 423b c04d 02be 7f90 dbbd 0a55 c1bd
000002d0: a38a afbd 083b b83d 5851 d13d c6d5 373d
000002e0: 48da c2bd 4054 ac3d 755a 2b3e 998b 323e
000002f0: 6efe 083e fec6 9cbc d633 1bbe c00e f0bc
00000300: 6f3b d2bd a99d 27bb 5ec7 38bd 5753 8c3c
00000310: d38c 1fbd 9032 81bd a1ab 353d ebc5 883d
-0.119455844 0.038176693 -0.0011811401 0.022190863 -0.08856912 0.058058843 -0.06793687 0.107204415
-0.15914431 0.057994857 -0.06305555 0.11931766 0.009133544 -0.12278885 0.11146789 0.14131053
-0.0281375 -0.122927055 -0.06361197 -0.101653 0.058233533 -0.07741976 0.10533359 -0.07397212
0.10798689 -0.03713923 0.08999129 0.07002716 0.08085007 -0.13479327 -0.05620689 -0.008675497
0.029520255 0.1016729 -0.12026461 0.13064086 -0.12586306 -0.038667474 -0.112139344 -0.036853436
-0.03565687 0.090228274 0.022708235 0.12002204 -0.16144009 0.04691478 -0.13912882 -0.069978654
0.11795078 -0.13407256 -0.013951958 -0.041190486 -0.07992838 -0.15820591 -0.17731346 0.06575172
-0.01563962 -0.057521027 0.08648117 0.08430725 0.12845047 -0.041969348 -0.11893326 0.008552025
0.06466984 -0.022179155 0.15156528 0.058046237 0.11157842 -0.07955202 0.09208133 -0.046384845
-0.024081165 0.12326861 -0.09601376 0.0117461225 0.0893792 0.07994222 0.081806354 0.06222424
-0.10687431 0.062358797 0.05346205 0.112181075 0.036594573 0.0029077586 0.09163916 0.08381254
-0.1276153 -0.0059568365 -0.02698001 0.08150381 0.048649453 -0.012425098 -0.1056641 -0.053102255
-0.046902552 0.12793523 0.082599744 -0.07119719 0.037564874 -0.1168893 -0.12404203 -0.065900765
-0.013650069 -0.104065046 -0.038207177 0.0320806 0.14473289 -0.056603305 -0.11603846 0.09017512
0.08226498 -0.11716917 -0.053764947 -0.030631302 0.054450106 -0.00084511563 0.0005536669 0.0489585
0.1010455 -0.0544579 -0.09619552 0.14432026 0.07958286 0.025879784 -0.045311853 -0.07873975
0.12325432 -0.077405125 -0.0350642 0.13523544 0.026332362 -0.10147677 -0.026699873 -0.080602415
0.073641054 0.082319856 0.018841645 -0.103522666 0.14122353 0.050927043 -0.1206113 -0.14405519
0.011681809 0.08621415 -0.08997112 0.10106923 -0.06324853 -0.05664639 -0.13020518 0.10760923
0.02041266 -0.039181814 0.0075841 0.12473177 0.09934753 -6.401271e-05 0.051766954 0.0017677023
0.05403782 0.076028876 -0.004327128 0.0065237097 -0.009015253 -0.0063564116 -0.13546169 0.1483237
0.12593743 0.06881867 -0.024020962 -0.05183202 -0.017710114 0.0739669 0.1571292 -0.08692031
0.0029618626 -0.12724972 -0.1072092 -0.09440048 -0.08571365 0.08995634 0.10220593 0.044881605
-0.0951429 0.08414507 0.16733725 0.17436065 0.13378307 -0.019137856 -0.15156493 -0.029303908
-0.10265242 -0.002557615 -0.045112006 0.017129583 -0.03895266 -0.06308472 0.04435313 0.06678375

layer2.0.bias f4 [5]
00000000: 4e56 0abe f424 60bd 086e 373d b3d8 4ebd
00000010: 4309 d3bc
-0.13509485 -0.05472274 0.04478267 -0.05049963 -0.025761252

layer3.0.weight f4 [1, 5, 2, 2]
00000000: bcef edbd 3aef 363e 2f85 2d3e a55c d53d
00000010: 4335 a9bd eb89 5fbe ae1e 67be ee02 233e
00000020: 926f 083d 0c17 ce3d 1dc8 453e 8da1 14be
00000030: 8435 053d 07e8 ef3c 0760 6f3d 18b9 27bc
00000040: 557a 983d 115a b33d b7cb a33c 6699 b6bd
-0.11617991 0.17864695 0.16945337 0.10418061 -0.08262112 -0.21829955 -0.22570297 0.15919086
0.033309527 0.100629896 0.19314618 -0.14514752 0.03252174 0.029285444 0.05844119 -0.010237001
0.07445208 0.08757413 0.0199946 -0.08915977

layer4.0.weight f4 [16, 25]
00000000: 0381 b23d 74c8 943c e68d 983d 3229 1bbe
00000010: 9c42 d73d 398d bebd 68ac 87bd 0f7b 07bd
00000020: a169 a03b d004 d4bd 8e05 b33c 30ef 76bd
00000030: fe80 88bc ea3f 88bc 029f 40bd 1dea 0b3d
00000040: 0846 143e cf73 bcbd c844 4cbd 4036 cc3b
00000050: fca2 373d 6032 2d3d 1c73 193d fa62 adbd
00000060: 5b5b e63a 5464 37be 1e6b 31be 8756 e83d
00000070: 128b 633c 8773 cb3a e7eb cf3d d1c6 053e
00000080: d4ca 10be 9d51 233e 3ea7 cc3d e839 e13c
00000090: 2937 ca3d b3d6 0f3e e3f2 9f3d b23f 33be
000000a0: 9242 0d3e f6e5 0d3e 8712 283e 31fc 263e
000000b0: 8ccc 6e3d 53c2 77bd d3f9 b9bc bb88 c6bd
000000c0: b393 35b9 756e 9abd bd9b 80bd 413c 69bd
000000d0: fd4d 53bd 343e 0c3c 1f86 113c 7532 493e
000000e0: 08e7 ba3d 94fb 0b3e 4ab4 4fbe 5de1 05be
000000f0: 2b9f f8bd 4195 efbd 6612 933b 87ce 80bd
00000100: 33fe ddbd 8d45 193e f479 3e3e 0990 e13c
00000110: b72f 3a3e e546 15be f0e1 1f3d 142a 023c
00000120: 3131 a4bd d349 a33d 82a0 5f3d ecab 3e3e
00000130: 4138 1cbe 20e0 393e 57a8 0f3e 2f29 b9bd
00000140: 6acf 273e 76db 443e 238b 19bd 3ea6 2d3e
00000150: 4e64 88bc 9793 7a3d a32f bbbc 35d8 b33d
00000160: eecd 21be 272c 9abd 1631 ac3d 73cd 3cbe
00000170: 6cc8 1ebc c36f b93c 256e ac3d 3a36 20be
00000180: ea32 b437 ee2c ac38 6b0a 11bd 6c8f 023d
00000190: 70d7 113c e9c7 783a ef97 27bc b20d 3d3e
000001a0: bb58 3d3c d60c 02be 2f8f 53b9 6db6 dbbd
000001b0: 064d 56bc ad01 babc 5753 363e 2f18 7abd
000001c0: aec0 203d 63c4 16be d15a bd3c bbd6 2bbe
000001d0: eaf5 d039 41fd 84bc 8849 b939 996b 5a3d
000001e0: c362 a7bd ec6d ea3c d450 c5bd d164 05bd
000001f0: 3cf3 0639 5743 1f3e 7819 6f3d 6b8d 2cbe
00000200: e3b4 043e b0f4 883d c45c 1fbe 1afe 333d
00000210: 3ae4 c83d c84e 92b7 71cc a23d 22aa 29be
00000220: 6a85 ce3a 33e5 423d 44e4 e2bd c494 91bd
00000230: 4b8f c53c 91a1 c9bd e8ba 4db9 382b c7bd
00000240: 4a8b 603d 9704 cdbd 0189 dcb9 6681 0339
00000250: fce7 333d 9795 dcbd 4d6c c8bd 8b32 ac3d
00000260: 223f 683d a323 80bc 3bd3 c0bd 1abd fb3c
00000270: 2a4c a0bd aa76 6437 b0c5 9536 5248 e939
00000280: a91a 4c3a 157b 8a3d 1bb8 c2bd d613 443c
00000290: 7ee0 58b8 7d7b 86bd 7409 0539 fa58 bfbc
000002a0: 587e 8cb9 b782 043d 57d9 89bb 507c b93d
000002b0: 6c33 39b9 ef2b e83c dd01 abb9 494d 56bd
000002c0: 21cc e43d e8d0 b23d 82b7 13be 75b8 4d39
000002d0: 24d5 9fbd 0ac6 183e 71a2 22be 48f9 c6bd
000002e0: ae96 863b 89cc e7bd d1dc 333e ba69 923d
000002f0: 7ccf e53d 1004 dabc de79 ddbc 80ff 4bbd
00000300: fe4c 1d3d c0a7 3d3e 7e4e 083d 847d 783b
00000310: d0c1 70bd 50cc c5b8 81a4 553d a1e2 963d
00000320: b3bc 48be 6644 1c3e 6df9 e93d f969 443e
00000330: cd5f b938 95b1 5cbd 45eb d13d d4e5 463e
00000340: ef28 683c 233a a13b c350 db3d e1b8 60bc
00000350: 952b db3d 718e cf3a 6b99 17be 103b 3a3e
00000360: 2071 983d a499 163e 8550 40bd 8ff3 ab3c
00000370: 6a67 ecbd 5538 833d 94b2 fa38 c548 953d
00000380: c682 073d 189e 28bc 6bf6 b1bd a858 afbd
00000390: 4cdd c23d 84f5 cabd 5579 98bd 9710 fa39
000003a0: 773d eabb 9410 b13d 174b 9c3d 5fda 8fbd
000003b0: e62b edbb 35a7 47bc 9c8a 0a3e b178 873d
000003c0: 484d 2bbd 5c63 5cbd 3526 78bd 680f e3bc
000003d0: a052 0a3c 273d 673d 595e ce3d 6903 2bbd
000003e0: cdf2 80bc 8153 d53d dd10 273e 145f 85bc
000003f0: 3518 113e b93f 05be 0336 d6bc de0d 3e3d
0.08716013 0.01816199 0.0744894 -0.15152434 0.105107516 -0.0930428 -0.06624681 -0.033076342
0.0048954044 -0.103524804 0.021853235 -0.0602867 -0.01666307 -0.01663204 -0.04702664 0.034158815
0.1447984 -0.09201776 -0.049870282 0.006232053 0.04483317 0.04228437 0.037463292 -0.08466144
0.0017574833 -0.17909366 -0.17326018 0.11344629 0.013888137 0.0015522101 0.10152417 0.13064124
-0.14139873 0.15949102 0.099928364 0.027493432 0.09873802 0.14046745 0.07809999 -0.17504767
0.13794926 0.13857254 0.16413318 0.16307141 0.05830054 -0.060488056 -0.022702133 -0.09694048
-0.00017316527 -0.07540599 -0.06279705 -0.05694223 -0.051588047 0.008559752 0.008882075 0.19648154
0.09126097 0.13670188 -0.20283619 -0.1307425 -0.12139734 -0.1169839 0.0044882772 -0.06289392
-0.108395 0.14967938 0.18601209 0.027534502 0.18182264 -0.14577825 0.03903383 0.0079446025
-0.08017195 0.07973065 0.05459643 0.1862027 -0.15255834 0.18151903 0.1402906 -0.09041058
0.16387716 0.19224343 -0.037486207 0.16957948 -0.016649392 0.06117591 -0.022849863 0.087814726
-0.15801212 -0.07527953 0.084078 -0.18437748 -0.009691339 0.0226363 0.08419446 -0.15645686
2.148138e-05 8.209968e-05 -0.035410326 0.03187506 0.008901462 0.0009490238 -0.010229095 0.18462256
0.0115567995 -0.12700209 -0.00020175868 -0.10728154 -0.013079887 -0.022705877 0.17805229 -0.06105822
0.039246254 -0.14723353 0.023114594 -0.16781132 0.00039856072 -0.016234042 0.00035340735 0.05332527
-0.08173134 0.028616868 -0.09634557 -0.03256685 0.00012869848 0.15553032 0.0583739 -0.16850822
0.12959628 0.066872954 -0.15562731 0.043943502 0.09809156 -1.7441242e-05 0.0794915 -0.16568807
0.0015756313 0.047581863 -0.110786945 -0.07108453 0.024116179 -0.098452695 -0.00019619951 -0.0972504
0.054820336 -0.10010641 -0.00042063746 0.00012541338 0.04392241 -0.107707195 -0.09786282 0.08408078
0.056700833 -0.015641993 -0.09415289 0.03072982 -0.07827027 1.3617488e-05 4.46356e-06 0.00044495106
0.0007785955 0.06761757 -0.095077716 0.01196762 -5.1707488e-05 -0.06566522 0.0001268739 -0.023357857
-0.00026797014 0.032351222 -0.004206817 0.09056914 -0.00017662131 0.028341262 -0.0003261705 -0.0523198
0.11171747 0.08731252 -0.14425471 0.00019619039 -0.07804325 0.14919296 -0.15882279 -0.097155154
0.004107318 -0.11318309 0.17564704 0.07149072 0.11221215 -0.026613265 -0.02703565 -0.04980421
0.038403504 0.18521023 0.03327798 0.003791661 -0.058778584 -9.431748e-05 0.052158836 0.07367445
-0.19603233 0.15260467 0.11424527 0.1918105 8.839332e-05 -0.053880293 0.10249952 0.1942361
0.014169916 0.0049202605 0.107087635 -0.013715954 0.10701672 0.0015835298 -0.14804618 0.18186593
0.07443452 0.14707047 -0.04695179 0.020990161 -0.11543162 0.06407229 0.00011954192 0.0728927
0.0330837 -0.010291599 -0.086895786 -0.08561832 0.09514865 -0.0991011 -0.07445017 0.00047696076
-0.0071484405 0.0864574 0.0763151 -0.07024073 -0.007237899 -0.012185861 0.13529438 0.06614817
-0.041821748 -0.053805694 -0.060583312 -0.027717307 0.008442551 0.056454804 0.10076589 -0.0417513
-0.015740776 0.10416318 0.16315027 -0.016280688 0.1416939 -0.1301259 -0.026148802 0.046399944

layer4.0.bias f4 [16]
00000000: 1d36 233e 13f3 35be 6f2f 96bd 229a afbd
00000010: e69c d2bd 1968 11be 6ada b5bb 934b a03b
00000020: 9f84 48be 0d5b debd 2901 aebd 05c4 313e
00000030: be0d 2a3e 0617 643d 2e12 20be 5b9e 38be
0.15938611 -0.17768507 -0.07333266 -0.085743204 -0.10283832 -0.14199866 -0.0055497186 0.0048918216
-0.19581841 -0.1085721 -0.08496315 0.17359932 0.16606805 0.05568602 -0.15631935 -0.18029158

layer5.0.weight f4 [3, 16]
00000000: 38fa 57bd a2a5 69be ae5a 563e 7729 693e
00000010: ad39 2fbe caa2 003e 5a4c 1ebc f2af 543d
00000020: 08f2 163e c5b4 5b3c ebd8 f4bd 3cad 3d3e
00000030: 9e5e ba3c a883 7abe 347b 683e cc30 3b3c
00000040: 5057 07be 7f32 ca3c ac48 093e e5f3 d8bc
00000050: 2e7d ea37 4053 5dbd 297e d2bd e649 4b3d
00000060: 2438 c0bd 0420 8ebd c043 5839 a86a 9f3c
00000070: 3aee 26bd aad3 e6bd 025f b03b b66a dd36
00000080: c072 58bd 40b9 fbb9 e6fe 96b9 976a bbb8
00000090: e316 5db8 e758 62bc 8258 1dbd 8f58 d93d
000000a0: 9650 833b 318d 7bbd d223 41bd 8024 b43d
000000b0: 9334 f638 e9e5 0d3e bc51 aebd 2629 e7bd
-0.05272886 -0.2281709 0.20933029 0.22769724 -0.17111845 0.12562099 -0.009661758 0.051925607
0.14740765 0.013409798 -0.11955436 0.18523115 0.022750195 -0.24464285 0.22703248 0.011425208
-0.13216901 0.024682282 0.13406628 -0.026483485 2.7953265e-05 -0.05403447 -0.102779694 0.049631022
-0.09385708 -0.069397 0.00020624604 0.019460037 -0.040754534 -0.112708405 0.0053824196 6.598736e-06
-0.05284381 -0.00048012473 -0.00028800144 -8.936709e-05 -5.271182e-05 -0.013815141 -0.038414486 0.10612594
0.0040074093 -0.061413947 -0.0471533 0.08796024 0.00011739987 0.13857235 -0.08511683 -0.11287145

layer5.0.bias f4 [3]
00000000: 0d2e 7bbd f8da efb9 53bb b63d
-0.061323214 -0.00045748777 0.08922448
