model.pth (torch, 11599 bytes, 8 tensors)

0.weight f4 [32, 4]
-0.016328914 -0.009496788 2.9856427 0.36978292 0.68259025 0.14182521 1.5183871 0.12741904
0.15176475 0.44195196 -0.72920054 0.106185235 -0.287075 -0.05209007 0.11778116 -0.024398888
7.801272e-05 -8.702413e-05 2.3240424e-05 -4.4544493e-05 0.021233784 -0.052803844 -0.12054316 -0.049675416
-0.056958582 0.037784617 -0.00044429756 0.023105094 -0.00449141 0.0064439164 -0.0006198811 0.018493319
0.014316842 -0.020476656 0.003644729 -0.015431809 -0.08926373 -0.24470168 0.6252562 0.18911298
-0.422829 0.27940837 -0.4962478 0.28009525 0.0022273818 -0.002005352 0.009024962 0.007286247
0.036034957 -0.047176417 -0.6679765 -0.1663629 0.011276538 -0.026773874 -5.1694815e-06 -0.017116927
-0.007996996 0.0016659237 -0.02395034 0.009485106 -0.055152994 -0.08487052 -0.47451994 -0.12613252
-0.11655862 -0.46788254 0.20567687 -0.31240076 -8.603435e-09 4.4533595e-09 -1.7836553e-12 1.1451566e-09
-1.4235387e-08 3.3652299e-09 7.703583e-11 2.8067193e-09 0.124829076 0.13959526 1.5101522 0.40784445
0.18441373 0.213561 0.5080919 0.17041169 0.0013606589 0.00038286168 0.0009538521 -0.009912367
0.014124248 -0.03781003 -0.012044118 0.0074194884 -3.956927e-18 -1.6727903e-18 6.112291e-26 -6.1908924e-20
-3.3212e-11 4.0242548e-10 4.3934572e-13 6.7303524e-11 1.7889487e-09 -3.4154415e-09 -1.0394642e-12 7.530388e-11
-2.5910738e-16 -1.2455526e-14 1.8987195e-17 -8.6495345e-15 -0.0405173 0.029380731 -0.0861635 -0.033118725
-0.20812476 0.028855342 -1.3786765 -0.13698876 -0.11223859 -0.002351633 -0.70405215 -0.045782395
7.293456e-10 -8.318867e-09 8.7159923e-16 1.6353459e-10 -0.08491401 0.10024349 0.024229337 0.064459875
00000000: 37c4 85bc 6a98 1bbc c514 3f40 3054 bd3e
00000010: 3cbe 2e3f a13a 113e 825a c23f 237a 023e
00000020: 3868 1b3e 8747 e23e e3ac 3abf a577 d93d
00000030: 7ffb 92be 665c 55bd 4037 f13d 2de0 c7bc
00000040: c39a a338 b980 b6b8 6ef4 c237 49d5 3ab8
00000050: 79f2 ad3c d848 58bd 55df f6bd 7378 4bbd
00000060: 674d 69bd 0bc4 1a3d 9cf0 e8b9 e546 bd3c
00000070: ae2c 93bb 7d27 d33b 847f 22ba 4d7f 973c
00000080: 3091 6a3c a9be a7bc 68dc 6e3b b3d5 7cbc
00000090: e7cf b6bd 1493 7abe ca10 203f d5a6 413e
000000a0: 0b7d d8be 9d0e 8f3e 3114 febe a568 8f3e
000000b0: 44f9 113b 396c 03bb 6fdd 133c 78c1 ee3b
000000c0: 6499 133d 0f3c 41bd 8200 2bbf 095b 2abe
000000d0: 3ac1 383c e254 dbbc 8275 adb6 cc38 8cbc
000000e0: d505 03bc 205b da3a 8133 c4bc 6b67 1b3c
000000f0: 1be8 61bd 98d0 adbd 47f4 f2be e228 01be
00000100: 49b6 eebd 4d8e efbe f59c 523e fef2 9fbe
00000110: 4fce 13b2 2a04 9931 f406 fbab 9e63 9d30
00000120: e58f 74b2 c041 6731 5167 a92e 54e0 4031
00000130: 63a6 ff3d 0ff2 0e3e ab4c c13f fdd0 d03e
00000140: f4d6 3c3e bcaf 5a3e 5012 023f 6780 2e3e
00000150: 2358 b23a d3ba c839 ee0b 7a3a 7b67 22bc
00000160: 6469 673c b1de 1abd b154 45bc 2e1f f33b
00000170: 1efc 91a2 3bdc f6a1 3f55 9715 a62d 929f
00000180: 6311 12ae 5a3c dd2f 6454 f72a 8400 942e
00000190: 09df f530 15b5 6ab1 a54a 92ab 5198 a52e
000001a0: 805d 95a5 fa60 60a8 3f20 af23 f0d0 1ba8
000001b0: 78f5 25bd dcaf f03c 7d76 b0bd 80a7 07bd
000001c0: a81e 55be 0a62 ec3c 7978 b0bf c846 0cbe
000001d0: 59dd e5bd db1d 1abb c33c 34bf 5286 3bbd
000001e0: 227b 4830 c4ea 0eb2 ac38 7b26 e5ce 332f
000001f0: 65e7 adbd 754c cd3d 9a7c c63c 8a03 843d

0.bias f4 [32]
-0.4827104 -0.2596354 0.06795148 -0.27391008 -0.000288111 -0.1615873 -0.15072335 -0.0738551
-0.056596886 -0.031874783 -0.26025352 -0.035656333 0.03204118 -0.07074396 -0.036630627 -0.171477
-0.3430057 -3.4281854e-08 -6.6675405e-08 0.7209056 -0.004996365 -0.06353346 -0.17619872 -2.0975686e-17
-2.7717113e-09 -1.4043819e-08 -1.0861662e-13 -0.30110052 0.5606839 -0.05585816 -3.613494e-08 -0.35915875
00000000: d125 f7be eeee 84be 252a 8b3d f13d 8cbe
00000010: 9b0d 97b9 2477 25be 3957 1abe 5841 97bd
00000020: 23d2 67bd 228f 02bd f33f 85be 600c 12bd
00000030: 9d3d 033d 36e2 90bd ff09 16bd ab97 2fbe
00000040: 719e afbe 4c3d 13b3 312f 8fb3 458d 383f
00000050: 8cb8 a3bb d51d 82bd 706d 34be 7077 c1a3
00000060: 7678 3eb1 5f45 71b2 3895 f4a9 d929 9abe
00000070: fb88 0f3f 87cb 64bd c932 1bb3 a8e3 b7be

2.weight f4 [32, 32]
-0.21764836 -0.39228845 -1.6218739 0.5703228 2.5045127e-05 -0.03092645 -0.02880438 -0.014681072
-0.0057642953 0.2180291 0.18007079 -0.010193367 0.61305267 -0.0020487634 -0.024091192 0.013238055
0.37266105 5.6737875e-15 -3.153412e-24 -0.46184215 -0.5544877 0.11676638 -0.034684498 -2.8997885e-12
-4.2921637e-13 -3.8409704e-28 -1.67e-43 -0.085386716 -0.0352228 1.8227909 -2.2512072e-18 0.028265672
-0.4132841 -0.22505122 -0.24180488 0.110218026 1.334e-42 -8.04e-43 -5.174e-42 9.8e-44
1.1497011e-21 0.22395352 -0.031741854 1.973e-42 -0.31472704 1.651e-42 -2.86e-43 0.20571533
0.39706114 -2.992e-42 5.308e-42 -0.38255402 -0.5836146 -4.796e-41 -5.3e-42 0.0004098345
4.797e-42 -1.0638053e-11 1.1208078e-07 -8.04e-43 0.09971078 0.16070561 2.469e-42 6.754e-42
0.0005992563 3.971e-42 -6.9157546e-10 -8.985437e-10 2.364e-42 -2.494e-42 -5.084e-42 -4.8890964e-13
9.850191e-11 -6.239e-42 -3.842e-42 -7.8232815e-29 7.324149e-14 -4.561e-42 -7.1e-44 8.8963796e-05
-9.077819e-06 4.32e-43 8.421745e-15 -1.15e-42 8.873858e-12 1.111904e-26 2.152e-42 -1.558e-42
2.088e-42 7.054e-42 -6.460922e-05 9.51e-43 -0.00099462 -1.2175688e-10 -4.022e-42 -2.8674367e-07
0.12261078 -0.0023024657 7.3000815e-12 -0.051111996 -4.8280054e-07 -0.054786086 -3.872e-42 4.994156e-39
-3.195e-42 -0.058446135 -3.895681e-08 -0.0033639157 3.46e-43 1.327e-42 -0.0056977887 0.005605759
-0.12579793 -4.1417705e-21 3.410631e-14 -0.039797667 -2.9933602e-09 -0.015301375 -0.00020413542 -7.027826e-22
-3.475e-42 -1.6932417e-17 1.0230747e-22 -1.457e-42 -0.32049853 -1.533e-42 1.1865937e-35 8.879171e-06
-0.1991302 0.35171902 -0.2897378 0.16166928 -2.9574436e-05 0.0031326308 -0.014723007 -0.014993086
0.020391779 0.03649634 -0.102749325 -0.0026932834 -0.61909986 0.0012122467 0.0020615482 -0.42619154
-0.2645337 -1.0800646e-10 6.710201e-12 -0.03781107 -0.087553665 0.050076764 0.005571812 -4.752703e-19
3.9492052e-11 -9.870046e-11 1.4205922e-16 -0.06560745 0.7170826 -1.4655417 -8.082646e-10 -0.06424924
0.5400608 -0.695788 -0.683335 0.49347308 1.7356012e-09 -0.0093988385 -0.00026537094 0.0044463305
-0.0043161395 -0.11348145 0.2974484 -0.0026368368 -3.4e-43 -0.0042847595 0.00029203054 0.38671446
-1.303403 1.3593602e-16 6.960671e-14 0.2622341 0.22431086 -0.0037890687 -0.097850464 -1.1703285e-25
-3.458e-42 1.5604746e-13 1.3295705e-23 -5.124479e-18 -3.6155477 -5.6004303e-09 1.1505117e-34 0.20175199
-0.25829488 0.2122836 -0.1376362 -0.576262 5.8663678e-05 -0.12352545 -7.511065e-05 -0.0139512485
-0.018405499 0.15168579 -0.19865291 0.0061863726 -0.77708924 0.0007181015 -0.003890633 -0.48283866
-0.21351506 1.6396362e-11 -1.2461923e-11 -0.11276711 0.10447694 -0.05606554 0.028061662 3.507935e-19
1.1268178e-12 1.35709464e-11 1.1253406e-17 0.02320829 0.9431342 -1.5177877 -4.6774456e-11 -0.09853924
2.691506e-13 -4.9352536e-15 4.725212e-13 -2.6058359e-14 3.618e-42 -6.8e-43 7.12e-43 5.93e-42
-2.539e-42 4.40194e-13 -3.01454e-15 4.08e-43 4.7900523e-14 4.528e-42 -2.004e-42 -1.04289434e-13
-2.0781772e-07 1.72e-42 4.8e-44 6.902804e-16 1.4540583e-14 7.0219e-41 -1.626e-42 1.258e-42
1.252113e-07 -3.0510833e-05 3.86e-42 4.137e-42 -0.00041575104 -8.9428495e-06 -9.4127275e-11 3.1320703e-14
00000000: 36df 5ebe 08da c8be 9099 cfbf ad00 123f
00000010: 0018 d237 7759 fdbc 2af7 ebbc e188 70bc
00000020: 6ae2 bcbb 0543 5f3e 7a64 383e 1402 27bc
00000030: 05f1 1c3f 8c44 06bb e45a c5bc 6de4 583c
00000040: 6ecd be3e 746b cc27 c2fb 7398 9376 ecbe
00000050: e8f2 0dbf 3623 ef3d 5511 0ebd f20d 4cac
00000060: 99a0 f1aa 4f73 f391 7700 0080 3bdf aebd
00000070: c845 10bd 3651 e93f 1a1c 26a2 698d e73c
00000080: f999 d3be d473 66be b39b 77be fdb9 e13d
00000090: b803 0000 3e02 0080 6c0e 0080 4600 0000
000000a0: e8bc ad1c 1254 653e bf03 02bd 8005 0000
000000b0: e723 a1be 9a04 0000 cc00 0080 0aa7 523e
000000c0: 994b cb3e 5708 0080 cc0e 0000 1fde c3be
000000d0: c467 15bf b185 0080 c60e 0080 0edf d639
000000e0: 5f0d 0000 8825 3bad 0fb1 f033 3e02 0080
000000f0: 2a35 cc3d 0390 243e e206 0000 d412 0000
00000100: 6917 1d3a 120b 0000 4c19 3eb0 64fd 76b0
00000110: 9706 0000 f406 0080 2c0e 0080 a79d 09ab
00000120: a59b d82e 6411 0080 b60a 0080 0058 c690
00000130: d8ec a429 b70c 0080 3300 0080 1392 ba38
00000140: f04c 18b7 3401 0000 72b6 1728 3503 0080
00000150: 4e1c 1c2d 3b3c 5c14 0006 0000 5804 0080
00000160: d205 0000 aa13 0000 d07e 87b8 a702 0000
00000170: e95d 82ba 84df 05af 360b 0080 c0f1 99b4
00000180: 5c1b fb3d f7e4 16bb a56c 002d d05a 51bd
00000190: cd99 01b5 6067 60bd cb0a 0080 ad61 3600
000001a0: e808 0080 3765 6fbd 7751 27b3 2475 5cbb
000001b0: f700 0000 b303 0000 84b4 babb 84b0 b73b
000001c0: 2cd1 00be bf78 9c9d e699 1929 e102 23bd
000001d0: c0b3 4db1 9eb2 7abc 2f0d 56b9 2c67 549c
000001e0: b009 0080 8a2c 9ca3 425d f71a 1004 0080
000001f0: 6218 a4be 4604 0080 4e5c 7c05 c0f7 1437
00000200: cae8 4bbe 8414 b43e 8358 94be a28c 253e
00000210: 9e16 f8b7 d34c 4d3b c438 71bc 90a5 75bc
00000220: a90c a73c 307d 153d 3d6e d2bd cc81 30bb
00000230: 547d 1ebf 40e4 9e3a 0a1b 073b c735 dabe
00000240: f670 87be 3b82 edae 1e18 ec2c c8df 1abd
00000250: 564f b3bd 4b1d 4d3d bf93 b63b 6946 0ca1
00000260: 19b0 2d2e 6b0b d9ae 7bc8 2325 335d 86bd
00000270: ba92 373f df96 bbbf 912c 5eb0 1b95 83bd
00000280: 6d41 0a3f 2a1f 32bf 0bef 2ebf 81a8 fc3e
00000290: 0a8a ee30 96fd 19bc 7c21 8bb9 86b2 913b
000002a0: 676e 8dbb f668 e8bd 284b 983e c8ce 2cbb
000002b0: f300 0080 2b67 8cbb ad1b 9939 70ff c53e
000002c0: e9d5 a6bf 3bb9 1c25 89bd 9c29 8c43 863e
000002d0: bfb1 653e 0652 78bb d365 c8bd 31e1 1096
000002e0: a409 0080 9eb1 2f2a 9296 8019 560f bda2
000002f0: 2265 67c0 e86d c0b1 e2ed 1807 1398 4e3e
00000300: 3a3f 84be df60 593e 81f0 0cbe e885 13bf
00000310: a50d 7638 e9fa fcbd b984 9db8 c793 64bc
00000320: 21c7 96bc 8553 1b3e ab6b 4bbe 0eb7 ca3b
00000330: 52ef 46bf fa3e 3c3a fdf9 7ebb a136 f7be
00000340: b1a3 5abe 5339 902d 833b 5bad 71f2 e6bd
00000350: 02f8 d53d fba4 65bd 92e1 e53c 6a12 cf20
00000360: e495 9e2b 1cbe 6e2d b596 4f23 501f be3c
00000370: 3e71 713f de46 c2bf 5bb7 4dae f1ce c9bd
00000380: b084 972a aecf b1a7 be00 052b 7cb6 eaa8
00000390: 160a 0000 e501 0080 fc01 0000 8810 0000
000003a0: 1407 0080 a4ce f72a 7338 59a7 2301 0000
000003b0: 8bb9 5729 9f0c 0000 9605 0080 c4d6 eaa9
000003c0: 8024 5fb4 cb04 0000 2200 0000 b4f5 4626
000003d0: 4df8 8228 bec3 0000 8804 0080 8203 0000
000003e0: d271 0634 84f1 ffb7 c30a 0000 880b 0000
000003f0: 29f9 d9b9 3f09 16b7 f2fc ceae 500e 0d29

2.bias f4 [32]
-0.038438503 0.04072883 -0.0023023058 -0.14263447 0.21024023 -0.007830424 0.23045893 -0.00058124744
-0.26315746 0.27188516 0.30896115 0.19848885 0.5464725 -5.7584157e-06 1.0509025 0.20617366
-0.063105494 -7.37607e-05 -0.059722293 -0.0001017069 0.16068992 -1.9706913e-07 -2.4026063e-16 -0.07557872
-0.3348639 0.25622407 -1.2985384e-18 0.110175736 0.21329385 -1.7324871e-25 0.24066943 -0.04166748
00000000: b171 1dbd 46d3 263d 48e2 16bb c50e 12be
00000010: 3749 573e 2e4b 00bc 6dfd 6b3e db5e 18ba
00000020: 93bc 86be 8834 8b3e 2830 9e3e a940 4b3e
00000030: 9fe5 0b3f 6a38 c1b6 f983 863f 301f 533e
00000040: 743d 81bd f9af 9ab8 5d9f 74bd 7a4b d5b8
00000050: e68b 243e f399 53b4 3680 8aa5 04c9 9abd
00000060: 4873 abbe cd2f 833e 65a1 bfa1 d1a3 e13d
00000070: b469 5a3e b578 5696 0c72 763e 85ab 2abd

4.weight f4 [32, 32]
-1.7668742 -0.06580523 -6.7284855e-06 -0.008606004 0.70852077 -1.2315174 0.35178667 -1.991079e-14
0.0018318768 0.22732452 0.25443232 0.254617 0.9370249 -5.390642e-08 -0.15083355 0.54557264
-0.040513314 -8.22366e-40 -0.03699988 -9.506134e-15 -1.8232882 -3.7419257e-13 1.4064003e-29 -0.00018551308
-2.2498178 -0.012142451 -8.7026904e-27 0.48333284 0.6863117 -1.509e-42 0.4510219 2.9959585e-06
0.777958 -0.44176245 2.3910384e-18 0.00018660119 0.37588885 3.31803 0.04186044 -4.3494125e-16
0.07007125 0.13917121 0.20180523 -0.14238676 -1.4453186 -3.920611e-16 0.3713471 0.43465453
0.35035568 -3.382222e-39 -0.0076825665 -1.962e-42 2.8070111 1.8593808e-17 -6.502e-42 -4.156e-42
-2.5173358e-37 -0.6798546 7.2570966e-28 0.6096205 0.25298026 7.197e-42 -0.19135931 -2.028e-42
0.9831833 -0.12434313 2.1414795e-05 0.054707758 -0.11785815 1.8545034 -0.40459818 -3.0761696e-14
0.09015336 0.15837418 0.37330946 0.14840835 0.26835927 1.854222e-08 0.08060575 0.32463247
0.17642772 1.8979186e-26 0.102313824 3.3537623e-10 2.6006746 1.213544e-08 -5.7501157e-28 1.0758797e-28
-0.36476782 0.90647167 2.0544684e-25 0.17206636 -0.118961036 4.334e-42 -0.00935906 -7.846767e-12
-1.9262716 -0.10238831 -1.2869255e-05 -0.011195087 0.71033764 -1.3077526 0.32661018 8.147041e-15
-0.035410423 0.19061102 0.25836936 0.26945925 0.7479725 -7.0367484e-08 -0.1376724 0.54816854
-0.051692624 -1.0949553e-38 -0.029967232 -9.5819653e-14 -1.7817171 -5.334824e-12 5.918305e-27 -0.0003799767
-2.8099873 0.031822324 1.04982965e-26 0.49067846 0.63659805 -2.276e-42 0.4299506 4.0729865e-06
-0.18991058 -0.21775712 -3.452154e-07 -0.011310881 1.1077075 -2.9418516 1.777834 -3.2750537e-16
0.009110926 1.0197281 1.5473764 0.6753365 0.39944065 7.79034e-09 3.218158 1.0218475
0.312825 -3.555331e-39 0.09743984 6.246185e-17 -2.6250613 -1.9606134e-14 1.2250623e-32 -2.3127225e-07
-0.329977 4.1802545 -8.744075e-28 1.2689681 1.0371091 -1.208e-42 1.4485471 1.4747084e-11
-1.6770774 -0.09762672 -1.02613985e-05 -0.006307775 0.7353719 -1.123683 0.38686645 -2.5674793e-14
0.0026264712 0.28977266 0.3948651 0.22813345 0.78565174 -5.4208147e-08 -0.15165661 0.58881694
-0.10358621 4.399996e-39 0.021966418 -5.7118256e-20 -1.8580507 -8.188379e-10 2.1215424e-30 -0.00086981046
-3.942877 0.08912884 -4.07337e-26 0.5372866 0.6404188 7.4664e-41 0.49417147 -3.3723734e-07
-0.22812818 0.3886129 -2.5450785e-08 0.000109344255 1.9437847 0.760519 1.3490963 -1.6816767e-14
-0.01969476 1.6382406 1.0280771 0.3913364 2.1920118 -5.80756e-10 1.4349493 1.9035417
0.12882094 8.203006e-39 0.053950783 -8.360261e-19 -0.4306215 -7.981645e-35 1.718e-42 -9.421565e-06
-1.253324 -2.2668 -5.5946216e-27 1.7522874 1.8167534 -3.315e-42 1.3956962 2.867308e-08
-1.647116 -0.07576899 -6.909748e-06 -0.0042948946 0.73219115 -1.0530099 0.34560084 2.2732525e-14
0.0061002714 0.28135085 0.3251896 0.24748224 0.75736195 -3.7290338e-08 -0.12788306 0.582996
-0.08538927 1.7070738e-38 0.017433686 -7.240755e-15 -1.8965898 -2.436052e-10 -4.0168868e-33 -0.0004581383
-3.6846287 0.024408147 -1.5698648e-26 0.530673 0.6567481 4.582e-42 0.41571042 2.3273252e-07
00000000: ef28 e2bf e4c4 86bd 40c5 e1b6 3200 0dbc
00000010: 9e61 353f 5da2 9dbf 621d b43e 2857 b3a8
00000020: 961b f03a c2c7 683e f444 823e 295d 823e
00000030: dde0 6f3f bc86 67b3 1c74 1abe a6aa 0b3f
00000040: 4af1 25bd 6cf4 0880 308d 17bd 4e3f 2ba8
00000050: 8261 e9bf d5a6 d2aa 3da0 8e0f 4a86 42b9
00000060: 04fd 0fc0 21f1 46bc e25f 2c94 6777 f73e
00000070: 20b2 2f3f 3504 0080 58ec e63e 2d0e 4936
00000080: 4128 473f b02e e2be 706d 3022 60aa 4339
00000090: 8174 c03e 9b5a 5440 da75 2b3d 00ba faa5
000000a0: 8481 8f3d e682 0e3e 08a6 4e3e d6cd 11be
000000b0: 3300 b9bf 0202 e2a5 3521 be3e 0a8b de3e
000000c0: d261 b33e 42d4 2480 0abe fbbb 7805 0080
000000d0: 12a6 3340 637f ab23 2012 0080 960b 0080
000000e0: 2d52 ab82 f30a 2ebf 90fc 6512 1710 1c3f
000000f0: a186 813e 1014 0000 b2f3 43be a705 0080
00000100: e7b1 7b3f 9ca7 febd eca3 b337 3e15 603d
00000110: 9d5f f1bd 5e60 ed3f 7e27 cfbe d289 0aa9
00000120: 53a2 b83d d72c 223e 6b22 bf3e 5cf8 173e
00000130: 6366 893e c646 9f32 a114 a53d 3a36 a63e
00000140: 78a9 343e f4f5 bb14 e989 d13d 0260 b82f
00000150: 7471 2640 3b7c 5032 7b3a 3692 4b62 0811
00000160: d9c2 babe 870e 683f b454 7e16 2a32 303e
00000170: d8a1 f3bd 150c 0000 be56 19bc b20a 0aad
00000180: 1190 f6bf f6b0 d1bd 08e9 57b7 996b 37bc
00000190: b0d8 353f 7064 a7bf 7339 a73e 98c3 1228
000001a0: 850a 11bd 892f 433e fd48 843e 90f6 893e
000001b0: 207b 3f3f ef1c 97b3 fef9 0cbe c654 0c3f
000001c0: a5bb 53bd e63a 7780 d77d f5bc 45c4 d7a9
000001d0: 4e0f e4bf d3b3 bbac be72 ea13 9c37 c7b9
000001e0: d5d6 33c0 2058 023d b0f0 4f14 353a fb3e
000001f0: 17f8 223f 5806 0080 7c22 dc3e b0aa 8836
00000200: eb77 42be b9fb 5ebe 0b56 b9b4 4651 39bc
00000210: 5cc9 8d3f 4c47 3cc0 1190 e33f 43cb bca5
00000220: fe45 153c 7386 823f 6e10 c63f dae2 2c3f
00000230: 7c83 cc3e 47d6 0532 4df6 4d40 e6cb 823f
00000240: 992a a03e d1b6 2680 8a8e c73d f806 9024
00000250: 0101 28c0 ab98 b0a8 7c6f 7e0a a253 78b4
00000260: bff2 a8be a5c4 8540 2f8e 8a92 8c6d a23f
00000270: febf 843f 5e03 0080 fe69 b93f 7bb7 812d
00000280: 79aa d6bf 85f0 c7bd 5f28 2cb7 74b1 cebb
00000290: 5541 3c3f d8d4 8fbf 5c13 c63e 0b42 e7a8
000002a0: e020 2c3b 155d 943e c22b ca3e d19b 693e
000002b0: 7920 493f 7dd2 68b3 df4b 1bbe b5bc 163f
000002c0: 0225 d4bd 66e9 2f00 ebf2 b33c dedd 869f
000002d0: 9bd4 edbf 9814 61b0 b61e 2c0e fe03 64ba
000002e0: 1958 7cc0 2e89 b63d 19b4 4995 9d8b 093f
000002f0: 7df2 233f 22d0 0000 0b04 fd3e 8c0d b5b4
00000300: 6f9a 69be 45f8 c63e de9e dab2 c04f e538
00000310: f0cd f83f 60b1 423f 30af ac3f d378 97a8
00000320: e856 a1bc deb1 d13f 0898 833f 3f5d c83e
00000330: ec49 0c40 12a3 1fb0 6bac b73f 41a7 f33f
00000340: a3e9 033e a552 5900 7ffb 5c3d 59c0 76a1
00000350: 6c7a dcbe 4330 d486 ca04 0000 5011 1eb7
00000360: ec6c a0bf 4013 11c0 34a0 dd93 f44a e03f
00000370: 608b e83f 3e09 0080 2ca6 b23f c54c f632
00000380: b2d4 d2bf c62c 9bbd 49da e7b6 30bc 8cbb
00000390: e170 3b3f 07c9 86bf 98f2 b03e a2c1 cc28
000003a0: c9e4 c73b 380d 903e 407f a63e fc6b 7d3e
000003b0: 79e2 413f 2929 20b3 c7f3 02be 3a3f 153f
000003c0: 92e0 aebd 46e2 b900 17d1 8e3c 1770 02a8
000003d0: 74c3 f2bf 62ec 85af deda a689 4832 f0b9
000003e0: f5d0 6bc0 98f3 c73c cd78 9b94 30da 073f
000003f0: a520 283f c60c 0000 ffd7 d43e 07e5 7934

4.bias f4 [32]
0.5085706 -0.73068106 -0.4008176 0.4187816 0.76346374 0.30029052 1.8622448 0.40850484
0.35102436 0.35119605 -0.08638952 0.5137033 0.6135987 -2.3461056e-05 0.4849753 0.4306032
0.55149937 0.37903517 0.3322734 0.32429734 0.31050584 -2.168425e-08 0.32445443 0.31145915
0.32693303 -0.104450226 0.72572094 0.42913228 -2.732194e-06 0.3692727 -0.06695328 -0.03133485
00000000: af31 023f ea0d 3bbf f737 cdbe 8b6a d63e
00000010: 5c72 433f aebf 993e 0a5e ee3f 8c27 d13e
00000020: 77b9 b33e f8cf b33e fdec b0bd 0f82 033f
00000030: ce14 1d3f 3cce c4b7 af4e f83e 0678 dc3e
00000040: 102f 0d3f e610 c23e bd1f aa3e 4d0a a63e
00000050: 9ffa 9e3e 2c44 bab2 e41e a63e 9377 9f3e
00000060: c463 a73e 00ea d5bd d9c8 393f 3ab7 db3e
00000070: bc5a 37b6 5011 bd3e cd1e 89bd f958 00bd

6.weight f4 [2, 32]
2.3095746 2.1904092 -5.9828305 2.4337137 -0.22315262 2.907675 2.1075723 2.7505178
2.2622905 2.7617822 -0.041241866 1.9096129 2.2989326 -3.179126e-13 1.9388952 2.2459936
2.1739519 2.670855 2.570053 2.5875669 2.7837088 -6.505631e-05 2.7125282 0.61964923
2.5828595 0.08941211 1.3143818 2.2821674 5.3063623e-06 2.760463 0.031933323 0.0144789135
1.9818406 -3.4503644 -1.1813302 2.1501374 2.007406 2.7582283 -0.08161095 2.5369263
2.2270877 2.6033292 0.055567946 2.057491 1.8630632 -2.0726947e-12 2.0203052 2.0110846
-6.577984 2.2348516 2.2146475 2.1819842 2.4650757 1.9440778e-05 2.3961067 0.39290428
2.250725 -0.05547348 2.1950057 2.1262498 -5.058422e-10 2.416918 -0.01832266 0.023150854
00000000: 12d0 1340 aa2f 0c40 5973 bfc0 f7c1 1b40
00000010: 1f82 64be 5917 3a40 77e2 0640 7c08 3040
00000020: 5ec9 1040 0ac1 3040 3bed 28bd 326e f43f
00000030: b621 1340 09f8 b2aa b82d f83f 5cbe 0f40
00000040: 0722 0b40 4aef 2a40 c07b 2440 b29a 2540
00000050: 4928 3240 d76e 88b8 109a 2d40 55a1 1e3f
00000060: 924d 2540 b21d b73d aa3d a83f 080f 1240
00000070: 4e0d b236 6dab 3040 84cc 023d f738 6d3c
00000080: f4ac fd3f c5d2 5cc0 d435 97bf da9b 0940
00000090: 5779 0040 d086 3040 a423 a7bd 005d 2240
000000a0: 9b88 0e40 f29c 2640 379b 633d efad 0340
000000b0: db78 ee3f 59da 11ac ae4c 0140 9cb5 0040
000000c0: d87e d2c0 cf07 0f40 c9bc 0d40 a1a5 0b40
000000d0: cdc3 1d40 c114 a337 d059 1940 c02a c93e
000000e0: e10b 1040 2938 63bd f97a 0c40 7a14 0840
000000f0: 7b0b 0bb0 c9ae 1a40 6719 96bc dca6 bd3c

6.bias f4 [2]
1.9284589 1.1766107
00000000: bed7 f63f 2e9b 963f
