model.pth (torch, 11599 bytes, 8 tensors)

0.weight f4 [32, 4]
000000 51 8f 92 3d 57 c6 a1 3e 3d da 48 be 59 24 1e 3e
       0.07156242 0.31596634 -0.19614501 0.15443553
000010 a9 f5 17 3d ce a1 a9 be c5 8b 77 3e a3 d2 95 bd
       0.037099514 -0.3313126 0.24174412 -0.073155664
000020 cb e2 de 3a 09 0d 60 bb cd aa 00 3a 5f 1d a6 bc
       0.0017004845 -0.0034187457 0.0004908264 -0.020277677
000030 ee 5b 9f 16 c2 da 53 98 16 a6 c8 8e a0 79 9e 97
       2.574585e-25 -2.7381555e-24 -4.946374e-30 -1.0241213e-24
000040 14 2e 31 be 8e 81 18 3e 11 ee 07 bf 61 5f a1 3d
       -0.17302734 0.14893171 -0.53097636 0.0787952
000050 c4 36 a4 3a 1d 24 e3 ba be f8 82 39 b6 58 c4 ba
       0.0012528528 -0.0017329488 0.0002498086 -0.0014980051
000060 c0 59 44 be e6 34 04 bf 46 5e a6 3f 37 a2 81 bd
       -0.19174862 -0.51643217 1.299752 -0.06329768
000070 b6 c2 17 87 2c 35 21 0c 17 0b 00 00 c5 6a 79 84
       -1.1417198e-34 1.241899e-31 3.978e-42 -2.9318835e-36
000080 2c f9 8b a1 d8 b9 e7 20 a1 d4 2b 9d 40 3f 1c 21
       -9.484962e-19 3.9255903e-19 -2.2741588e-21 5.2938567e-19
000090 99 e3 2e be 08 1e eb bd ea 94 f8 be 90 9c 32 3e
       -0.17079009 -0.114803374 -0.48551112 0.17442536
0000a0 75 30 59 b0 4a 41 05 30 86 65 5c 30 b6 8d c8 30
       -7.9013e-10 4.84779e-10 8.017981e-10 1.4592192e-09
0000b0 82 38 4c bc 6e 3c 1a 3d b9 b1 78 bd c7 39 06 3d
       -0.012464644 0.037655286 -0.060716365 0.032769945
0000c0 6e ab 0b 26 52 0f 1a a5 3d 27 63 a2 56 e8 ad a4
       4.8457643e-16 -1.3362561e-16 -3.078501e-18 -7.542038e-17
0000d0 c4 42 d1 be f0 6e aa bf e9 c8 c0 bf a0 5a 7a bf
       -0.4087125 -1.3315105 -1.5061313 -0.9779453
0000e0 61 86 bd 29 e5 09 76 2a 34 b1 cf a8 b2 a7 21 2a
       8.416597e-14 2.1852622e-13 -2.3058466e-14 1.4357854e-13
0000f0 84 1f 1e 3b cf 42 fb 39 7f 4d 37 3a 3b 7c 96 ba
       0.0024127671 0.00047924227 0.0006992444 -0.0011481115
000100 ad 69 04 3c 55 eb dc 3b b2 d5 2e 3e 34 00 08 3c
       0.008081836 0.006741921 0.17073706 0.00830083
000110 04 d1 59 be 16 d2 fc bc 80 23 ec be 82 04 07 bd
       -0.2127114 -0.030861896 -0.46120834 -0.032963283
000120 89 b2 10 34 ee 7a d5 b3 dd 34 e6 30 6e 4b 3a b3
       1.3475996e-07 -9.940946e-08 1.6749727e-09 -4.3375103e-08
000130 a5 bc e5 bb a2 83 6a bb 0c 4f a4 ba 35 b3 00 bb
       -0.0070110136 -0.0035784026 -0.0012535765 -0.0019638066
000140 dd 8f 73 bb f7 ca d9 bc 3b 9c 28 be 10 20 77 bc
       -0.0037164607 -0.026586039 -0.16465847 -0.015083328
000150 c4 a4 21 bf 31 11 20 bf be cb b2 bf e7 70 0c bf
       -0.6314204 -0.6252623 -1.3968427 -0.54859775
000160 ca eb b3 3d 7f a3 56 3d bb a7 38 3f b3 61 61 3e
       0.087852076 0.052402016 0.72130936 0.22009926
000170 e2 c1 9e 3d 01 87 2d 3e ea c5 d2 bd 3a a3 99 3d
       0.07751824 0.16946031 -0.10291655 0.07501836
000180 e3 59 8d ba 38 53 89 ba 71 77 88 b9 76 e5 0b bb
       -0.0010784235 -0.0010477072 -0.00026028932 -0.0021346486
000190 90 65 22 1b c0 d7 2d 1b 58 0b 00 80 81 64 84 92
       1.3433143e-22 1.4379937e-22 -4.07e-42 -8.355147e-28
0001a0 0c 4b 45 19 81 a1 32 9a 3c 92 b5 02 84 6f 24 95
       1.0199817e-23 -3.694e-23 2.6679494e-37 -3.3207507e-26
0001b0 45 f3 c0 39 74 57 cf b9 f5 dd 90 3a cb 06 a1 38
       0.00036802344 -0.00039547274 0.0011052476 7.6783435e-05
0001c0 5b 9e 47 3d 74 53 90 3d d6 b0 c7 3f 6d a8 aa 3e
       0.048735004 0.070471674 1.5600841 0.33331624
0001d0 86 2c 14 b9 46 d0 ae 38 a6 7f 9c b8 f7 ed 89 37
       -0.00014130966 8.3357605e-05 -7.462436e-05 1.6442484e-05
0001e0 fe 97 c3 3b d6 9d c7 be 50 45 80 bf b1 03 10 be
       0.0059690466 -0.38987607 -1.0021152 -0.14063908
0001f0 5c c4 b7 37 52 37 ed b7 4e 6a a7 36 52 83 e3 b6
       2.1906737e-05 -2.8278362e-05 4.9893633e-06 -6.780415e-06

0.bias f4 [32]
000000 e5 e0 88 bd 2c d5 14 3f 08 08 10 be 17 e3 a5 99
       -0.0668352 0.58137774 -0.14065564 -1.7152321e-23
000010 6b aa ad 3e 9e 76 8d bb 48 87 96 be 05 19 b4 8e
       0.3391908 -0.004317119 -0.29400086 -4.439752e-30
000020 bd 80 d0 a2 3b db f2 3e 04 5d 57 b2 19 c8 dc bd
       -5.651482e-18 0.47432885 -1.2535796e-08 -0.10780353
000030 4f 0e 2d a7 51 52 9a be 01 4b bb ab ee 2d bb bc
       -2.401633e-15 -0.30140927 -1.3307967e-12 -0.02284905
000040 46 b9 d5 bd 4d 89 0d 3f 9c 22 bf b5 ce 25 22 bd
       -0.10435729 0.5528763 -1.4240682e-06 -0.039586835
000050 ec 19 1f be a4 2d b2 be e9 21 cc bb c9 b6 29 be
       -0.15537232 -0.34800446 -0.0062296283 -0.16573633
000060 a7 ce 47 bc 99 bc bb 9d ba 8f a7 9d fe ad 10 bb
       -0.012195266 -4.9693493e-21 -4.435314e-21 -0.0022076364
000070 40 29 ee 3d 51 b0 c2 b9 e9 34 f2 3e eb 1c e6 b8
       0.116289616 -0.0003713393 0.47305992 -0.00010972641

2.weight f4 [32, 32]
000000 1b 03 32 9c c8 02 00 00 12 03 00 80 94 00 00 80
       -5.8899273e-22 9.98e-43 -1.101e-42 -2.07e-43
000010 68 47 00 9f 01 00 00 80 fb 03 00 00 e8 01 03 b3
       -2.716412e-20 -1e-45 1.428e-42 -3.0502548e-08
000020 d3 37 62 39 0a 04 00 80 54 05 00 00 ec 02 00 80
       0.00021573836 -1.449e-42 1.911e-42 -1.048e-42
000030 62 51 2c af df 92 7a a2 46 57 1d 3a 19 14 00 80
       -1.5672222e-10 -3.395907e-18 0.00060020795 -7.21e-42
000040 a0 12 00 00 2d 01 2f a4 a1 06 00 80 a8 0f 00 80
       6.681e-42 -3.7948072e-17 -2.378e-42 -5.616e-42
000050 fb 07 00 00 8f 00 00 00 36 30 94 09 43 4f a1 91
       2.863e-42 2e-43 3.567504e-33 -2.545017e-28
000060 54 10 00 80 69 0a 00 80 6e 03 00 80 47 02 00 80
       -5.857e-42 -3.734e-42 -1.23e-42 -8.17e-43
000070 62 d5 92 9e ce 07 1c 00 88 c7 d3 a3 81 07 00 80
       -1.5546604e-20 2.574194e-39 -2.296117e-17 -2.692e-42
000080 4b be ba ba c8 00 00 80 d7 0e 00 00 b1 08 00 80
       -0.0014247386 -2.8e-43 5.324e-42 -3.118e-42
000090 5e ad 90 3c 65 13 63 37 a2 0a 00 80 c0 0c 00 00
       0.017660793 1.353477e-05 -3.814e-42 4.574e-42
0000a0 1e 01 00 80 1c 06 00 80 48 fb 73 27 c8 04 00 00
       -4.01e-43 -2.192e-42 3.3859244e-15 1.715e-42
0000b0 75 02 00 80 b9 dd 00 3c ea 04 00 00 ab 08 00 80
       -8.81e-43 0.007865363 1.763e-42 -3.11e-42
0000c0 f1 ba 29 3c db 80 21 bd 35 01 00 80 a1 03 00 00
       0.010359512 -0.039429527 -4.33e-43 1.302e-42
0000d0 f6 ba 1e b5 78 63 b6 b6 b1 32 b4 3b ed 38 18 3c
       -5.913165e-07 -5.4356024e-06 0.005499207 0.009290916
0000e0 4f 06 00 00 df 08 00 00 a4 0c 00 80 47 7c 34 37
       2.263e-42 3.182e-42 -4.535e-42 1.0757772e-05
0000f0 3c 2b e1 ba 17 67 49 b2 40 51 c5 3a 2b 31 98 af
       -0.0017179023 -1.172318e-08 0.0015054122 -2.7683575e-10
000100 ef 02 fe aa e7 c9 af b7 17 04 00 80 3a 04 00 00
       -4.51215e-13 -2.0955644e-05 -1.467e-42 1.516e-42
000110 c3 97 9d b7 94 06 00 80 20 04 00 00 8f 0c 00 80
       -1.8786528e-05 -2.36e-42 1.48e-42 -4.505e-42
000120 01 12 00 00 19 b8 aa b7 e3 02 00 80 ab 01 00 80
       6.459e-42 -2.0351306e-05 -1.036e-42 -5.98e-43
000130 4d 01 00 00 ca 34 b6 b7 75 08 00 80 4d 06 00 80
       4.67e-43 -2.1720673e-05 -3.034e-42 -2.26e-42
000140 84 a7 00 80 37 ff d8 b7 99 08 00 00 e2 04 00 00
       -6.0093e-41 -2.586805e-05 3.084e-42 1.752e-42
000150 4a 01 00 00 54 c2 d7 b7 98 8c 61 b8 88 3f ea b7
       4.62e-43 -2.5720488e-05 -5.377512e-05 -2.7924558e-05
000160 73 0e 00 00 a7 0c 00 80 e4 03 00 00 60 0a 00 00
       5.183e-42 -4.539e-42 1.396e-42 3.722e-42
000170 11 ac 07 b8 52 01 00 80 fd 32 16 b8 b3 03 00 80
       -3.2346758e-05 -4.74e-43 -3.5810273e-05 -1.327e-42
000180 8b ab 39 3e af 43 4d 3d 4a 05 00 80 61 0b 00 80
       0.18131845 0.050113376 -1.897e-42 -4.082e-42
000190 d0 f4 01 bf 59 08 00 00 a0 0a 00 00 b2 04 00 00
       -0.5076418 2.995e-42 3.812e-42 1.684e-42
0001a0 fa 01 00 00 57 de 79 be 23 05 00 80 55 85 a8 bc
       7.09e-43 -0.24401222 -1.843e-42 -0.02057139
0001b0 6c 05 00 80 ea f7 bf be 7f 06 00 80 0e a2 1a bb
       -1.945e-42 -0.3749383 -2.33e-42 -0.0023595127
0001c0 f2 31 8a 3a bc 5d c4 bd fd 47 13 a2 f8 06 17 b7
       0.0010543449 -0.09588191 -1.9960325e-18 -9.001924e-06
0001d0 d1 9e c3 8a 52 d0 e5 3d 11 85 74 bf b5 ac 33 bd
       -1.8837557e-32 0.112213746 -0.95515543 -0.043865878
0001e0 d7 0e 92 b8 33 00 00 80 f9 10 00 00 99 0f 00 80
       -6.964587e-05 -7.1e-44 6.089e-42 -5.595e-42
0001f0 8b 82 11 bf 4d 0f 00 80 d6 a0 7c be f6 08 00 80
       -0.5683982 -5.489e-42 -0.24670729 -3.215e-42
000200 99 0d 1e bf 14 4f 64 3e f3 31 07 39 ec bc be 03
       -0.617395 0.22295791 0.00012893211 1.1210571e-36
000210 b4 b1 99 be 34 09 47 39 8f e9 59 be 64 02 00 80
       -0.3001839 0.00018981547 -0.21280502 -8.58e-43
000220 67 77 2a a2 3d 2c 85 3d 28 43 1d 28 58 04 00 80
       -2.3102507e-18 0.065025784 8.729813e-15 -1.558e-42
000230 38 23 98 a1 7a dd ea be 11 14 52 95 b8 66 31 b1
       -1.0309243e-18 -0.45872098 -4.2424992e-26 -2.5815279e-09
000240 19 15 87 3e 4b 70 af be 00 cd 2f 2a 9b 43 01 3b
       0.26383284 -0.3426536 1.5614246e-13 0.0019724134
000250 69 bd 96 bb 77 72 11 3d 18 0e c7 3e b0 dc 4d bf
       -0.004600216 0.035509553 0.3887794 -0.8041487
000260 6d 32 05 90 75 05 00 00 ba 8d be 8c 35 0f d7 38
       -2.6268472e-29 1.958e-42 -2.9359434e-31 0.000102548314
000270 84 eb 04 3f 8c 50 e9 b7 9e ec 84 be 2e 26 00 b5
       0.5192187 -2.7813272e-05 -0.25961775 -4.7739275e-07
000280 46 6e 61 be c0 c0 95 3e 2b cc 59 ba 66 84 0c 96
       -0.22014722 0.2924862 -0.00083083165 -1.1350888e-25
000290 45 81 83 3e 14 09 66 b8 a3 1b 5a be 8d 01 00 00
       0.25684562 -5.4844728e-05 -0.21299605 5.56e-43
0002a0 80 47 4a a1 81 c5 ca 3d b0 51 ab aa 3c 1b 42 bc
       -6.853489e-19 0.09900952 -3.0432384e-13 -0.0118473135
0002b0 e3 bb 71 a4 22 87 09 3e 2d f6 53 a3 9b 22 97 3a
       -5.241769e-17 0.13430455 -1.1490463e-17 0.0011530699
0002c0 c2 61 e5 bd ab fc 87 3e cd da ed b1 a8 45 50 bb
       -0.112002864 0.26559958 -6.9224826e-09 -0.00317798
0002d0 58 4f 42 bd e4 8f 90 3e dd c0 ce be 68 84 29 be
       -0.04743895 0.2823478 -0.40381518 -0.16554415
0002e0 49 b2 5b ba 57 30 00 80 47 20 7c 1c 4a 55 f1 b8
       -0.00083807536 -1.7341e-41 8.3421523e-22 -0.00011507662
0002f0 2f 96 9b be be 98 7d 36 de 4b 57 3e 2c eb 24 36
       -0.30388018 3.7788845e-06 0.21025035 2.4574792e-06
000300 be 0e 00 80 09 00 00 80 6f 05 00 80 f3 02 00 80
       -5.289e-42 -1.3e-44 -1.949e-42 -1.058e-42
000310 25 0c 00 80 67 12 00 80 fd 04 00 00 d4 00 00 00
       -4.357e-42 -6.602e-42 1.79e-42 2.97e-43
000320 28 8f 1d 36 0c 0a 00 00 22 06 00 00 92 04 00 80
       2.347815e-06 3.604e-42 2.2e-42 -1.64e-42
000330 b7 07 00 00 9b 41 8b 80 0e 07 00 80 ff 00 00 00
       2.768e-42 -1.2788669e-38 -2.531e-42 3.57e-43
000340 3a 06 00 00 03 25 50 9f 01 07 00 00 f2 06 00 00
       2.234e-42 -4.407633e-20 2.513e-42 2.492e-42
000350 06 06 00 00 71 05 00 80 1e d8 a9 8c 84 0d 00 80
       2.161e-42 -1.952e-42 -2.6168644e-31 -4.848e-42
000360 fd 04 00 00 58 02 00 00 00 01 00 80 94 0c 00 80
       1.79e-42 8.41e-43 -3.59e-43 -4.512e-42
000370 57 69 9c a0 fa 01 00 00 85 9a f8 a4 91 00 00 80
       -2.6497136e-19 7.09e-43 -1.0781462e-16 -2.03e-43
000380 0f b2 ff bd 25 76 a5 3e 26 34 9a ba b7 96 de 95
       -0.12485134 0.323167 -0.0011764809 -8.990287e-26
000390 f0 fb 92 3e 7c 3c 35 b8 d8 8c 5a be 73 01 00 00
       0.28707838 -4.3210093e-05 -0.2134279 5.2e-43
0003a0 6c d6 7f a0 56 7a ea 3d 34 7d c3 aa 1b 11 4b bc
       -2.1670286e-19 0.11449115 -3.4725835e-13 -0.012394215
0003b0 cd 54 f8 a3 ef a9 55 3d d1 2f d3 a2 9b b5 92 3a
       -2.6924128e-17 0.052164014 -5.7242292e-18 0.0011193039
0003c0 e6 89 e1 bd 2d 47 8b 3e 03 db ea b1 e1 57 53 bb
       -0.1101263 0.2720274 -6.835195e-09 -0.0032248425
0003d0 f7 b4 54 bd 42 4d 8e 3e 9f 03 be be 11 b9 19 be
       -0.051930394 0.27793318 -0.37112138 -0.15012003
0003e0 6b ff 64 ba 2d 06 00 80 7e 40 87 1c bb 00 f6 b8
       -0.000873557 -2.215e-42 8.950221e-22 -0.0001173033
0003f0 f7 a9 2d be 3b 17 4d b6 32 09 3d 3e 1d 1c 81 35
       -0.16959368 -3.0560902e-06 0.18460539 9.619431e-07

2.bias f4 [32]
000000 c8 d7 24 a6 b3 07 4d bd d1 7d 63 b8 0c 2b 0c 3c
       -5.719137e-16 -0.05005617 -5.4238193e-05 0.008555185
000010 b0 27 a0 be 92 33 ae 3e 9e 76 d3 aa 61 04 9c 3e
       -0.3128028 0.3402372 -3.7563437e-13 0.3047209
000020 36 6e df 3e 4e 76 03 b6 45 2c 03 b8 40 3f ab 3e
       0.43638772 -1.9589384e-06 -3.1274063e-05 0.33446693
000030 44 b1 af 3e db b0 ab 3e 10 cd a9 3e 24 0e 49 b3
       0.3431493 0.33533368 0.33164263 -4.681182e-08
000040 11 b3 8d 3e 61 0c 31 be 18 db a6 3e 04 31 a8 3e
       0.2767568 -0.17289878 0.3258903 0.32849896
000050 3c 2f d2 3e 6c 9b 9c bd 39 34 19 bf 6c 54 5a be
       0.41051662 -0.07646832 -0.5984531 -0.21321267
000060 76 39 1b be 53 70 c0 3e 37 2b ad 3e f9 a2 b3 3e
       -0.15158638 0.37585697 0.33822033 0.35085276
000070 51 03 a9 bc a6 ea ac b2 f5 8d ab 3e e6 66 72 a5
       -0.020631464 -2.0130141e-08 0.33506742 -2.1025017e-16

4.weight f4 [32, 32]
000000 48 a7 9f a1 b0 e5 c3 b8 52 d6 20 b6 8f c8 84 be
       -1.0818538e-18 -9.341107e-05 -2.3966609e-06 -0.25934264
000010 69 18 b1 bf cb ef 8b 3e c0 66 9c a3 45 82 ad 3e
       -1.3835574 0.27331385 -1.695707e-17 0.3388845
000020 57 ec 18 3f 4e 2f 4b ae 1d b6 9a b6 33 e3 83 3e
       0.59735626 -4.619887e-11 -4.6107584e-06 0.25759277
000030 55 4e 84 3e c3 ca 92 3e 2b 96 b8 3e 8c 23 8f 27
       0.25841013 0.2867032 0.3605207 3.9729013e-15
000040 25 f1 75 3e 5b cc 0d bf 2a 7a 8b 3e 9a fb c9 3e
       0.2401777 -0.55389947 0.2724164 0.3944977
000050 f4 32 f1 3e 66 e1 2e 3f 25 18 97 bf 20 35 b0 be
       0.47109187 0.6831268 -1.1804243 -0.3441553
000060 9a a9 88 bb be 06 c8 bf 55 5d 48 3e 52 bb 9b 3e
       -0.0041706087 -1.5627058 0.19566853 0.30416352
000070 9e 35 02 37 e4 ae cd 9b b8 03 c2 3e 97 04 dc 20
       7.7610875e-06 -3.4027426e-22 0.37893462 3.7272487e-19
000080 3c a4 38 22 15 d7 d2 b8 86 15 3e b6 ef fc a0 be
       2.5023595e-18 -0.000100536425 -2.8324735e-06 -0.31442973
000090 a8 cd c3 bf bb 21 14 3e 86 01 15 a8 1b fd 32 3e
       -1.5297136 0.14465992 -8.271492e-15 0.17479365
0000a0 ed bf 19 3f 55 0e 00 ae 13 48 a8 b6 4a 5e 2c 3e
       0.6005848 -2.911656e-11 -5.0151807e-06 0.16832843
0000b0 fb 7d 0b 3e 96 d3 2e 3e a5 9e 5e 3e 16 9a 94 a5
       0.13622276 0.17072901 0.21740206 -2.577832e-16
0000c0 78 32 57 3d cf b4 23 bf f2 95 06 3e 52 89 65 3e
       0.052538365 -0.63947767 0.13143137 0.22415665
0000d0 33 4d 94 3e 28 93 3e 3d 75 4b cc bf bb f4 2d bf
       0.28965148 0.046527058 -1.5960528 -0.67951554
0000e0 be 57 8e 3c 80 b1 12 bf 01 43 2c 3d ca 68 30 3e
       0.017375823 -0.57302094 0.042056087 0.17227474
0000f0 fa fc 4a 37 e0 1e 3b a2 e7 4d 5d 3e 8b 0a 01 21
       1.2099039e-05 -2.535957e-18 0.21611749 4.3720854e-19
000100 c9 aa 22 82 c7 c7 b8 2f 58 a5 9d a7 fa 98 56 3e
       -1.1950893e-37 3.3611355e-10 -4.375552e-15 0.20956793
000110 6a 3c 02 bf 2a ba 69 3f 98 0b 00 80 8c 1d 8b 3f
       -0.50873435 0.9129969 -4.159e-42 1.0868392
000120 67 3f 68 3f 84 1c 90 aa 91 f2 9f b5 13 51 80 3f
       0.90721744 -2.5599325e-13 -1.1917019e-06 1.0024742
000130 78 79 61 3f cb 1b 71 3f 39 ea 75 3f 62 db 44 27
       0.8807597 0.94183034 0.9606052 2.7319392e-15
000140 b0 80 8d 3f 66 1b 56 be 14 be 80 3f 0d 6d 87 3f
       1.1054897 -0.20908889 1.0058007 1.0580155
000150 75 ce 88 3f 66 01 4a 40 51 8d ea bc bc f0 97 3f
       1.0688006 3.1563354 -0.028631838 1.1870341
000160 5d e4 b0 bd e7 d3 a1 bf e2 e7 82 3f 12 56 83 3f
       -0.08637307 -1.2642792 1.0227015 1.0260642
000170 3f 38 32 2e 49 04 00 00 0b 16 85 3f 7f 27 96 10
       4.052247e-11 1.537e-42 1.0397352 5.922542e-29
000180 94 18 1e 21 de 2e 27 b5 de e7 cd b3 98 f3 65 be
       5.356501e-19 -6.228055e-07 -9.588233e-08 -0.22456205
000190 96 be c2 bf fb 48 82 3e 4b e3 95 a3 77 50 83 3e
       -1.5214412 0.25446305 -1.6250875e-17 0.25647327
0001a0 cf 08 17 3f 31 94 00 ad 31 61 94 b6 e2 fd 89 3e
       0.58997816 -7.308863e-12 -4.4220583e-06 0.2695151
0001b0 74 a0 7c 3e 2c 3f 86 3e 34 f9 a5 3e 9c c8 c3 a6
       0.24670583 0.2622007 0.3241669 -1.3585218e-15
0001c0 33 e8 fe 3d 86 8b 00 bf a2 68 67 3e cd 53 9a 3e
       0.12446632 -0.50212896 0.22598508 0.3014206
0001d0 78 6b c5 3e 12 c1 23 be 8f 39 f6 bf f6 e9 5a bf
       0.38558555 -0.15991619 -1.9236315 -0.85513246
0001e0 a0 36 12 3d 95 e2 26 3d 23 a9 57 3e 75 fb 81 3e
       0.035696626 0.04074343 0.21060614 0.2538716
0001f0 b7 b4 d1 35 45 6a e9 a0 4a ca 98 3e 5c a2 c5 20
       1.5624308e-06 -3.9542059e-19 0.29841834 3.3480539e-19
000200 20 a3 11 21 e8 96 4d b9 54 81 48 b6 48 67 9c be
       4.9343805e-19 -0.0001960654 -2.9877601e-06 -0.30547547
000210 3d 2c c4 bf 10 f9 c3 3d 40 27 80 a7 5c 54 24 3e
       -1.5326 0.09568989 -3.556969e-15 0.16047806
000220 1b 60 14 3f a4 36 37 ae c7 f0 a6 b6 de 57 07 3e
       0.57959145 -4.1657913e-11 -4.9752157e-06 0.13217112
000230 9b 6f a7 3d a1 b7 08 3e b5 a5 40 3e c0 5e d1 24
       0.08175584 0.13351299 0.18813212 9.0799814e-17
000240 b4 80 73 3d 0d 5c 1e bf 1f 6c b1 3d 95 38 5c 3e
       0.059448913 -0.6185921 0.086632006 0.2150596
000250 8f ea 89 3e 4d be 26 3e d0 e7 c7 bf 78 b4 15 bf
       0.26936767 0.16283531 -1.5617619 -0.584785
000260 55 50 98 3a 93 be 5a bf b5 fa 0a 3b 31 4b 09 3e
       0.001162062 -0.85447043 0.0021206562 0.1340759
000270 2c bc 51 37 36 2d bf a0 8f 39 4b 3e 8c 55 f9 20
       1.2501183e-05 -3.2386577e-19 0.19846176 4.223885e-19
000280 96 03 00 80 cd 09 00 80 b3 99 28 83 84 7c 25 3d
       -1.286e-42 -3.516e-42 -4.95472e-37 0.04040195
000290 ac 9a cc 3b a1 bc 9f 3d 2b 00 00 00 16 15 40 3e
       0.0062440243 0.0779965 6e-44 0.18758044
0002a0 c4 48 23 be 9d 02 00 00 92 9e 4b 30 ba a4 fb 3d
       -0.15945727 9.37e-43 7.407631e-10 0.122872785
0002b0 d7 3d b5 3d 49 32 c8 3d 1d 91 18 3e 49 46 64 27
       0.08849686 0.09775216 0.14899106 3.1679458e-15
0002c0 c8 9f b5 3d 75 15 7a 3c 07 e4 d5 3d 4d 26 37 3e
       0.088683665 0.015263905 0.104438834 0.17885704
0002d0 7e 73 21 3e f5 3d 8a 3f b5 db 94 3e 96 8a c4 3f
       0.15766713 1.0800158 0.29073873 1.5354793
0002e0 2a a0 c9 bd fd bd d3 3d 46 09 aa 3d 36 16 af 3d
       -0.09845002 0.10338972 0.0830255 0.08549158
0002f0 97 49 4a 16 32 01 00 00 e4 ff 27 3e 30 08 00 80
       1.6340651e-25 4.29e-43 0.16406208 -2.937e-42
000300 c8 07 00 00 a4 54 e5 ac 9f 01 00 80 92 c5 27 3f
       2.791e-42 -6.5179685e-12 -5.82e-43 0.65535843
000310 c0 cf 2d bf 82 d2 84 3f 46 05 00 80 04 a1 69 3f
       -0.67895126 1.0376742 -1.892e-42 0.91261315
000320 6e 0e b8 3f 7a 06 00 80 6a d3 20 af 14 a7 81 3f
       1.4379404 -2.323e-42 -1.4627025e-10 1.0129113
000330 8f 05 82 3f 2e c5 84 3f 61 bd 7c 3f 2c e8 c9 25
       1.0157946 1.0372674 0.9872647 3.5025268e-16
000340 70 37 88 3f 20 89 eb 3c 36 79 88 3f 53 dc 6f 3f
       1.0641918 0.02875191 1.0661991 0.93695563
000350 89 0f 76 3f 08 13 7a bf 3d 25 af bf ed 57 54 bf
       0.96117455 -0.9768529 -1.3683239 -0.82946664
000360 79 1e 23 3e f8 be 18 40 dd d5 6d 3f f9 46 85 3f
       0.15929593 2.3866558 0.92904454 1.0412284
000370 36 e6 11 ab d6 39 b4 17 89 9f 78 3f 74 05 00 00
       -5.183383e-13 1.1646827e-24 0.9711843 1.956e-42
000380 b6 0d 00 80 92 06 00 80 de 03 00 00 0e 0c 00 00
       -4.919e-42 -2.357e-42 1.387e-42 4.324e-42
000390 29 d8 0f 22 4b 82 59 bc 49 01 00 00 57 72 5b bc
       1.9494548e-18 -0.013275693 4.61e-43 -0.01339396
0003a0 b6 16 f1 bc e2 0f 00 80 b8 3c 46 2c ed b5 56 bc
       -0.029429775 -5.698e-42 2.8171198e-12 -0.013104898
0003b0 cf 45 4b bc 2e 6b 60 bc 63 93 57 bc a8 f3 71 25
       -0.01240678 -0.013697429 -0.013157698 2.0985972e-16
0003c0 25 99 72 bc 36 0c 00 80 ca 36 64 bc 04 28 73 bc
       -0.01480702 -4.38e-42 -0.013929078 -0.014841083
0003d0 a5 3f 96 bc f1 17 fd ae 47 91 50 22 4d 5c 30 b7
       -0.018340895 -1.1509361e-10 2.8266166e-18 -1.0511908e-05
0003e0 79 04 00 00 54 86 e5 95 5e f5 55 bc 8a 20 72 bc
       1.604e-42 -9.2704296e-26 -0.013058988 -0.014778266
0003f0 75 12 00 80 3d 0f 00 00 8c 06 6e bc 4a 06 00 00
       -6.621e-42 5.466e-42 -0.014527928 2.256e-42

4.bias f4 [32]
000000 2f 8b 08 3f de 9c 72 3e d7 f5 a8 3f 44 1f a6 3e
       0.5333738 0.23692653 1.3200024 0.3244573
000010 90 3b 81 3e 92 83 d3 3e fc e0 61 3f 18 fe 2c bd
       0.25240755 0.41311318 0.88233924 -0.04223451
000020 56 08 7f 3e 92 0e 82 3e ad 77 81 3e 32 7e 84 a6
       0.24905524 0.2540174 0.25286618 -9.193545e-16
000030 44 bb 01 ba a5 aa 52 b7 ef 47 c4 3e ae a7 d1 3c
       -0.0004948864 -1.2556707e-05 0.3833613 0.025592651
000040 4b cd 1e b7 1f a1 16 3e b2 82 84 3e 39 10 fc bb
       -9.465332e-06 0.147099 0.25880963 -0.0076923636
000050 43 c2 84 3e f6 24 85 3e d1 b0 83 3e a7 41 88 3e
       0.2592946 0.2600476 0.25720838 0.2661259
000060 fc 1c 79 3e 53 c6 7c 3e d2 0e 82 3e f3 c0 02 be
       0.24327463 0.2468503 0.25401932 -0.12768917
000070 e6 eb 93 3e 3f 27 28 bb a7 df 94 be d0 a7 97 3e
       0.28890914 -0.0025658158 -0.29076883 0.29620218

6.weight f4 [2, 32]
000000 24 58 ce 3f a6 e8 01 40 ce 55 b2 3e 4e 5f f3 3f
       1.6120648 2.0298247 0.3483109 1.901346
000010 d4 22 f5 3f 53 43 03 bf 5e 02 a2 3f 7b a0 27 3c
       1.9151254 -0.51274604 1.2656972 0.010231133
000020 61 92 05 40 c9 04 01 40 ed 6f 05 40 86 1d 4c ba
       2.0870593 2.015917 2.0849564 -0.0007786382
000030 b5 1f f1 b9 e8 aa c0 b6 83 93 f2 3f 7a ad 5d 3f
       -0.00045990726 -5.741942e-06 1.8951267 0.8659283
000040 c7 22 81 bd 7e bf 4e 3f a4 7b 04 40 3c f2 51 bd
       -0.063054614 0.80760944 2.0700464 -0.051256403
000050 35 93 04 40 33 3f 07 40 a5 14 06 40 38 36 05 40
       2.0714848 2.1132324 2.09501 2.0814342
000060 20 82 f8 3f 9e 17 fe 3f 20 c0 05 40 84 dc d0 bd
       1.9414711 1.9850957 2.0898514 -0.1019831
000070 7c 96 e7 3f 4e 5c cb bc a4 0a 49 3e 4d 41 e6 3f
       1.8092799 -0.024824288 0.19632965 1.7988678
000080 aa 13 07 40 d5 e8 ef 3f 4b b8 c1 3f 1d 37 bc 3f
       2.1105752 1.874293 1.5134367 1.4704319
000090 66 29 ff 3f 54 36 02 3f ed 8f 49 3e 5e 87 08 3d
       1.9934509 0.5086415 0.1968381 0.03333222
0000a0 ba 04 e2 3f df 2d f1 3f 27 6a e2 3f 4c 30 84 ba
       1.7657692 1.8842124 1.7688645 -0.0010085194
0000b0 e0 60 b6 38 36 9c 40 bc 16 37 b0 3f f2 4d 59 bf
       8.696481e-05 -0.011755994 1.3766811 -0.8488456
0000c0 97 92 56 bd d2 91 ac bf 05 cc dc 3f bd 19 78 bc
       -0.052385893 -1.3482001 1.7249762 -0.015142855
0000d0 48 7c db 3f 7b 0b de 3f 62 d6 dc 3f 3b 05 e1 3f
       1.7147303 1.7347254 1.7252924 1.7579721
0000e0 ee bd fc 3f ca 56 f4 3f 3e ba dd 3f 60 21 15 be
       1.9745462 1.9088986 1.7322462 -0.14563513
0000f0 25 37 04 40 9d 5c 09 bd 56 07 65 3e 50 61 04 40
       2.0658658 -0.03353559 0.2236608 2.0684395

6.bias f4 [2]
000000 ca 62 25 3f 35 7f d1 3f
       0.64603865 1.6366946
