model.pth (torch, 11599 bytes, 8 tensors)

0.weight f4 [32, 4]
-1.909349e-13 -6.479864e-12 4.581e-42 -6.369767e-13 -0.0232979 -0.02320248 -0.38827267 -0.33043116
2.1787388e-21 -1.5071599e-21 2.564e-42 -2.5920827e-23 0.012365576 -0.0016535437 -0.10438566 -0.020016698
0.03178846 0.34315792 -1.0090668 0.00887415 -0.06112508 0.09062774 -0.86353165 -0.0030294943
0.041710258 -0.030892143 0.053012677 -0.051658258 0.0006704588 -0.0018413968 -0.0050131935 -0.0035610376
0.2166927 0.7592537 0.18029046 0.115917884 6.435933e-08 -9.3922625e-07 7.7486995e-10 7.682539e-08
0.00026187123 0.00049983244 -0.0119636 0.0006310183 -0.0014410559 -0.0020431373 -0.15939021 0.00073157216
-0.019703366 0.01668483 -0.4294747 0.022400549 1.5133214 2.4139018 2.9257371 1.3394506
0.30202398 -0.14980438 -0.65413713 -0.084739685 0.033631943 0.054634403 -1.048888 -0.2519158
-0.00013320372 0.0004363479 -0.0004238094 0.0006385335 -0.45148095 -0.62489635 -1.1319795 -0.45904523
0.0453997 -0.24480422 -0.13710012 -0.19149818 0.28107634 -0.58706677 0.04140701 -0.14794925
0.031468082 -0.045585297 1.7882972 0.37950617 0.05590674 -0.047210727 0.04682923 -0.014401898
-0.002495035 0.017764883 -0.3955095 0.012747313 0.07033797 0.017035462 0.20859745 -0.07318852
0.0004282813 -0.0013696126 9.473276e-05 -0.00011634524 0.4264911 0.56173766 1.5816302 0.74561465
-0.18759423 -0.4738709 -0.06312173 -0.059639342 -0.052155674 -0.0515419 -0.088146046 -0.004951372
-2.4641848e-17 2.418505e-16 3.2271405e-16 4.0876944e-16 -0.311606 -0.18597093 -0.41947246 -0.15680537
3.17487e-13 -2.9453655e-12 2.358057e-17 -3.284185e-12 0.09649895 0.089947104 -1.094911 0.11111425
00000000: 3df9 56aa 6dfd e3ac c50c 0000 024b 33ab
00000010: 3ddb bebc 2113 bebc adcb c6be 462e a9be
00000020: f09e 241d 6dc1 e39c 2607 0000 dcb0 fa99
00000030: fc98 4a3c b8bb d8ba 26c8 d5bd 0ffa a3bc
00000040: 9e34 023d 65b2 af3e 1a29 81bf e264 113c
00000050: 4b5e 7abd 099b b93d 6910 5dbf 7b8a 46bb
00000060: 60d8 2a3d 8511 fdbc d223 593d 9c97 53bd
00000070: bac1 2f3a 065b f1ba b745 a4bb 4c60 69bb
00000080: b1e4 5d3e 735e 423f 109e 383e 5b66 ed3d
00000090: ea35 8a33 231f 7cb5 a0fe 5430 34fb a433
000000a0: c34b 8939 3007 033a fa02 44bc ec6a 253a
000000b0: d0e1 bcba 28e6 05bb 3037 23be fac6 3f3a
000000c0: f468 a1bc a0ae 883c 1ce4 dbbe 5b81 b73c
000000d0: 84b4 c13f 5e7d 1a40 473f 3b40 1e73 ab3f
000000e0: e3a2 9a3e 5266 19be 8875 27bf 008c adbd
000000f0: a6c1 093d 53c8 5f3d f641 86bf 1cfb 80be
00000100: 9aac 0bb9 a0c5 e439 bc32 deb9 4263 273a
00000110: 8328 e7be 35f9 1fbf b4e4 90bf fa07 ebbe
00000120: 09f5 393d f5ad 7abe f963 0cbe 1918 44be
00000130: 3de9 8f3e 024a 16bf 669a 293d 0280 17be
00000140: ade4 003d a6b7 3abd ece6 e43f a24e c23e
00000150: 77fe 643d 0960 41bd 02d0 3f3d f0f5 6bbc
00000160: be83 23bb a987 913c 3980 cabe 1bda 503c
00000170: 5b0d 903d f48d 8b3c 929a 553e dde3 95bd
00000180: f18a e039 9384 b3ba 43ab c638 60fe f3b8
00000190: 0b5d da3e 0ace 0f3f dc72 ca3f 9ae0 3e3f
000001a0: b418 40be 359f f2be f745 81bd 6248 74bd
000001b0: 30a1 55bd 991d 53bd ea85 b4bd 1e3f a2bb
000001c0: eb47 e3a3 d66a 8b25 3008 ba25 b9a3 eb25
000001d0: d28a 9fbe 2a6f 3ebe 18c5 d6be 9691 20be
000001e0: b3ba b22a fd42 4fac 0c7e d923 9e1a 67ac
000001f0: 3ea1 c53d 3036 b83d 0b26 8cbf de8f e33d

0.bias f4 [32]
-6.614591e-10 0.28178847 -1.0902969e-20 -0.08516755 0.0383785 0.013222568 -0.14298218 -0.008068264
0.38404244 -7.670177e-06 -0.0053833746 -0.059824653 -0.15012524 0.044650193 -0.11834213 0.013254947
-0.0015320226 -0.029786583 -0.40223062 1.1238914 0.22045805 -0.1739059 -0.14033431 -0.51521355
-0.0050133853 -0.52784806 1.1228147 -0.34777886 -1.2620173e-15 1.303206 -1.3000917e-11 -0.54800934
00000000: 0cd2 35b0 9446 903e 86f3 4d9e 536c aebd
00000010: c632 1d3d 78a3 583c ec69 12be c130 04bc
00000020: 36a1 c43e 29af 00b7 0567 b0bb b20a 75bd
00000030: 6eba 19be 1fe3 363d 5c5d f2bd 472b 593c
00000040: 26ce c8ba fe02 f4bc 2cf1 cdbe acdb 8f3f
00000050: c1bf 613e 6314 32be ccb3 0fbe 09e5 03bf
00000060: 5347 a4bb 0d21 07bf 64b8 8f3f 1210 b2be
00000070: 38e0 b5a6 74cf a63f edb6 64ad 574a 0cbf

2.weight f4 [32, 32]
7.2e-43 -2.793e-42 9e-43 -2.169e-42 -3.67e-43 -1.4065513e-05 1.777e-42 -9.78e-43
-0.00048789819 -2.567e-42 -1.596e-42 -0.00011830237 -0.00022964516 -0.0001889276 2.054e-42 -0.00011509036
-2.815e-42 0.00014104373 6.229e-42 -0.0005482616 0.000111396424 -4.239e-42 -3.125493e-05 -5.507e-42
1.462e-42 -1.1081063e-05 -0.00051869306 9.33e-43 1.4e-42 -0.00037477014 3.64e-43 4.26e-43
-5.193e-42 -0.14457446 2.1327644e-34 -0.00270708 -0.3005254 -1.1917281 -0.028005905 -0.023383189
0.3083724 -2.0134498e-38 -0.014243183 -0.37031674 -1.2005264 0.65477645 -0.16080876 -0.9595546
-0.003437913 -0.99503684 0.2253436 0.6436376 -0.6503908 -0.2174089 -0.5690327 -0.09851614
0.00037647405 -0.6309414 1.0187262 -0.022193547 -3.145e-42 0.9385824 -3.4025776e-24 -1.2002206
1.621e-42 0.0020989021 -2.234e-42 0.0015387087 1.902e-42 -0.049413793 2.73e-43 7.787278e-06
0.06623953 -1.707e-42 -2.8524955e-06 0.03889229 0.04416024 -0.16790704 -1.65e-43 -0.003656041
1.4440165e-17 -0.19943058 -3.545e-42 0.044515677 -0.14656611 4.61e-43 0.09888904 -1.596e-42
1.0831539e-11 -0.031270772 -0.058974445 2.281e-42 -1.027e-42 -0.11996484 -7e-44 4.491e-42
-1.708e-42 0.05803135 1.4143786e-29 0.1508262 0.06230445 0.73596793 0.014947455 -0.0100223515
0.34396908 -5.735685e-08 -0.0011323021 -0.0144776115 1.0570931 0.014859619 0.09063496 0.4696647
-0.0022313567 1.0676143 0.090446874 0.2314943 1.0701147 -0.08751899 0.18610303 -0.038433626
0.00061741273 -0.043247916 -0.2448563 0.14243904 -4.993e-42 -0.7118975 6.7884186e-29 -0.42938596
-7.65e-43 2.374e-42 -1.277e-42 -6.4e-44 -1.555e-42 -9.091995e-17 5.09e-42 -2.37e-42
-1.6656105e-09 -1.225e-42 -2.122e-42 2.58e-42 -5.782e-42 -2.032217e-07 7.05e-43 -1.219e-42
1.526e-42 1.54e-43 -3.81e-42 -3.9310463e-10 -6.9822743e-09 2.975e-42 -4.635e-42 -5.814e-42
4.44e-42 -1.0997023e-08 -1.0330397e-09 2.986e-42 -1.37e-43 -1.5796171e-09 -1.836e-42 4.617e-42
1.937e-42 -0.32954338 1.654e-42 -8.84e-43 -0.13198213 -0.34764704 5.343e-42 -2.94e-43
-0.39632753 2.03e-43 1.22e-42 -1.4675555e-15 -3.9883004e-16 -0.27302375 3.196e-42 -0.2500941
-1.728e-42 -0.25080538 3.85e-43 -0.04015608 -0.4404795 -1.061e-42 -2.3142518e-18 8.02e-43
-4.0205594e-13 -0.12724145 0.009680563 -5.2120834e-15 -1.565e-42 0.042705078 -1.249e-42 1.3200353e-16
-5.84e-43 -0.053213164 -2.556259e-38 -0.0290768 -0.22731617 -0.95100373 -0.043000005 -0.024961941
0.4416359 6.110684e-13 -0.015013247 -0.4040616 -1.7236091 0.5944116 -0.28660002 -0.74206316
-0.0026904985 -0.9317447 0.14561641 0.6700001 -0.64596456 -0.13020311 -0.6927205 -0.15030172
-4.8919486e-05 -0.26756915 1.0574358 -0.050885268 -3.365e-42 1.1842015 -5.732109e-30 -0.43858021
-1.382e-42 -5.409e-42 4.5e-43 -7.512e-42 -2.287e-42 -0.00088515005 3.87e-43 -0.00020739024
-0.00028638524 -2.074e-42 -6.0547616e-11 -3.587872e-08 6.7367228e-06 -0.001173991 2.25e-42 -1.171e-42
-9.52487e-05 -4.3975097e-18 1.555e-42 -0.00010488093 0.00056401285 -2.737e-42 -3.278317e-24 -1.537e-42
2.273e-42 -3.294e-42 -0.00060027436 -1.63e-43 -1.0536964e-34 -0.0012336636 3.95e-43 5.862e-42
00000000: 0202 0000 c907 0080 8202 0000 0c06 0080
00000010: 0601 0080 ebfa 6bb7 f404 0000 ba02 0080
00000020: 96cc ffb9 2807 0080 7304 0080 1a19 f8b8
00000030: e7cc 70b9 de1a 46b9 ba05 0000 ab5c f1b8
00000040: d907 0080 23e5 1339 5d11 0000 37b9 0fba
00000050: 809d e938 d10b 0080 ba17 03b8 5a0f 0080
00000060: 1304 0000 cee8 39b7 e7f8 07ba 9a02 0000
00000070: e703 0000 cc7c c4b9 0401 0000 3001 0000
00000080: 7a0e 0080 540b 14be 1bbf 8d07 4469 31bb
00000090: 77de 99be 8c8a 98bf a46c e5bc 1a8e bfbc
000000a0: fde2 9d3e ca3e db80 3d5c 69bc 289a bdbe
000000b0: d9aa 99bf 6e9f 273f 0dab 24be 5fa5 75bf
000000c0: 9c4e 61bb bcba 7ebf 79c0 663e 6fc5 243f
000000d0: 0380 26bf 70a0 5ebe 21ac 11bf d4c2 c9bd
000000e0: 7e61 c539 6085 21bf 9f65 823f 3ecf b5bc
000000f0: c408 0080 f046 703f 7fa1 8398 d4a0 99bf
00000100: 8504 0000 bc8d 093b 3a06 0080 7fae c93a
00000110: 4d05 0000 1e66 4abd c300 0000 1ba6 0237
00000120: 97a8 873d c204 0080 806d 3fb6 864d 1f3d
00000130: 5ee1 343d d3ef 2bbe 7600 0080 319a 6fbb
00000140: e02f 8523 8837 4cbe e209 0080 1256 363d
00000150: 6d15 16be 4901 0000 5686 ca3d 7304 0080
00000160: ea8c 3e2d c815 00bd 308f 71bd 5c06 0000
00000170: dd02 0080 20b0 f5bd 3200 0080 850c 0000
00000180: c304 0080 48b2 6d3d 5e6f 8f0f 2f72 1a3e
00000190: f332 7f3d 6568 3c3f 2ce6 743c ca34 24bc
000001a0: b71c b03e 8658 76b3 c169 94ba 8133 6dbc
000001b0: d44e 873f c275 733c d29e b93d e477 f03e
000001c0: f43b 12bb 96a7 883f 363c b93d d70c 6d3e
000001d0: 85f9 883f 283d b3bd cb91 3e3e 946c 1dbd
000001e0: ded9 213a ba24 31bd 9cbb 7abe 8adb 113e
000001f0: eb0d 0080 ea3e 36bf 5b1b ac10 7ad8 dbbe
00000200: 2202 0080 9e06 0000 8f03 0080 2e00 0080
00000210: 5604 0080 aaa5 d1a4 300e 0000 9b06 0080
00000220: 76eb e4b0 6a03 0080 ea05 0080 3107 0000
00000230: 1e10 0080 2835 5ab4 f701 0000 6603 0080
00000240: 4104 0000 6e00 0000 9f0a 0080 8f1c d8af
00000250: bce8 efb1 4b08 0000 ec0c 0080 3510 0080
00000260: 600c 0000 6bed 3cb2 dafa 8db0 5308 0000
00000270: 6200 0080 d619 d9b0 1e05 0080 df0c 0000
00000280: 6605 0000 e9b9 a8be 9c04 0000 7702 0080
00000290: 5326 07be cbfe b1be e50e 0000 d200 0080
000002a0: 71eb cabe 9100 0000 6703 0000 3e7f d3a6
000002b0: ede8 e5a5 c5c9 8bbe e908 0000 550c 80be
000002c0: d104 0080 9069 80be 1301 0000 b47a 24bd
000002d0: 8786 e1be f502 0080 fbc2 2aa2 3c02 0000
000002e0: 5e56 e2aa 954b 02be 399b 1e3c fcc8 bba7
000002f0: 5d04 0080 85eb 2e3d 7b03 0080 9130 1825
00000300: a101 0080 0cf6 59bd 0d2d 0b81 7832 eebc
00000310: 92c5 68be fb74 73bf c620 30bd fc7c ccbc
00000320: 1a1e e23e 1e00 2c2b 1ffa 75bc 29e1 cebe
00000330: 399f dcbf 5c2b 183f 3dbd 92be daf7 3dbf
00000340: 1353 30bb d286 6ebf 781c 153e 2085 2b3f
00000350: ef5d 25bf f753 05be 2156 31bf b2e8 19be
00000360: e62e 4db8 d3fe 88be 0e5a 873f 126d 50bd
00000370: 6109 0080 ea93 973f a085 e88e 968d e0be
00000380: da03 0080 140f 0080 4101 0000 f114 0080
00000390: 6006 0080 6a09 68ba 1401 0000 e576 59b9
000003a0: fa25 96b9 c805 0080 4725 85ae 1219 1ab3
000003b0: 020c e236 9ae0 99ba 4606 0000 4403 0080
000003c0: 42c0 c7b8 4e3d a2a2 5604 0000 85f3 dbb8
000003d0: 43da 133a a107 0080 c2a5 7d98 4904 0080
000003e0: 5606 0000 2f09 0080 bb5b 1dba 7400 0080
000003f0: 6e0f 0c87 e2b2 a1ba 1a01 0000 5710 0000

2.bias f4 [32]
-0.00039622124 0.15567446 -0.10107733 0.3377515 -2.006289e-10 -0.19006422 0.08792131 0.0004986092
0.21284097 0.4462615 0.056272827 -7.6667764e-14 0.03446382 -0.09529779 0.023849793 0.16405994
-0.34305683 -0.029938161 -0.022680914 -0.026936466 0.059433352 -6.345758e-11 -0.0035026723 -2.401902e-07
0.15743083 -0.021525424 0.35563755 -0.0019036335 0.07786682 0.07240139 0.1978748 -8.900331e-24
00000000: eabb cfb9 2069 1f3e a201 cfbd c4ed ac3e
00000010: 0498 5caf 32a0 42be 1610 b43d 19b5 023a
00000020: fcf2 593e 637c e43e 567e 663d f5a3 aca9
00000030: ef29 0d3d 7d2b c3bd a460 c33c 54ff 273e
00000040: 25a5 afbe e040 f5bc 53cd b9bc dda9 dcbc
00000050: 6370 733d 718b 8bae 178d 65bb 7df3 80b4
00000060: 8c35 213e 1656 b0bc 2016 b63e 5783 f9ba
00000070: a478 9f3d 2e47 943d b19f 4a3e 4e28 2c99

4.weight f4 [32, 32]
-3.074e-42 -1.7540441e-11 -1.924e-41 3.074e-42 9.42e-43 4.49e-42 -7.799092e-12 -1.62e-42
-7.2108195e-16 -1.1659256e-12 -2.9188906e-12 -1.888e-42 -1.25258874e-11 -1.66e-42 1.481e-42 -4.298587e-12
2.57e-42 -1.27e-42 6.87e-43 1.293e-42 -8.86236e-12 2.098e-42 1.176e-42 -1.139e-42
-3.254e-42 -2.871781e-11 -5.783e-42 5.665e-42 7.2e-43 -1.22766e-11 1.494e-42 -1.13e-42
-5.141e-42 -0.010991286 5.4417505e-08 -0.060773473 -1.239e-42 4.025e-42 -0.05805511 2.239e-42
-0.03788105 0.032077376 -0.045481067 -3.12e-42 -0.064276434 5.68e-43 -2.421e-42 -0.058783982
-0.010562388 5.9e-44 -6.734769e-37 4.232e-42 0.034060556 -2.632e-42 -1.983e-42 9.6e-43
-0.021287225 -0.071824454 -0.038178135 4.942e-42 3.8e-42 -0.055031896 1.648e-42 -2.588e-42
-0.0002973805 0.030494656 -0.06445011 -2.0733974 1.369999e-11 0.055135854 0.13064533 -0.00021164611
0.4953915 0.32712308 0.12520114 -1.142e-42 0.08652297 -0.035440624 0.0009591515 0.19087476
-1.088365 -0.012471028 -0.006232041 -0.004202236 0.10739431 5.858792e-10 0.0034869027 -3.1712794e-08
-1.1175592 0.09759142 -0.1565212 0.001717286 -0.26395383 0.10978885 -0.41151077 -9.811549e-23
4.858e-42 -0.054704662 3.02e-42 -0.00030576356 1.01e-43 4.767e-42 -0.05255257 -3.286e-42
-0.05256243 -0.045069978 -0.053408515 -1.604e-42 -0.05268018 1.6692172e-06 1.036e-42 -0.052596994
-1.1920874e-07 5.2e-42 4.67e-43 -7.216664e-29 -0.05575569 2.839e-42 1.15405e-40 5.02e-43
-1.7761555e-05 -0.052353986 -0.007903025 5.651283e-29 1.7e-43 -0.052953336 1.725e-42 -1.393e-42
6.708e-42 -3.4949958e-06 -4.334e-42 6.5217374e-33 2.011e-42 3.178e-42 -4.391684e-05 -3.524e-42
-4.4042704e-06 -6.17753e-05 -2.3740902e-05 4.687e-42 -3.5243273e-05 3.02e-42 3.306e-42 -3.238846e-05
-1.6426735e-33 1.834e-42 -1.812e-42 -3.85e-42 -1.6929823e-07 1.544e-42 1.820759e-39 1.312e-42
1.3317835e-31 -5.8158537e-05 1.8226067e-33 1.948e-42 -1.819e-42 -3.5647798e-05 -4.88e-43 1.539e-42
-0.00014316269 0.27962226 -0.09062994 -2.318783 7.0151166e-13 0.051072255 0.25330198 -7.7369274e-05
0.488613 0.13284536 0.14155236 9.4e-43 0.23058686 -0.030155143 0.0036443055 0.20549056
-1.2526587 -0.015790327 -0.00239569 -0.002669701 0.33529708 1.30365415e-11 0.00096618594 -6.84592e-09
-1.2388644 0.20378472 -0.36988738 0.0005266582 -0.21491407 0.25873432 -0.382612 7.8205294e-28
4.735e-42 -1.600226e-05 4.23e-43 -1.2680748e-31 -4.692e-42 9.01e-43 -5.1274037e-05 6.26e-43
-4.3246428e-06 -1.926727e-05 -3.1579704e-05 -3.42e-43 -4.3359913e-05 5.2e-43 2.273e-42 -3.321994e-05
-1.1807339e-31 -1.247e-42 6.4e-44 -7.462e-42 -2.619487e-06 -5.55e-43 4.81e-42 -3.39e-42
-2.414715e-31 -6.325251e-05 -1.1028279e-30 0.00041505782 1.085e-42 -4.1751664e-05 -9.15e-43 -3.774e-42
-6.900205e-05 0.21797998 -0.08857534 -2.235535 4.4572466e-12 0.022067796 0.11212546 -0.0001404423
0.4704423 0.12890199 0.15832067 3.653e-42 0.1409744 -0.022399219 0.008050448 0.15766703
-1.3935863 -0.0092724925 -0.008041031 -0.0035402756 0.26475206 2.349355e-11 0.00037588715 -1.7193418e-08
-1.3112762 0.16779505 0.11748405 0.000674035 -0.20256682 0.113343716 -0.31004503 1.21881544e-26
00000000: 9208 0080 9049 9aad a235 0080 9208 0000
00000010: a002 0000 840c 0000 fd33 09ad 8404 0080
00000020: 75d6 4fa6 e616 a4ab 0f66 4dac 4305 0080
00000030: 955b 5cad a104 0080 2104 0000 3b3e 97ac
00000040: 2a07 0000 8a03 0080 ea01 0000 9b03 0000
00000050: 85e8 1bad d905 0000 4703 0000 2d03 0080
00000060: 1209 0080 c29a fcad 1f10 0080 cb0f 0000
00000070: 0202 0000 e4f8 57ad 2a04 0000 2603 0080
00000080: 550e 0080 cb14 34bc aeb8 6933 9bed 78bd
00000090: 7403 0080 380b 0000 32cb 6dbd 3e06 0000
000000a0: 2929 1bbd 9163 033d 5b4a 3abd b308 0080
000000b0: 5da3 83bd 9501 0000 c006 0080 79c7 70bd
000000c0: de0d 2dbc 2a00 0000 1d2c 6583 cc0b 0000
000000d0: 1583 0b3d 5607 0080 8705 0080 ad02 0000
000000e0: 8c62 aebc b318 93bd ad60 1cbd c70d 0000
000000f0: 980a 0000 2069 61bd 9804 0000 3707 0080
00000100: bce9 9bb9 eecf f93c 6bfe 83bd 8bb2 04c0
00000110: 4503 712d 22d6 613d e4c7 053e 52ed 5db9
00000120: f4a3 fd3e ad7c a73e ba34 003e 2f03 0080
00000130: f432 b13d 302a 11bd 916f 7b3a ac74 433e
00000140: 8b4f 8bbf 4853 4cbc 2636 ccbb e9b2 89bb
00000150: 8cf1 db3d 950b 2130 8584 643b 9634 08b3
00000160: 2e0c 8fbf 03de c73d 1847 20be 8e16 e13a
00000170: f524 87be fad8 e03d 8ab1 d2be 8c3a ed9a
00000180: 8b0d 0000 ff11 60bd 6b08 0000 e44e a0b9
00000190: 4800 0000 4a0d 0000 5d41 57bd 2909 0080
000001a0: b44b 57bd 4c9b 38bd e3c2 5abd 7904 0080
000001b0: 2cc7 57bd de09 e035 e302 0000 f26f 57bd
000001c0: b3ff ffb3 7f0e 0000 4d01 0000 d4f6 b690
000001d0: 1460 64bd ea07 0000 b441 0100 6601 0000
000001e0: a6fe 94b7 2271 56bd b07b 01bc ec46 8f10
000001f0: 7900 0000 99e5 58bd cf04 0000 e203 0080
00000200: b312 0000 928b 6ab6 150c 0080 8173 070a
00000210: 9b05 0000 dc08 0000 5933 38b8 d309 0080
00000220: 65c8 93b6 5d8d 81b8 3327 c7b7 110d 0000
00000230: 2dd2 13b8 6b08 0000 3709 0000 d8d8 07b8
00000240: cd77 0889 1d05 0000 0d05 0080 bb0a 0080
00000250: 58c8 35b4 4e04 0000 89d3 1300 a803 0000
00000260: 19e0 2c0c 41ef 73b8 8f6a 1709 6e05 0000
00000270: 1205 0080 8884 15b8 5c01 0080 4a04 0000
00000280: f11d 16b9 a62a 8f3e 319c b9bd f166 14c0
00000290: 3e75 452b 2431 513d ccb0 813e 5041 a2b8
000002a0: 7c2b fa3e 9d08 083e 1af3 103e 9f02 0000
000002b0: f61e 6c3e eb07 f7bc 4dd5 6e3b 1e6c 523e
000002c0: 1f57 a0bf b75a 81bc 0201 1dbb 26f6 2ebb
000002d0: 0fac ab3e 5d57 652d a447 7d3a 5939 ebb1
000002e0: 1c93 9ebf f1ac 503e e161 bdbe 6f0f 0a3a
000002f0: 6f12 5cbe d378 843e b8e5 c3be acd7 7712
00000300: 330d 0000 973c 86b7 2e01 0000 039b 248c
00000310: 140d 0080 8302 0000 140f 57b8 bf01 0000
00000320: 661c 91b6 26a0 a1b7 7374 04b8 f400 0080
00000330: 5add 35b8 7301 0000 5606 0000 a455 0bb8
00000340: 9d44 198c 7a03 0080 2e00 0000 cd14 0080
00000350: 72ca 2fb6 8c01 0080 690d 0000 7309 0080
00000360: 56b9 9c8c 6fa6 84b8 aef1 b28d 1e9c d939
00000370: 0603 0000 821e 2fb8 8d02 0080 850a 0080
00000380: 32b5 90b8 2536 5f3e fd66 b5bd 0113 0fc0
00000390: 4fd3 9c2c 86c7 b43c 08a2 e53d b143 13b9
000003a0: d0dd f03e e2fe 033e d01e 223e 2f0a 0000
000003b0: 985b 103e 917e b7bc 07e6 033c 7773 213e
000003c0: 0961 b2bf a7eb 17bc 87be 03bc f803 68bb
000003d0: 958d 873e c6a6 ce2d b812 c539 bab0 93b2
000003e0: e6d7 a7bf 77d2 2b3e 7a9b f03d b9b1 303a
000003f0: ad6d 4fbe c020 e83d 39be 9ebe 4969 7114

4.bias f4 [32]
1.628e-42 0.013786085 0.24865322 -0.007152017 4.199012e-22 0.11203991 3.4754646e-20 0.21432595
0.21289746 0.50827926 0.21464294 -0.22879906 0.24774933 -0.37809992 0.27351603 -2.0171292e-36
-8.4091466e-14 7.2076626e-31 -0.0021833975 -3.795211e-08 0.26037163 1.5058799e-25 0.5489415 -7.746297e-06
0.25570163 -2.1229134e-32 -9.5718464e-14 0.2384749 0.24526957 0.21162301 0.20878077 5.2403045e-23
00000000: 8a04 0000 08df 613c f39e 7e3e 785b eabb
00000010: 90d0 fd1b 2e75 e53d ca1f 241f 4378 5b3e
00000020: cb01 5a3e 971e 023f 5ccb 5b3e 4d4a 6abe
00000030: 00b2 7d3e 5096 c1be 4b0a 8c3e 2f99 2b84
00000040: 6e5b bda9 ebe6 690d 5517 0fbb c900 23b3
00000050: 6e4f 853e 3d6b 3a16 6e87 0c3f 18f6 01b7
00000060: 53eb 823e b874 dc8a f089 d7a9 c432 743e
00000070: f227 7b3e b4b3 583e a0ca 553e d467 7d1a

6.weight f4 [2, 32]
2.2266576e-11 0.05550834 2.2290463 0.01938061 -0.00032756542 1.644304 -0.0018534056 1.523654
1.8941703 1.6272824 2.1713583 -0.15898664 2.3345883 -0.089083865 2.3362465 2.599092e-37
7.9130075e-08 -2.3595654e-18 0.009609067 1.332081e-06 2.3745458 -0.000857751 -0.08490014 -0.009153874
2.2831235 -2.35123e-17 -0.014205686 2.1767604 2.297769 0.8201327 1.8106918 6.9900656e-05
2.1826206e-11 0.03521381 2.209314 -0.0013678693 -0.00038239546 1.5654613 -0.005197775 1.8009908
1.9495466 0.32585135 2.0788448 -0.033746704 2.187046 -0.369739 2.125084 1.6883984e-32
-3.402208e-07 -2.4874446e-16 0.005738192 1.2662831e-06 2.2304823 -0.0014317879 0.953462 -0.04798091
1.8691835 -1.5311916e-14 -0.013424836 2.1596212 1.9664077 1.587326 1.9001647 0.005332385
00000000: dfdb c32d b75c 633d b2a8 0e40 16c4 9e3c
00000010: 16bd abb9 8e78 d23f f9ed f2ba 1807 c33f
00000020: 2c74 f23f ca4a d03f 89f7 0a40 65cd 22be
00000030: e569 1540 9a71 b6bd 1085 1540 92e2 b002
00000040: 38ee a933 ee1a 2ea2 596f 1d3c f4c9 b235
00000050: 8ff8 1740 b2da 60ba 20e0 adbd 21fa 15bc
00000060: b21e 1240 d9dc d8a3 f7be 68bc 0b50 0b40
00000070: a60e 1340 37f4 513f c0c4 e73f a197 9238
00000080: 3ffc bf2d 5b3c 103d 6765 0d40 144a b3ba
00000090: 407c c8b9 0961 c83f 1952 aabb de86 e63f
000000a0: be8a f93f fdd5 a63e cb0b 0540 fc39 0abd
000000b0: 90f8 0b40 6e4e bdbe 6001 0840 5455 af0a
000000c0: 97a7 b6b4 3464 8fa5 7107 bc3b 28f5 a935
000000d0: 39c0 0e40 d4aa bbba 1616 743f a187 44bd
000000e0: 6841 ef3f e0ea 89a8 d8f3 5bbc 3c37 0a40
000000f0: 3fb3 fb3f 802d cb3f 9938 f33f 4abb ae3b

6.bias f4 [2]
0.750536 0.94356906
00000000: 2123 403f be8d 713f
