model.pth (torch, 11599 bytes, 8 tensors)

0.weight f4 [32, 4]
0	0x3e35f932	0.17770842
1	0xbe7e6cc3	-0.24846177
2	0x3fdc1beb	1.719602
3	0xbe147f69	-0.14501728
4	0x3f09a4f8	0.5376735
5	0xbf0a12c8	-0.5393491
6	0x3fc471c9	1.5347224
7	0xbe9ad7ff	-0.30242917
8	0x3dea33a4	0.11435631
9	0x3e971507	0.2950823
10	0x3f447185	0.7673572
11	0xbe2b32c6	-0.16718587
12	0xbe177d76	-0.14793953
13	0x3e3a3486	0.18184099
14	0xc02f6113	-2.7403
15	0x3d2eccfe	0.042675965
16	0xc011ac7e	-2.276153
17	0xc0674b2d	-3.6139634
18	0xc0924b5a	-4.571698
19	0xc01d2a75	-2.4557164
20	0x3e63b3ca	0.22236553
21	0xbebee25c	-0.37282073
22	0xbf6d8b4c	-0.92790675
23	0x3cf27148	0.029595032
24	0x3ecb6178	0.397228
25	0xbd88a408	-0.066719115
26	0x3e0595e6	0.13045463
27	0xbc6afdc2	-0.014342727
28	0xa542a37e	-1.6882211e-16
29	0x2623f689	5.6886103e-16
30	0x887061b0	-7.2337204e-34
31	0x250d2df4	1.224537e-16
32	0xbd2e375e	-0.04253327
33	0xbd36b642	-0.04460741
34	0xb944ef35	-0.00018781128
35	0xbc9fb38f	-0.0194948
36	0xbb5952b4	-0.0033160867
37	0x3b4bbe4d	0.003108877
38	0xb94fa75a	-0.00019803402
39	0xbbbc8b28	-0.0057538934
40	0x3f00411a	0.5009934
41	0x3e93ec5d	0.28891268
42	0x3e8e962a	0.2784894
43	0x3e57c5d7	0.21071564
44	0x3f06add5	0.52608997
45	0x3f3d1dcf	0.7387361
46	0xbed53f44	-0.4164983
47	0x3e9fc79e	0.31206983
48	0x3f08f4e5	0.5349868
49	0xbe5977ab	-0.21237056
50	0xc01b9a35	-2.431287
51	0xbf1b1782	-0.60582745
52	0xbbed9683	-0.0072506084
53	0xbc8279fa	-0.015927304
54	0xbf1aaafb	-0.60417145
55	0xbda834f2	-0.082132235
56	0x3b47ceff	0.003048837
57	0xbd99a634	-0.07502404
58	0xbf35f9bc	-0.7108419
59	0xbdd88373	-0.10571947
60	0xc03e8d9c	-2.9773932
61	0xbfa73e7b	-1.3065943
62	0xbf4aa675	-0.79160243
63	0xbf5dbf1c	-0.86619735
64	0xb81892a0	-3.637618e-05
65	0x382e608a	4.157474e-05
66	0x168eb258	2.3053888e-25
67	0xb425b68e	-1.5433235e-07
68	0x3eed7a6a	0.46382457
69	0xbde7d988	-0.11320788
70	0x3fd95ba2	1.6981089
71	0x3cdb2ea7	0.026755644
72	0x38e8b07b	0.00011095494
73	0x3998747c	0.00029078487
74	0x18925845	3.7829245e-24
75	0x399172a2	0.00027741963
76	0x3f0477ec	0.51745486
77	0x3e5c2bd2	0.21501091
78	0x3fbb9e1c	1.4657626
79	0x3ee908cd	0.45514527
80	0x3d6eb017	0.0582734
81	0xbda2e9ea	-0.07954772
82	0x3c530428	0.012879409
83	0x3d8a25b0	0.067454696
84	0x3e77422e	0.2414634
85	0x3edf9a25	0.4367229
86	0xbf9efd78	-1.2421103
87	0x3e05b8ba	0.13058749
88	0xbeb59289	-0.3546336
89	0x3e151148	0.14557374
90	0x4014e3c8	2.3264027
91	0x3f498427	0.78717273
92	0x0858f0bf	6.528313e-34
93	0x06d5fcb0	8.0492986e-35
94	0x80000c03	-4.309e-42
95	0x8084e73a	-1.2205234e-38
96	0xbcdd0bba	-0.02698313
97	0x3d8b4824	0.06800869
98	0xbf893cc1	-1.0721666
99	0xbdcf9a00	-0.10136795
100	0x3f190bc1	0.5978356
101	0x3efd6588	0.49491525
102	0xbfe7ce1e	-1.8109777
103	0x3f03bcfa	0.5146023
104	0xbf151bd0	-0.58245564
105	0x3dcb160d	0.09916315
106	0x3f8918b3	1.0710663
107	0x3f0dc2e9	0.55375534
108	0xb244edd7	-1.146278e-08
109	0xb08c6853	-1.0215991e-09
110	0xaa9197e7	-2.5862578e-13
111	0x30948279	1.08055e-09
112	0x19157a80	7.727858e-24
113	0x972e8537	-5.6390573e-25
114	0x80000e52	-5.137e-42
115	0x120b01c1	4.386283e-28
116	0x3ec6bb71	0.3881488
117	0xbeac4b5d	-0.33651248
118	0xbf5bd486	-0.8587116
119	0xbf1d7701	-0.6150971
120	0x3ef5fd64	0.48044884
121	0x3ee7cb2f	0.45272204
122	0xbfcceb6a	-1.6009343
123	0xbc73df98	-0.014884852
124	0x3f42809c	0.7597749
125	0xbec63d86	-0.38718814
126	0x3fd2547d	1.6432034
127	0xbe1ed2ff	-0.15510176

0.bias f4 [32]
0	0x3eae611e	0.3405847
1	0x3bfb5bca	0.007670854
2	0x3f2a096c	0.66420627
3	0x3ebbc19a	0.36671144
4	0xbd383478	-0.044971913
5	0x3f8b2fe3	1.0873989
6	0x3f573ebf	0.8408012
7	0xa7ff3db4	-7.0843616e-15
8	0xbeb02816	-0.34405583
9	0xbd00cf3d	-0.031447638
10	0xbf11f678	-0.57016706
11	0x3f8eba5f	1.1150626
12	0x3f84ad79	1.036544
13	0xbe3888f2	-0.1802099
14	0xbec624d6	-0.3869998
15	0xbdce977a	-0.100874856
16	0xb9ce3a18	-0.00039334665
17	0xbe6dbc88	-0.2321645
18	0xbb1187ed	-0.0022206262
19	0xbe8b6758	-0.27227283
20	0x3f32261a	0.6958939
21	0x3e0919db	0.1338877
22	0xbf506666	-0.8140625
23	0x8a4d25db	-9.877511e-33
24	0xbe8880a6	-0.2666065
25	0x3ff851db	1.939998
26	0xbf20bd90	-0.6278925
27	0xb37469d9	-5.6906945e-08
28	0x9b81f929	-2.1502276e-22
29	0x3f7e9b99	0.99456173
30	0xbe9d5c3c	-0.30734432
31	0xbe8f3741	-0.27971843

2.weight f4 [32, 32]
0	0xbb9df458	-0.004820388
1	0xbac57459	-0.0015064582
2	0xbb77acff	-0.0037792323
3	0xba9bad31	-0.0011877177
4	0xbc28e455	-0.010308345
5	0xbc1fb08d	-0.009746683
6	0x3a48c706	0.00076590513
7	0x36ce853e	6.15479e-06
8	0x800000ce	-2.89e-43
9	0x80000b50	-4.058e-42
10	0xbad59c32	-0.001629716
11	0xbbfea2b1	-0.007770859
12	0xbb17fd9d	-0.0023191937
13	0xba9ffd11	-0.0012206157
14	0x035faf11	6.5734776e-37
15	0xbc786804	-0.015161518
16	0x80000ffb	-5.733e-42
17	0xba05a7f0	-0.0005098572
18	0x80001169	-6.246e-42
19	0xbb435edb	-0.0029811177
20	0xbb0f0bef	-0.0021827181
21	0xbab301f2	-0.0013657196
22	0xb7f4e5b1	-2.9194025e-05
23	0xb63952dd	-2.761538e-06
24	0x36ce55d3	6.1492697e-06
25	0xbc95f28b	-0.01830413
26	0x371764c9	9.023767e-06
27	0x800005c4	-2.068e-42
28	0xab1b02eb	-5.507111e-13
29	0xbbadc737	-0.0053032893
30	0xbaf11408	-0.0018392811
31	0xbab4f24c	-0.001380512
32	0xbef3c6a1	-0.4761248
33	0xbf898da1	-1.0746347
34	0xbea3fe1c	-0.32029808
35	0x3e89fb37	0.26949474
36	0x3db9554c	0.09049472
37	0x3f274242	0.65335476
38	0x3f1e9b03	0.6195528
39	0x91cef7b4	-3.2653728e-28
40	0x3a4333d7	0.00074463844
41	0xb410d6fd	-1.3489257e-07
42	0xbeda33c0	-0.42617607
43	0x3da0e259	0.078556724
44	0xbd9c8887	-0.07643228
45	0x400120ab	2.017619
46	0xbdac99a8	-0.08427745
47	0xbe1bd3cc	-0.15217513
48	0x80c6facd	-1.8273399e-38
49	0x3e800c4a	0.25009376
50	0x35951a03	1.1108935e-06
51	0xbfa06e8c	-1.2533736
52	0xbf0d3874	-0.55164266
53	0x3e796684	0.24355513
54	0xbf72b32e	-0.94804657
55	0x8000021c	-7.57e-43
56	0x3f368539	0.7129703
57	0xbe385cf9	-0.18004216
58	0xbef39319	-0.47573164
59	0xb1ecce29	-6.8919417e-09
60	0x0201757b	9.511138e-38
61	0x3f5e853f	0.8692207
62	0xbf09ff06	-0.5390476
63	0xbf4d2875	-0.8013986
64	0x95e7adea	-9.3574545e-26
65	0x800002cb	-1.002e-42
66	0x0000032c	1.138e-42
67	0x80000166	-5.02e-43
68	0xa823c67c	-9.091357e-15
69	0x82b65c89	-2.679561e-37
70	0x800003cb	-1.36e-42
71	0x000012a9	6.694e-42
72	0x00001085	5.926e-42
73	0xb02d64c6	-6.308024e-10
74	0x80000aab	-3.827e-42
75	0x80000355	-1.195e-42
76	0x0008059a	7.36693e-40
77	0x80000381	-1.257e-42
78	0x80000568	-1.94e-42
79	0xa405750e	-2.8938927e-17
80	0x00000a61	3.723e-42
81	0x000000bd	2.65e-43
82	0x80000391	-1.28e-42
83	0x80000111	-3.83e-43
84	0x8f85ba6b	-1.3186618e-29
85	0x00001186	6.286e-42
86	0x00000750	2.623e-42
87	0x00000d4a	4.767e-42
88	0x80000ba5	-4.177e-42
89	0x8c427e95	-1.4983308e-31
90	0x80000a8a	-3.781e-42
91	0x80000cb5	-4.558e-42
92	0x00000003	4e-45
93	0x07be9aff	2.867912e-34
94	0x80000068	-1.46e-43
95	0x8000010d	-3.77e-43
96	0x3ec38ba9	0.3819249
97	0xbe7c0ecc	-0.2461502
98	0x3e4636e8	0.19356883
99	0xbdfa3e87	-0.122189574
100	0x3f3294f2	0.6975852
101	0x3f5d6620	0.86483955
102	0x3f371d92	0.71529496
103	0x00010bf4	9.6123e-41
104	0xa5a3c57c	-2.8409813e-16
105	0xb5e0182d	-1.6696337e-06
106	0xbf292f4a	-0.6608778
107	0x3ec96a6c	0.39339006
108	0xbf030f5e	-0.51195323
109	0xbfd0b9e0	-1.6306725
110	0xbf23e414	-0.64019895
111	0x3f5eb18f	0.8698968
112	0x00058345	5.06268e-40
113	0xbef90be4	-0.48641884
114	0xb59b0765	-1.1550552e-06
115	0xbf62bc9e	-0.88569057
116	0xbf006bef	-0.50164694
117	0xbf20d39e	-0.628229
118	0xbf8670dc	-1.0503192
119	0x800002be	-9.84e-43
120	0xbfb67a75	-1.4256121
121	0x3ea47ac6	0.3212492
122	0xbf914d25	-1.1351668
123	0xb1e30032	-6.6065917e-09
124	0x000004d2	1.729e-42
125	0x3f6d67aa	0.92736304
126	0xbf4dbd3a	-0.8036686
127	0xbefe6487	-0.4968607
128	0x3df748bd	0.120744206
129	0xbe00e8a3	-0.12588744
130	0xbe823a27	-0.25434992
131	0x3d9a05b6	0.075206205
132	0x3e816e69	0.2527955
133	0x3dbb53e9	0.09146864
134	0x3e944893	0.2896162
135	0xaa8860d2	-2.4225636e-13
136	0x3ba02803	0.0048875823
137	0xba18cdf7	-0.0005829031
138	0xbd9776f7	-0.073957376
139	0x3d9d0cd7	0.07668465
140	0x3e793d2a	0.24339738
141	0x3fb6b2f1	1.4273359
142	0xbe12c046	-0.14331159
143	0x3f0a1a99	0.53946835
144	0x00000a31	3.656e-42
145	0x3e38b8bd	0.18039222
146	0x359bd25c	1.1609623e-06
147	0x3c230c14	0.00995161
148	0xbe743051	-0.23846556
149	0xbececbd4	-0.40389884
150	0xbd83ac04	-0.06429294
151	0x00000a11	3.611e-42
152	0x405e0c2a	3.4694924
153	0xbda74982	-0.081683174
154	0xbe9b633c	-0.30349147
155	0xaf4e8fd7	-1.8786693e-10
156	0x80000143	-4.53e-43
157	0x3edcbedd	0.43114367
158	0x39fbc842	0.00048023654
159	0xbe1214b6	-0.14265713
160	0xbaae819d	-0.0013313774
161	0x3c6fe5ca	0.014642188
162	0xbd464544	-0.0484059
163	0xbd17ba8e	-0.037043147
164	0xbb96812f	-0.0045930366
165	0xbd124f45	-0.03572013
166	0xbd7739fe	-0.06035804
167	0x000003b8	1.334e-42
168	0x0000033c	1.16e-42
169	0x0000042a	1.494e-42
170	0x3cf3110b	0.029671213
171	0xbca7b1b7	-0.020470483
172	0xbd08f2a0	-0.03343451
173	0xbb2ea487	-0.002664836
174	0x2791f6ea	4.051329e-15
175	0xb90211a3	-0.00012404336
176	0x000012c5	6.733e-42
177	0xbb600c09	-0.003418686
178	0x80000318	-1.11e-42
179	0x3cd2e18a	0.025742311
180	0xbd96d277	-0.07364362
181	0xbcc7e8a7	-0.02440293
182	0xb3ef2bf7	-1.1137302e-07
183	0x80000440	-1.525e-42
184	0x800003d9	-1.38e-42
185	0xbb9efd94	-0.004852006
186	0xa222ffd5	-2.209053e-18
187	0x800003d2	-1.37e-42
188	0x80000f02	-5.384e-42
189	0xbd192221	-0.037386063
190	0x3d3a3210	0.0454579
191	0x3c189f26	0.009315288
192	0x3e1c0d58	0.15239465
193	0xbf3ba81a	-0.7330338
194	0xbf14246c	-0.57868075
195	0xbeb46ec9	-0.35240772
196	0x3ef4377e	0.47698587
197	0x3ef57f59	0.4794872
198	0x3ecc7b75	0.3993794
199	0x068bacaa	5.2539696e-35
200	0x30ffccbd	1.8611882e-09
201	0xb70af9de	-8.283618e-06
202	0xbf0c9aba	-0.54923594
203	0x3e5332a4	0.20624787
204	0xbea33202	-0.3187409
205	0xc007c2b0	-2.1212578
206	0xbee569fb	-0.4480742
207	0x3e16a5b6	0.14711651
208	0x01cff5b9	7.6392386e-38
209	0xbf54162b	-0.82846326
210	0xb598db98	-1.1388793e-06
211	0xbedf9284	-0.4366647
212	0xbf6bd9e1	-0.9212933
213	0xbfccaeef	-1.5990885
214	0xbeb8189f	-0.35956284
215	0x80000e00	-5.022e-42
216	0xbf84bb1c	-1.0369601
217	0x3c5e6d48	0.013575859
218	0xbedfb888	-0.43695474
219	0xb1a7dcd4	-4.885445e-09
220	0x800700ac	-6.4309e-40
221	0x3f296010	0.66162205
222	0xbf70f026	-0.9411644
223	0xbf749507	-0.955399
224	0xb34cea27	-4.771041e-08
225	0xb80fcd0d	-3.4284825e-05
226	0xb94518f0	-0.00018796674
227	0xb8cff60e	-9.9163604e-05
228	0xb71edaf0	-9.468509e-06
229	0xb9ac4fcc	-0.0003286585
230	0xb9beff71	-0.00036429943
231	0x00000178	5.27e-43
232	0x00000456	1.555e-42
233	0x800006e3	-2.47e-42
234	0xb783bafe	-1.5703492e-05
235	0xb98c349b	-0.00026742075
236	0xba029d0f	-0.000498251
237	0x80000755	-2.63e-42
238	0x80000e29	-5.08e-42
239	0xb2a750e6	-1.9478147e-08
240	0x00000733	2.583e-42
241	0xb43cc3eb	-1.7580139e-07
242	0x00000655	2.272e-42
243	0xb841f782	-4.6245295e-05
244	0xb90429b3	-0.00012604035
245	0xa9a8b4e7	-7.49208e-14
246	0x800c3daf	-1.124154e-39
247	0x000005d8	2.096e-42
248	0x2c4f2c60	2.9441102e-12
249	0xb937833f	-0.00017501133
250	0x80001323	-6.865e-42
251	0x8000031b	-1.114e-42
252	0x000005b4	2.046e-42
253	0xb9b3cc2d	-0.00034293663
254	0xb8915308	-6.9296046e-05
255	0xb7541aa6	-1.2642389e-05

2.bias f4 [32]
0	0xbc56e088	-0.013115056
1	0x3da108db	0.07863017
2	0x9d7dfc73	-3.3614784e-21
3	0x3d9162ef	0.07098948
4	0xbd11291a	-0.035439588
5	0xbd91c738	-0.07118076
6	0xbeb6721d	-0.35633937
7	0xb9b53a5e	-0.00034566497
8	0x3c149556	0.009068808
9	0xaeb390a9	-8.1656744e-11
10	0xa3a8bfb9	-1.8295794e-17
11	0x3d2d5c1c	0.04232417
12	0xbe5afc05	-0.213852
13	0x3d20f0b1	0.03929204
14	0xbe9fc316	-0.31203526
15	0xbe64abc2	-0.22331145
16	0x8970c908	-2.8983474e-33
17	0xbc0d2493	-0.008614677
18	0xb8acf6f3	-8.247597e-05
19	0xbea990a1	-0.33118156
20	0x3cc99363	0.024606412
21	0x3e578f89	0.21050848
22	0xbc1765e6	-0.009240603
23	0xbd28bc2c	-0.04119508
24	0xba7583b6	-0.0009365635
25	0x3eb0135d	0.34389773
26	0xbddd74b0	-0.10813272
27	0xbf0065cd	-0.50155336
28	0x3d28aa84	0.04117824
29	0xbbe220c4	-0.0069008786
30	0x3b1be06b	0.0023784887
31	0xb81afb21	-3.6950343e-05

4.weight f4 [32, 32]
0	0xbb7016fb	-0.0036634791
1	0xbd12bafe	-0.03582286
2	0x17ebee5f	1.5246692e-24
3	0x3d77f1b2	0.060533233
4	0xbec1cba1	-0.3785067
5	0xbcc1d38c	-0.023660444
6	0x3dd5b08d	0.10434065
7	0x3960fe40	0.0002145702
8	0xbccd341d	-0.025049264
9	0x2c846f66	3.7640334e-12
10	0xa4eee3ac	-1.0360174e-16
11	0x3cf9d9af	0.030499307
12	0xbde0a4f2	-0.10968961
13	0x3d18c11f	0.03729355
14	0xbebce3ab	-0.36892447
15	0xbf368e1a	-0.7131058
16	0x00000591	1.997e-42
17	0xbed73d29	-0.4203885
18	0xb7b506ee	-2.1580108e-05
19	0xbc004068	-0.007827856
20	0xbe9d747b	-0.3075293
21	0x3d0c94d0	0.034321606
22	0xbca7eab6	-0.020497661
23	0x3e352ef9	0.176937
24	0xba128716	-0.00055895874
25	0x3edbccb9	0.42929628
26	0xbdd5dba3	-0.10442283
27	0xbcfe72f8	-0.03106068
28	0xbe6defaf	-0.23235963
29	0x3bd2f042	0.0064373324
30	0x3e609b27	0.21934186
31	0xb95b07ed	-0.0002088842
32	0x8000047e	-1.611e-42
33	0xad310371	-1.0062049e-11
34	0xac9ab470	-4.396976e-12
35	0xa2f8814b	-6.735743e-18
36	0xae17ee49	-3.4545065e-11
37	0x000000ab	2.4e-43
38	0x07b41c6f	2.7100102e-34
39	0x80001160	-6.233e-42
40	0xa91d3506	-3.4906993e-14
41	0xb1f467c0	-7.1131296e-09
42	0x0000117a	6.27e-42
43	0x00000972	3.388e-42
44	0x80000671	-2.311e-42
45	0x85290c03	-7.948548e-36
46	0x00000507	1.803e-42
47	0x0000060c	2.169e-42
48	0xae9d3f14	-7.150738e-11
49	0xa543a693	-1.6969991e-16
50	0x8000097a	-3.4e-42
51	0x80000e03	-5.026e-42
52	0x80000a8f	-3.788e-42
53	0x9882926b	-3.3752057e-24
54	0x8001c243	-1.61523e-40
55	0x000008fa	3.22e-42
56	0x80000c60	-4.44e-42
57	0x02eb5350	3.4577966e-37
58	0x800001da	-6.64e-43
59	0x00000234	7.9e-43
60	0x80000608	-2.164e-42
61	0x80000968	-3.374e-42
62	0x80001009	-5.752e-42
63	0x00000770	2.668e-42
64	0xbac726cf	-0.0015194061
65	0xbd3cb97c	-0.04607533
66	0x1426cbc7	8.421046e-27
67	0xbb740535	-0.003723455
68	0xbef555af	-0.47916934
69	0xbc7f3647	-0.015576906
70	0x3d8b957e	0.06815623
71	0x39153037	0.00014227709
72	0xbce76cad	-0.028250063
73	0x2bee3c5f	1.6927673e-12
74	0xa3ed7f3a	-2.5749474e-17
75	0x3da4440a	0.0802079
76	0xbde46839	-0.111526914
77	0x3daddca9	0.08489353
78	0xbea34e68	-0.31895757
79	0xbee1072d	-0.43950787
80	0x0000007b	1.72e-43
81	0xbedd0b46	-0.43172663
82	0xb7381f23	-1.0974504e-05
83	0x3d48ef99	0.049056623
84	0xbe9d3a30	-0.30708456
85	0x3e00a930	0.1256454
86	0xbc3ca423	-0.011513743
87	0x3e3f4849	0.18679918
88	0xb9e5c8c6	-0.00043827872
89	0x3f02afc8	0.5104947
90	0xbdd38231	-0.103275664
91	0xbd3ddc87	-0.04635289
92	0xbe802d2b	-0.2503446
93	0x3b9b0d07	0.0047317776
94	0x3e7e910e	0.24860021
95	0xb903bab0	-0.0001256268
96	0xae53fcae	-4.820027e-11
97	0xbb61e296	-0.003446733
98	0x80001330	-6.883e-42
99	0xbb6cb425	-0.0036118117
100	0xbadd001a	-0.0016860992
101	0xb122d0bd	-2.3692757e-09
102	0xbb2439bd	-0.0025058829
103	0x33a6a84c	7.7605904e-08
104	0xba7bc2bb	-0.0009603907
105	0xb3c6dc20	-9.260134e-08
106	0xb736b16c	-1.0889355e-05
107	0x3aa03957	0.001222412
108	0x000010ee	6.073e-42
109	0xbb8bf174	-0.004270727
110	0x83837be9	-7.727936e-37
111	0x9fcf8206	-8.7883016e-20
112	0x3853e8b6	5.052305e-05
113	0xbb7bb8a5	-0.0038409617
114	0x336acf39	5.467084e-08
115	0xbb1952d5	-0.002339532
116	0xa9b68b38	-8.106574e-14
117	0xbad8bd57	-0.001653592
118	0x8001385a	-1.1205e-40
119	0xbaad6eaf	-0.0013231839
120	0xb18b684c	-4.0572896e-09
121	0xbc3ff589	-0.011716255
122	0xbb8aab88	-0.004231874
123	0x36195d61	2.285313e-06
124	0x3a3ae7d1	0.000712988
125	0x800003a6	-1.309e-42
126	0xbb815fce	-0.0039481884
127	0x33b9b2e4	8.647274e-08
128	0xbb0e43d6	-0.0021707914
129	0xbd92a5bb	-0.07160517
130	0x148b9fcf	1.4098447e-26
131	0x3ce74d19	0.028235005
132	0xbecbbb74	-0.39791453
133	0xbc7d8220	-0.015472919
134	0x3df55680	0.11979389
135	0x39212366	0.00015367343
136	0xbd63a611	-0.055578295
137	0x2bd96817	1.5447668e-12
138	0xa41bfeb5	-3.3826013e-17
139	0x3cfb0343	0.030641204
140	0xbdca7941	-0.098864086
141	0x3da1120f	0.078647725
142	0xbec17111	-0.37781575
143	0xbefb58a6	-0.4909107
144	0x000000e0	3.14e-43
145	0xbefead7b	-0.4974173
146	0x364d1007	3.055671e-06
147	0xbd01b449	-0.031666074
148	0xbe763ef8	-0.24047458
149	0x3e2db94c	0.16965216
150	0xbaf3e124	-0.0018606526
151	0x3ced0e92	0.028937612
152	0xb9f543e5	-0.00046780627
153	0x3f171b74	0.59026265
154	0x3c07ce1f	0.008288889
155	0xbd3b8fea	-0.045791544
156	0xbe7c4785	-0.24636658
157	0x3bda7ee2	0.0066679576
158	0x3e882798	0.26592708
159	0xb9274d8a	-0.00015955247
160	0xbbe5d7f2	-0.007014268
161	0x3e1351a2	0.14386609
162	0x19e591ac	2.3736881e-23
163	0x3e969d61	0.29416946
164	0xbe8339c3	-0.25630006
165	0xba803084	-0.0009780084
166	0x3e921683	0.285328
167	0x3914460b	0.00014140473
168	0xbdee7313	-0.116430424
169	0x2b8c19cc	9.954758e-13
170	0xa4639fa3	-4.9357996e-17
171	0xbdeab3e4	-0.11460093
172	0xbde4c99d	-0.11171267
173	0x3e1d2ad1	0.15348364
174	0x3e4b27bc	0.19839376
175	0xbe2e8421	-0.1704259
176	0x000054b3	3.0384e-41
177	0xbe433626	-0.19063625
178	0xb79ac40d	-1.8449524e-05
179	0x3e001800	0.12509155
180	0x3e0d2b7e	0.13786122
181	0x3e64b00f	0.22332786
182	0xbd8e1c30	-0.0693897
183	0x3cce5846	0.025188576
184	0xb9c16c6f	-0.00036892618
185	0xbec155e7	-0.3776085
186	0x3e26551d	0.16243406
187	0x3c8470fc	0.016167156
188	0xbe346804	-0.17617804
189	0x3b6ab773	0.003581491
190	0x3ebfdba8	0.37472272
191	0xb90bdb09	-0.0001333767
192	0xbbb1b0e0	-0.0054226965
193	0xbd96b8e5	-0.073594846
194	0x18a93b59	4.37454e-24
195	0x3db2d3f5	0.08731834
196	0xbeff2c7d	-0.4983863
197	0xbcc97689	-0.024592655
198	0x3e44ab5c	0.19205993
199	0x39525738	0.00020059652
200	0xbddfba42	-0.10924198
201	0x2c5a91dd	3.1060634e-12
202	0xa5018faf	-1.1237648e-16
203	0x3c34f858	0.011045538
204	0xbdd6d844	-0.10490468
205	0x3d30fd1f	0.043210145
206	0xbe8d7c0a	-0.27633697
207	0xbf22ec0b	-0.63641423
208	0x0000094c	3.335e-42
209	0xbeb0430e	-0.3442616
210	0xb7d73372	-2.5653953e-05
211	0x3d99b93d	0.075060345
212	0xbeae3eb3	-0.3403221
213	0x3cdedeb8	0.02720581
214	0xbca33c90	-0.01992634
215	0x3e4354de	0.19075343
216	0xba0bbb56	-0.00053303444
217	0x3e8fd997	0.28095695
218	0xbd5955c2	-0.0530603
219	0x3c0aae55	0.008464416
220	0xbe4793fe	-0.19490048
221	0x3bdbfb6c	0.0067133214
222	0x3e88ac0f	0.2669377
223	0xb9640393	-0.00021745106
224	0x2ebd1756	8.59887e-11
225	0xb9d08414	-0.00039771257
226	0x80000583	-1.977e-42
227	0xb9b376a8	-0.00034229946
228	0xb8245b58	-3.9185717e-05
229	0xb8d9a95a	-0.000103789105
230	0xb9a5380d	-0.00031513014
231	0x37ae51f7	2.0780584e-05
232	0xb8e88b6d	-0.00011088592
233	0xadbef11a	-2.170757e-11
234	0xb222a198	-9.466383e-09
235	0xb5c253d8	-1.4478528e-06
236	0x00000aa8	3.823e-42
237	0xb9a4f476	-0.00031462655
238	0xa615c577	-5.1962374e-16
239	0x0e486c3e	2.470402e-30
240	0x2dc706c2	2.2626682e-11
241	0xb98d77e8	-0.00026982953
242	0x80000a2c	-3.649e-42
243	0xb9929210	-0.00027956115
244	0x89609bca	-2.703627e-33
245	0xb9403ce0	-0.00018333225
246	0x00000bd0	4.238e-42
247	0xb98cef96	-0.00026881386
248	0x0000111a	6.135e-42
249	0xb9256b0d	-0.00015775506
250	0xb8afa233	-8.374862e-05
251	0x00000380	1.256e-42
252	0xb92cc2b3	-0.0001647573
253	0x80000d71	-4.822e-42
254	0xb9ae706a	-0.0003327162
255	0x00000bd4	4.243e-42

4.bias f4 [32]
0	0x3f0754cf	0.5286378
1	0x80000a68	-3.733e-42
2	0x3f062e08	0.5241399
3	0xb8045927	-3.1554282e-05
4	0x3f111caa	0.5668436
5	0x3f448f91	0.76781565
6	0x3f1acf97	0.60473007
7	0xb792fb5b	-1.7521603e-05
8	0xbf378d9e	-0.71700466
9	0x3f0c6b5d	0.54851323
10	0xbb78d924	-0.0037971223
11	0xae2e51e4	-3.9635753e-11
12	0x3f1d6b65	0.61491996
13	0xbc6eb9e6	-0.014570689
14	0x3f1c1a78	0.6097789
15	0x3f05af29	0.522204
16	0xbb974afd	-0.0046170936
17	0x3f65b938	0.89735746
18	0x3f19c7ca	0.6007048
19	0x38ed5601	0.0001131706
20	0x3f23f2d2	0.6404239
21	0x3d869254	0.065708786
22	0x3f12cabe	0.5734061
23	0xb105a4a7	-1.9447641e-09
24	0x3efca45e	0.49344152
25	0x3f0c8dbc	0.5490377
26	0x3f1d8619	0.6153274
27	0xae362915	-4.1418497e-11
28	0x3f0096f6	0.5023035
29	0xbc8f356e	-0.017481532
30	0x3f0f26bb	0.55918473
31	0x3f07bc34	0.5302155

6.weight f4 [2, 32]
0	0x3fd68377	1.675887
1	0xaf01801b	-1.1777994e-10
2	0x3fb894f0	1.4420452
3	0x3c10f611	0.008847729
4	0x3fd7b14d	1.6850983
5	0x3fdd5ce8	1.7293978
6	0x3fe46bca	1.7845395
7	0xb7fb2a51	-2.9941237e-05
8	0xbfae9ee5	-1.3642241
9	0x3faf49fd	1.3694454
10	0x3b02a3d7	0.0019934082
11	0xbb02d1c1	-0.001996145
12	0x3fe81fc0	1.8134689
13	0xbc94df6d	-0.018172944
14	0x3fd03223	1.62653
15	0x3d3fbcda	0.046810962
16	0xb9ce8522	-0.00039390574
17	0x3f0b9f74	0.5454018
18	0x3fd137b5	1.6345125
19	0x3a0c09ce	0.0005342037
20	0x3fe68ffb	1.8012689
21	0x3f8ae37d	1.0850674
22	0x3fcdf7f6	1.6091297
23	0x39416e9d	0.00018447121
24	0x3fe86fcd	1.8159119
25	0x3fb07007	1.3784188
26	0x3f9ce5bb	1.2257608
27	0xb22fb1db	-1.022678e-08
28	0x3fcb8e1c	1.5902743
29	0xbcc93d94	-0.024565496
30	0x3fb41231	1.4068052
31	0x3fd4db9f	1.6629523
32	0x3fe0e25c	1.7569079
33	0x00676cde	9.49811e-39
34	0x3fd30145	1.6484762
35	0xbc5224bb	-0.01282614
36	0x3fe423ba	1.7823403
37	0x3fbf937c	1.4966884
38	0x3fde1ae3	1.7351955
39	0x3a3aed23	0.0007130673
40	0x3f48dd72	0.784629
41	0x3fea28f5	1.8293749
42	0x3cd3787b	0.025814286
43	0xbccd2e8b	-0.025046607
44	0x3fdf4b1b	1.7444795
45	0xbd0d3d5c	-0.034482345
46	0x3fe4bb1b	1.78696
47	0x3f714f05	0.942612
48	0xbc1c84c9	-0.009553143
49	0xbf8a5f77	-1.0810384
50	0x3fdf047c	1.7423244
51	0x39d4ae86	0.0004056582
52	0x3fd5b819	1.6696807
53	0x3e1802a3	0.14844756
54	0x3fcd9276	1.6060321
55	0xb99f9147	-0.00030435083
56	0x3fe136e8	1.7594881
57	0x3fd54fe3	1.6665004
58	0x3fdef156	1.74174
59	0xac47d452	-2.8397462e-12
60	0x3fd626a2	1.673054
61	0xbbe6fed2	-0.00704942
62	0x3fed5980	1.8542938
63	0x3fd6ebed	1.6790749

6.bias f4 [2]
0	0x3fa48369	1.2852603
1	0x3f8b8c87	1.090226
