model.pth (torch, 28495 bytes, 8 tensors)

0.weight f4 [32, 4]
0	0x4144a63e	12.290586
1	0x40cfd580	6.494812
2	0x3f8d1927	1.1023301
3	0xc029903e	-2.6494288
4	0xc2316345	-44.346943
5	0xc2253301	-41.29981
6	0xc2122e49	-36.5452
7	0xc1b4d574	-22.604225
8	0xc2301882	-44.023933
9	0xc225a94a	-41.41532
10	0xc21265eb	-36.59953
11	0xc1b54d71	-22.662813
12	0x414bb707	12.732184
13	0x409ee18c	4.9650326
14	0xc012f9c7	-2.2964952
15	0xc022bb90	-2.542698
16	0xc234d7d2	-45.210762
17	0xc225326e	-41.299248
18	0xc210f1f7	-36.236294
19	0xc1b3cd0b	-22.475119
20	0x414624f0	12.384018
21	0x40b2b95a	5.585126
22	0xbfbfd128	-1.4985704
23	0xc034f582	-2.8274846
24	0xbecf1ebb	-0.40453133
25	0x4088f534	4.279932
26	0x42a10447	80.508354
27	0x417a119a	15.629297
28	0xc1041919	-8.256127
29	0x412687cd	10.4081545
30	0x429d00d3	78.50161
31	0x41585c9a	13.522608
32	0xc231ed73	-44.481884
33	0xc2255fdf	-41.343624
34	0xc2109010	-36.140686
35	0xc1b35d56	-22.420574
36	0xc236757f	-45.614742
37	0xc2224d3a	-40.575417
38	0xc20dc285	-35.43996
39	0xc1b0aca2	-22.084293
40	0xc10cf09f	-8.808745
41	0x412cb8e1	10.795136
42	0x42928419	73.258
43	0x417aabee	15.666975
44	0xc23033ea	-44.050697
45	0xc225da80	-41.46338
46	0xc21148ec	-36.321213
47	0xc1b64c00	-22.78711
48	0x4140a87f	12.041137
49	0x40b414aa	5.6275225
50	0xc035f90c	-2.8433256
51	0xc03c4b64	-2.9421015
52	0x3cf19060	0.029487789
53	0xbdcb5f60	-0.09930301
54	0x3eda56d6	0.42644376
55	0xbca6fdc0	-0.02038467
56	0xc04646f7	-3.0980814
57	0x410aebcd	8.682569
58	0x421ffcfa	39.997047
59	0x4140e420	12.055695
60	0xc23454a6	-45.082664
61	0xc224a52b	-41.161297
62	0xc2104387	-36.065945
63	0xc1b6e979	-22.864
64	0xc2326472	-44.59809
65	0xc224d224	-41.205215
66	0xc2128e7c	-36.639145
67	0xc1b4560d	-22.542017
68	0xc0a72c37	-5.2241473
69	0x40dfb780	6.99115
70	0x4224e652	41.224922
71	0x412ab100	10.668213
72	0xc232e173	-44.720165
73	0xc22482bb	-41.127666
74	0xc20f52b2	-35.830757
75	0xc1b523a6	-22.642406
76	0x41b48295	22.56376
77	0x41304d82	11.018923
78	0xc13c199f	-11.756255
79	0xc11ee5b0	-9.931076
80	0x40b394fc	5.6119366
81	0x3f7691e0	0.9631634
82	0xc1544639	-13.267144
83	0xc0a5f6b5	-5.1863656
84	0xc1000fef	-8.00389
85	0x4121f0a2	10.121248
86	0x428f9cfe	71.806625
87	0x4192500b	18.289083
88	0xc2333f34	-44.81172
89	0xc22533af	-41.300472
90	0xc2116dbb	-36.35716
91	0xc1b4ca38	-22.59874
92	0xc230b076	-44.172325
93	0xc2262cb9	-41.543674
94	0xc20fd0b9	-35.95383
95	0xc1b7d73b	-22.980093
96	0x3b2c4100	0.002628386
97	0x3e12b9b0	0.14328647
98	0xbed4df86	-0.41576785
99	0x3e88f156	0.26746625
100	0xc1014b87	-8.080939
101	0x411cf97c	9.810909
102	0x428ff4cb	71.97811
103	0x41823c77	16.279524
104	0xc10b6497	-8.712058
105	0x4149c5cf	12.610793
106	0x429731a8	75.596985
107	0x417f1c0e	15.944349
108	0xc0de5eda	-6.9490786
109	0x410d8c22	8.846712
110	0x42861ab1	67.05213
111	0x418780b3	16.937841
112	0xc233121f	-44.767696
113	0xc2253b31	-41.307804
114	0xc20fa489	-35.91068
115	0xc1b7de92	-22.983677
116	0xc22f1ded	-43.779224
117	0xc2259e41	-41.404545
118	0xc212b701	-36.678715
119	0xc1b7d4da	-22.978931
120	0xc22ba23c	-42.908432
121	0xc2278ea5	-41.8893
122	0xc20e5e99	-35.59238
123	0xc1b64f7b	-22.788809
124	0xc2310069	-44.2504
125	0xc224d4cb	-41.207806
126	0xc2127958	-36.6185
127	0xc1b61e85	-22.764902

0.bias f4 [32]
0	0xc075c74c	-3.840289
1	0x41dba4a5	27.455393
2	0x41de6469	27.799028
3	0xc07f044e	-3.9846377
4	0x41e84497	29.033491
5	0xc08a1d19	-4.316052
6	0x401f49f6	2.4888892
7	0x40e03e64	7.007616
8	0x41e53d6b	28.65499
9	0x41e3e40b	28.48635
10	0x410795a9	8.474038
11	0x41e34da2	28.412907
12	0xc08e162c	-4.4402065
13	0xbed2fe7c	-0.4120978
14	0x3f94e888	1.1633463
15	0x41e823d6	29.017498
16	0x41e10919	28.129442
17	0x40167845	2.3510907
18	0x41e78e34	28.944435
19	0x40ea1b67	7.315845
20	0x4121b319	10.106225
21	0x411b3a9a	9.701807
22	0x41e886d4	29.065834
23	0x41df6321	27.923403
24	0xbef871f6	-0.48524445
25	0x410f7a4e	8.96736
26	0x40e86116	7.2618513
27	0x410ea13f	8.914367
28	0x41e5eaea	28.739704
29	0x41e4b27f	28.587156
30	0x41dd695d	27.676447
31	0x41e94ef9	29.16356

2.weight f4 [64, 32]
0	0xc1d3f0fc	-26.492668
1	0xbfbe998d	-1.489061
2	0xbf780b92	-0.96892655
3	0xc1c5f979	-24.746813
4	0x3f699ade	0.91251934
5	0xc1d130d4	-26.148842
6	0x4232ea6e	44.728935
7	0x426b850d	58.879932
8	0x3f0132ce	0.50468147
9	0x3fb77388	1.4332132
10	0x427cb2b0	63.1745
11	0xbe4cfa8b	-0.2001745
12	0xc1c74ac0	-24.911499
13	0xbe1a6bb0	-0.15080142
14	0x41e4b4eb	28.588339
15	0x3f0f0be3	0.5587751
16	0xbe27dc97	-0.16392742
17	0x4201cac3	32.44801
18	0x3f49c2cd	0.7881287
19	0xc1918fe5	-18.195261
20	0xc1837acc	-16.43496
21	0x427599f1	61.400333
22	0x3f40cf64	0.7531645
23	0xbf6d8b3c	-0.9279058
24	0x3e23db1d	0.16001554
25	0x427e5590	63.583557
26	0x427e208f	63.531796
27	0x4266e7a5	57.726215
28	0x3ee54ae0	0.44783688
29	0xbe23f50d	-0.16011448
30	0xbfde59a2	-1.7371104
31	0x3ef88a0e	0.48542827
32	0x414dc369	12.860208
33	0xbfeb30f2	-1.8374312
34	0xbf1a6b12	-0.60319626
35	0x4180d64c	16.104637
36	0x3f38ff98	0.72265005
37	0x41663a9f	14.389312
38	0x422c9d2e	43.153496
39	0x425969cb	54.353313
40	0xbe220be6	-0.15824851
41	0xbe66866d	-0.22512217
42	0x424a260c	50.537155
43	0xbe1c9216	-0.15290102
44	0x417b88aa	15.720865
45	0xbe2d25d5	-0.16908963
46	0x42111db8	36.279022
47	0x3f80e066	1.0068481
48	0xbf2115d8	-0.62923956
49	0x4217e3e5	37.972553
50	0x3f7bab36	0.9830812
51	0x40023849	2.0346854
52	0xc06b4127	-3.6758516
53	0x4243056d	48.7553
54	0x3f86651d	1.0499607
55	0xbedd2fc0	-0.43200493
56	0x3e1422c1	0.14466383
57	0x424a42cb	50.565228
58	0x42464077	49.562954
59	0x4245212b	49.28239
60	0x3f0bb4ad	0.54572564
61	0x3e3e6d4b	0.1859638
62	0xc00af90e	-2.171451
63	0x3f7a0e34	0.9767792
64	0xc109f76a	-8.622904
65	0x422f78e2	43.86805
66	0x422ea1ab	43.65788
67	0xc138ffa3	-11.562411
68	0x422f90b0	43.891296
69	0xc12999df	-10.600066
70	0xc2052639	-33.287327
71	0xc22efcbd	-43.746815
72	0x422faebd	43.920643
73	0x42314c48	44.324493
74	0xc21bb5df	-38.92761
75	0x422e6e12	43.60749
76	0xc0e90187	-7.2814364
77	0x3e1b545d	0.15168901
78	0xc1d7c779	-26.972399
79	0x422be674	42.97505
80	0x422f5ca9	43.84049
81	0xc1e4b0a0	-28.586243
82	0x422d89b5	43.38448
83	0x40bb73c9	5.857884
84	0x41315c05	11.084966
85	0xc212ef5c	-36.73375
86	0x422ea758	43.66342
87	0x422cd242	43.20533
88	0x3cf07bf0	0.029355973
89	0xc2214d7a	-40.32566
90	0xc21bd2dc	-38.955917
91	0xc215747a	-37.363747
92	0x422b8d8a	42.88822
93	0x422bf9a6	42.993797
94	0x423050cf	44.078915
95	0x422b241a	42.785255
96	0xc08c535c	-4.3851757
97	0x4234309c	45.04747
98	0x4233f494	44.988846
99	0xc107b554	-8.48177
100	0x422fb04f	43.922176
101	0xc0cf5838	-6.479519
102	0xc2181ae9	-38.02628
103	0xc241d905	-48.461933
104	0x4231b577	44.42721
105	0x423031f1	44.04877
106	0xc23e89e2	-47.63465
107	0x422fffb9	43.99973
108	0xc0f669ee	-7.700431
109	0x3bf604a0	0.0075078756
110	0xc1d53512	-26.650913
111	0x422d857d	43.38036
112	0x4231d452	44.457344
113	0xc1e52589	-28.643328
114	0x422de447	43.472927
115	0x41164bae	9.3934765
116	0x41314bd6	11.081015
117	0xc236a3cc	-45.659958
118	0x422e9330	43.643738
119	0x42321c70	44.52777
120	0x3db68b8e	0.08913337
121	0xc2408e03	-48.138683
122	0xc245c90d	-49.44634
123	0xc230206c	-44.031662
124	0x422e4c51	43.574528
125	0x422e5276	43.58053
126	0x42356a76	45.353966
127	0x422b7129	42.860508
128	0xc0fbe618	-7.8718376
129	0x42326518	44.598724
130	0x42302ab5	44.041706
131	0xc12ac5d2	-10.673296
132	0x422f8e3d	43.888905
133	0xc11148a9	-9.080239
134	0xc20a776f	-34.616634
135	0xc23332f0	-44.799744
136	0x4231032a	44.25309
137	0x42304d07	44.075222
138	0xc2288114	-42.126053
139	0x42301bb3	44.02705
140	0xc102535c	-8.145351
141	0x3daf63d2	0.08563961
142	0xc1d872d1	-27.056063
143	0x422cfef4	43.248978
144	0x4230038e	44.00347
145	0xc1e5abf2	-28.708958
146	0x422def4d	43.483692
147	0x40d7fc79	6.7495694
148	0x4133cc13	11.237323
149	0xc21d07f8	-39.257782
150	0x422e9381	43.644047
151	0x422f2338	43.784393
152	0xbe2087e6	-0.15676841
153	0xc22b677f	-42.85107
154	0xc228e2dd	-42.221546
155	0xc21c2e0a	-39.04496
156	0x422dd0db	43.45396
157	0x422c40ef	43.06341
158	0x42319b89	44.40189
159	0x422d4133	43.31367
160	0xc1b85160	-23.039734
161	0xbfb5459c	-1.4161868
162	0xbf7be3ce	-0.9839448
163	0xc1a9fddd	-21.248957
164	0x3ef9ccb4	0.4878899
165	0xc1b50a55	-22.630045
166	0x42355416	45.332115
167	0x426e08d0	59.508606
168	0x3dd5b2d3	0.10434499
169	0x3f8558c7	1.0417718
170	0x427c423b	63.06468
171	0xbeb4a82a	-0.3528455
172	0xc1a8e7ef	-21.113249
173	0xbdeed843	-0.116623424
174	0x41e4d668	28.60469
175	0x3f4bf091	0.7966395
176	0xbea97afc	-0.33101642
177	0x4202874a	32.63212
178	0x3f370dd3	0.7150547
179	0xc167a798	-14.478416
180	0xc1584db8	-13.518974
181	0x4274d15f	61.204464
182	0x3f302517	0.68806595
183	0xbf57c9dc	-0.8429239
184	0xbcf14e78	-0.029456362
185	0x427dd6d9	63.459812
186	0x427be0e3	62.969616
187	0x42669f12	57.655342
188	0x3f16f16e	0.5896214
189	0xbe855de0	-0.26048183
190	0xbf9a01ef	-1.203184
191	0x3f5cb902	0.862198
192	0xc0801ad9	-4.0032773
193	0x42338471	44.879337
194	0x423427cc	45.038864
195	0xc10354a1	-8.208161
196	0x4230201e	44.031364
197	0xc0c6b63a	-6.2097445
198	0xc217c64f	-37.94366
199	0xc2411823	-48.27357
200	0x423132d8	44.299652
201	0x42306788	44.101105
202	0xc23ed732	-47.71015
203	0x4230724e	44.111626
204	0xc0fae9fb	-7.841062
205	0xbe01cd83	-0.12676053
206	0xc1d4de81	-26.608644
207	0x422d60a9	43.344395
208	0x423230b2	44.547554
209	0xc1e3fd50	-28.498688
210	0x422d378d	43.30425
211	0x411c7a08	9.779793
212	0x41304aaf	11.018233
213	0xc2377445	-45.863544
214	0x422ec6ef	43.69427
215	0x4233087f	44.758297
216	0xbe2de3b7	-0.16981398
217	0xc23feecf	-47.98321
218	0xc2458e97	-49.389248
219	0xc2307d6f	-44.122494
220	0x422d972e	43.397636
221	0x422e2f12	43.545967
222	0x42345c95	45.090412
223	0x422c0dc2	43.013435
224	0xc0884243	-4.2580886
225	0x42337555	44.864582
226	0x42336f6a	44.858803
227	0xc10725d8	-8.446739
228	0x422fbdeb	43.935467
229	0xc0d00253	-6.5002837
230	0xc217c30c	-37.940475
231	0xc240c084	-48.188004
232	0x423191a7	44.39224
233	0x422f18f6	43.774376
234	0xc23cee99	-47.233006
235	0x422fddad	43.96648
236	0xc0fb48ac	-7.852621
237	0xbd111dc8	-0.035428792
238	0xc1d70cbd	-26.88122
239	0x422d4750	43.31964
240	0x42326c25	44.60561
241	0xc1e6312d	-28.774012
242	0x422d1833	43.273632
243	0x411803c9	9.500924
244	0x4132003d	11.125058
245	0xc2354bf4	-45.324173
246	0x422ee096	43.719322
247	0x42323d0d	44.55962
248	0x3d257434	0.040394023
249	0xc24043ce	-48.066216
250	0xc24455e4	-49.083878
251	0xc230ce0c	-44.201218
252	0x422d684d	43.351856
253	0x422d1f82	43.28077
254	0x4234359c	45.052353
255	0x422b6e6d	42.857838

2.bias f4 [64]
0	0x41140215	9.250508
1	0x40a18bd6	5.04832
2	0x41ea8e4b	29.319479
3	0x41e3529e	28.41534
4	0x41e4ce7d	28.600824
5	0x410751dd	8.457486
6	0x41e381c5	28.438364
7	0x41e1f1a6	28.242992
8	0x41056d79	8.339227
9	0x41e22ac9	28.270891
10	0x41e38cc0	28.443726
11	0x41e26bdc	28.302666
12	0x41e1dac4	28.23182
13	0x40f52f9e	7.6620626
14	0x41e261d5	28.29777
15	0x41e36e0d	28.428736
16	0x420ef020	35.734497
17	0x414581e9	12.344216
18	0x41dcef49	27.616838
19	0x41e0d8f9	28.105944
20	0x41e2f4f1	28.3696
21	0x41e516b3	28.636084
22	0x41e0ac31	28.084078
23	0x41e1de38	28.233505
24	0xbe2e1fac	-0.1700427
25	0x4145c6fa	12.361078
26	0x41e32cd9	28.396898
27	0x40f323ba	7.598111
28	0x413b85d3	11.720172
29	0x41e14d1c	28.162651
30	0x41060fb4	8.378834
31	0x41e10972	28.129612
32	0x4111afa9	9.105386
33	0x41e0b9f1	28.090792
34	0x41e05ab1	28.044283
35	0x41de52f1	27.790499
36	0x410d6944	8.8382
37	0x41e04693	28.03446
38	0x41e205c7	28.252821
39	0x41e11783	28.13648
40	0x41e442d6	28.532635
41	0x40a97b0e	5.2962713
42	0x41e6d13d	28.852167
43	0x411ace03	9.675296
44	0x41e2d5f9	28.354479
45	0x41e16ae7	28.177198
46	0x41e31fdc	28.390556
47	0x41e9eafd	29.23974
48	0x4153f489	13.247201
49	0x4112beef	9.171615
50	0x41e2af15	28.33549
51	0x41e3dc68	28.48262
52	0x41e0a9b0	28.082855
53	0x41dfaf08	27.960464
54	0x40f867fe	7.7626944
55	0x410b627f	8.711547
56	0x3e276490	0.16346955
57	0x414a6b87	12.651252
58	0x41e21306	28.259289
59	0x41dec39e	27.845516
60	0x41df0eea	27.882282
61	0x4104df8d	8.304578
62	0x414d95b8	12.849052
63	0x41e2b601	28.33887

4.weight f4 [64, 64]
0	0xc2553b29	-53.307774
1	0xc2522e0e	-52.544975
2	0x422f3056	43.797203
3	0x423aa365	46.659565
4	0x42326149	44.595005
5	0xc2531c4c	-52.777634
6	0x42399f95	46.40584
7	0x4239ac5e	46.418327
8	0xc2569a69	-53.65079
9	0x423acf71	46.70258
10	0x423a9347	46.643826
11	0x4239805e	46.37536
12	0x423a4298	46.565033
13	0xc251d424	-52.45717
14	0x4239aa55	46.41634
15	0x423accc0	46.69995
16	0x41a60a1b	20.754934
17	0xc24d2398	-51.28476
18	0x4238f6c3	46.24098
19	0x423b3cad	46.809254
20	0x423a4c3c	46.574448
21	0x4231c0d7	44.43832
22	0x423a48dd	46.571156
23	0x4239a58e	46.411674
24	0x3c775c60	0.0150977075
25	0xc24d6dbd	-51.357166
26	0x4239e783	46.476086
27	0xc24cc8d9	-51.19614
28	0xc24b762e	-50.86541
29	0x423acc82	46.699715
30	0xc222d35b	-40.7064
31	0x423a5f7b	46.593243
32	0xc2548dbc	-53.138412
33	0x4239f14a	46.485634
34	0x42386a8d	46.104053
35	0x42379313	45.893627
36	0xc25660d2	-53.59455
37	0x423b309e	46.797478
38	0x423a69e5	46.603413
39	0x4239ff24	46.49916
40	0x42398077	46.375454
41	0xc238c900	-46.19629
42	0x422f754b	43.864544
43	0xc23d5cc6	-47.3406
44	0x423a7bb2	46.620796
45	0x423a9f04	46.65529
46	0x4238d7e8	46.210846
47	0x422b043a	42.754128
48	0xc24ce03a	-51.21897
49	0xc250ed5b	-52.231792
50	0x423ad1ca	46.704872
51	0x423a5896	46.58651
52	0x423a3355	46.55013
53	0x423a303e	46.54711
54	0xc24dc0e1	-51.43836
55	0xc23f37af	-47.80438
56	0x3d6c0b42	0.057627924
57	0xc24a7268	-50.611725
58	0x42396530	46.348816
59	0x422bf013	42.984447
60	0x42332a8c	44.79155
61	0xc2521367	-52.518948
62	0xc24a58ff	-50.58691
63	0x42399b3a	46.40159
64	0xbce8d146	-0.028420102
65	0x3cab90e6	0.020943116
66	0xbdb0b6bc	-0.08628604
67	0xbe925b02	-0.28585058
68	0xbe59a291	-0.2125342
69	0xbdcbbeb0	-0.0994848
70	0xbe22ce33	-0.15898971
71	0xbdc70d4a	-0.097193316
72	0xbe2defb4	-0.1698597
73	0xbe0c8c52	-0.13725403
74	0xbd99ace9	-0.07503683
75	0xbd13e4b7	-0.03610679
76	0xbe169227	-0.1470419
77	0x3bf44884	0.0074549336
78	0xbe4f49a4	-0.20242935
79	0xbd9efc38	-0.07762951
80	0x3c47bd4c	0.012191128
81	0xbda83279	-0.08212752
82	0xbd1f4f3d	-0.038893927
83	0xbe5cb50d	-0.2155344
84	0xbccab6b1	-0.024745317
85	0xbe3781dd	-0.17920633
86	0x3aaddca4	0.0013264609
87	0xbe089a97	-0.13340221
88	0xbd5be326	-0.053683423
89	0x3dbb68bc	0.09150836
90	0xbdd76560	-0.105173826
91	0xbd8c08c3	-0.06837609
92	0xbdb83786	-0.08994965
93	0xbd4c9925	-0.049950738
94	0xbca96365	-0.020677278
95	0xbe72cb3c	-0.2371034
96	0xbe0ca1f6	-0.13733658
97	0x3d64f508	0.055897743
98	0xbd92f343	-0.07175305
99	0xbd8f67fa	-0.07002254
100	0xbde4ed89	-0.11178119
101	0x3cc7a777	0.024371846
102	0xbe680a81	-0.22660257
103	0xbc60410d	-0.013687384
104	0xb99a1c74	-0.00029394368
105	0xbe0c7e8f	-0.13720153
106	0xbdaad61e	-0.08341621
107	0x3dd1b652	0.10239853
108	0xbc921714	-0.01783327
109	0xbd9e8e41	-0.077419765
110	0xbe462c24	-0.19352776
111	0xbe371ad7	-0.17881332
112	0x3b024c00	0.0019881725
113	0xbc71a71a	-0.014749313
114	0xbde03fd7	-0.109496765
115	0xbe3616c8	-0.17782128
116	0xbe11c2e7	-0.14234506
117	0xbe010b72	-0.12602022
118	0xbafe5680	-0.0019404441
119	0xbaa5f770	-0.0012662243
120	0xbdec69ee	-0.11543642
121	0xbd3eb04f	-0.04655486
122	0xbd686236	-0.056734286
123	0xbd1fb144	-0.038987413
124	0x3d351654	0.044210747
125	0xbe626e4d	-0.22112389
126	0xbcd2979c	-0.025707059
127	0xbd448bbb	-0.04798482
128	0xc2638be0	-56.886597
129	0xc24bceb3	-50.951855
130	0x4228afe7	42.17178
131	0x42325c0e	44.589897
132	0x422d9fd3	43.40608
133	0xc262c7d8	-56.69516
134	0x42328ca5	44.63735
135	0x4231ceed	44.452076
136	0xc2615441	-56.33228
137	0x4232b43b	44.676006
138	0x42323b0c	44.557663
139	0x4232f940	44.74341
140	0x4232ca30	44.69745
141	0xc25ea725	-55.663227
142	0x4232dc3b	44.71507
143	0x4232bf08	44.686554
144	0x41d788f0	26.941864
145	0xc266a34c	-57.65947
146	0x4234221b	45.033306
147	0x4232c959	44.69663
148	0x42323daf	44.560238
149	0x422c70fc	43.110336
150	0x4233b265	44.924213
151	0x42323c21	44.55872
152	0xbda65155	-0.081209816
153	0xc267b399	-57.92539
154	0x4232a84b	44.66435
155	0xc2551662	-53.27186
156	0xc26466a2	-57.100227
157	0x4232e136	44.719933
158	0xc233322c	-44.798996
159	0x423314a3	44.770153
160	0xc2642a87	-57.04153
161	0x4232ce03	44.701183
162	0x42334661	44.81873
163	0x42341a7c	45.025864
164	0xc264761b	-57.115337
165	0x42328e23	44.638805
166	0x4232e94f	44.72784
167	0x42324fb7	44.577847
168	0x423288e4	44.633682
169	0xc24763f1	-49.8476
170	0x422968ac	42.35222
171	0xc2526648	-52.599884
172	0x4232b721	44.678837
173	0x423262e7	44.596584
174	0x423282b3	44.627636
175	0x42249450	41.144836
176	0xc266798a	-57.61869
177	0xc25fba8e	-55.932182
178	0x42325162	44.579475
179	0x42329c38	44.652557
180	0x4232e6b4	44.725296
181	0x4232ea74	44.72896
182	0xc25a5cdc	-54.590683
183	0xc25510f5	-53.26656
184	0x3d639e8c	0.055571124
185	0xc266e4e4	-57.723526
186	0x42323bbb	44.55833
187	0x42307be9	44.121006
188	0x42316eb5	44.358112
189	0xc25d8815	-55.382893
190	0xc265689a	-57.35215
191	0x42323aa0	44.55725
192	0xc2636461	-56.848026
193	0xc24a8cc2	-50.63746
194	0x42283095	42.047443
195	0x423196fb	44.39744
196	0x422cc8ee	43.19622
197	0xc2624795	-56.569904
198	0x42319874	44.39888
199	0x42321681	44.521976
200	0xc2617cc5	-56.371845
201	0x4232b805	44.679707
202	0x4231c31e	44.440544
203	0x42324844	44.57057
204	0x4232650a	44.59867
205	0xc25e34d0	-55.551575
206	0x4232a79e	44.66369
207	0x42321f8e	44.530815
208	0x41d6852f	26.815031
209	0xc26afb16	-58.7452
210	0x42339377	44.89401
211	0x42326269	44.596104
212	0x4231a1b3	44.40791
213	0x422bf080	42.984863
214	0x42316e47	44.357693
215	0x42326c64	44.60585
216	0xbcda0502	-0.026613716
217	0xc26a9db7	-58.65402
218	0x42315c9e	44.340446
219	0xc2551763	-53.27284
220	0xc265fee1	-57.498905
221	0x4231def4	44.467728
222	0xc234aab1	-45.16669
223	0x423174bd	44.364002
224	0xc263ad4c	-56.919235
225	0x4232fb6d	44.745533
226	0x4232e858	44.7269
227	0x4232e5b4	44.72432
228	0xc2634e1a	-56.82627
229	0x423283eb	44.628826
230	0x42320636	44.506065
231	0x423206fc	44.50682
232	0x42327f8b	44.624554
233	0xc2476234	-49.8459
234	0x42282a7d	42.041492
235	0xc253d824	-52.961075
236	0x4232435b	44.565777
237	0x4231c81a	44.44541
238	0x42327549	44.614536
239	0x4225366b	41.303143
240	0xc26892c1	-58.143314
241	0xc260ba9a	-56.182228
242	0x4232e2f0	44.72162
243	0x4231509e	44.328728
244	0x42327713	44.616283
245	0x4231ccd0	44.450012
246	0xc25ac4b3	-54.69209
247	0xc257a410	-53.910217
248	0xbdeed10a	-0.11660965
249	0xc2696ba7	-58.35513
250	0x4232b0b7	44.672573
251	0x4231d147	44.454372
252	0x423123e6	44.285057
253	0xc25cf9b3	-55.243847
254	0xc266516a	-57.579506
255	0x4231cbe9	44.44913

4.bias f4 [64]
0	0x41e10576	28.127666
1	0xbe190d2b	-0.1494643
2	0x41e09161	28.070986
3	0x41dfa39c	27.954887
4	0x41cc02ef	25.501432
5	0x41dce903	27.613775
6	0x41e0c34f	28.095366
7	0x41a1d004	20.22657
8	0x41df6bf0	27.927704
9	0x41dfdfee	27.98434
10	0x41e2da2c	28.35653
11	0x41dbde7f	27.48364
12	0x41e129a3	28.14533
13	0x41dd3bbb	27.654165
14	0x41e082bb	28.063833
15	0x41e01c2f	28.013762
16	0x41835abe	16.419308
17	0x41de9746	27.823864
18	0x41dc1687	27.511
19	0x41e0fee4	28.124458
20	0x41ccd5d0	25.6044
21	0x3fd68b7d	1.6761318
22	0x41e04d0d	28.037622
23	0x41c44b6e	24.53683
24	0xbd9f4b30	-0.07778013
25	0x3f743ff2	0.9541007
26	0x41e1ad90	28.209747
27	0x41db7977	27.434309
28	0x41e09248	28.071426
29	0xbda08aa9	-0.07838947
30	0x41dfe78a	27.988056
31	0xbdca9760	-0.09892154
32	0x41e34b43	28.411749
33	0x41cb9695	25.448526
34	0xbdbadc8b	-0.091240965
35	0x41c2d3ca	24.353413
36	0x40c0d07f	6.025451
37	0xbe30f419	-0.17280616
38	0x41cf7158	25.930344
39	0x41e028a1	28.019838
40	0x413e1746	11.880682
41	0x41e0f0ab	28.117514
42	0x41e14480	28.158447
43	0x41e01e9c	28.014946
44	0x41de4047	27.781385
45	0x41e21d08	28.264175
46	0x41e01918	28.012253
47	0x41df7bb2	27.935398
48	0xbd4d01a3	-0.05005039
49	0x41db66a2	27.425114
50	0x41de966c	27.823448
51	0x41db6bf8	27.42772
52	0x41914b11	18.161654
53	0x41dfc8f7	27.973127
54	0x41de1c8e	27.763943
55	0xbd52e4a8	-0.051487595
56	0x41de4dd5	27.788004
57	0x41e12c57	28.14665
58	0xbe4206d8	-0.18947923
59	0x41e21129	28.258379
60	0x3fa8efdd	1.31982
61	0x419e3f2a	19.780842
62	0x41e071b2	28.055515
63	0x3fd4c1e7	1.6621674

6.weight f4 [2, 64]
0	0x424cf55a	51.2396
1	0x3e6e0e18	0.23247564
2	0x4251bc68	52.43399
3	0x4250ec53	52.230785
4	0x421dc286	39.439964
5	0x424de417	51.472744
6	0x424c55d3	51.083813
7	0x420d30a0	35.297485
8	0x423fbe5c	47.935898
9	0x424b9433	50.894726
10	0x4241ef05	48.483418
11	0x424acb41	50.69849
12	0x42501117	52.01669
13	0x424461ba	49.095436
14	0x424d3812	51.304756
15	0x423f63f0	47.847595
16	0x41a2729c	20.305962
17	0x4248b699	50.178318
18	0x4247ecea	49.98136
19	0x424eee27	51.73257
20	0x422cd899	43.21152
21	0xc28d4bae	-70.64781
22	0x42427c3c	48.621323
23	0x4233f95c	44.993515
24	0x3c02b2e6	0.007977223
25	0xc289903c	-68.78171
26	0x425242f0	52.56537
27	0x424f0f57	51.76498
28	0x425013ae	52.01922
29	0x3cd91552	0.026499424
30	0x424986e7	50.38174
31	0xbd8c8db3	-0.068629645
32	0x424cf583	51.239758
33	0x42329ae9	44.65128
34	0x3d221be8	0.039577395
35	0x4214a60a	37.162148
36	0x41006e92	8.026995
37	0x3cb832d3	0.022485172
38	0x42399495	46.3951
39	0x424ce61b	51.224712
40	0x415bb8df	13.732635
41	0x424c2e26	51.045067
42	0x424ff7e6	51.99209
43	0x424063c1	48.097416
44	0x424afd66	50.74746
45	0x4241a0dd	48.407093
46	0x424c2152	51.03254
47	0x425524b3	53.28584
48	0x3db63d1b	0.08898374
49	0x424f5a3e	51.838127
50	0x425363a4	52.847305
51	0x424c9e2a	51.154457
52	0x41acf039	21.617296
53	0x424cf923	51.243298
54	0x424dd3ba	51.456764
55	0xbd569580	-0.052388668
56	0x424de7b5	51.476276
57	0x424ceac0	51.229248
58	0x3d768daa	0.060193695
59	0x424d8328	51.378082
60	0xc28d421f	-70.62914
61	0x420c9d31	35.153507
62	0x423c073e	47.007072
63	0xc28d404d	-70.62559
64	0x424aeb5f	50.729855
65	0xbde58202	-0.11206438
66	0x42459ddc	49.40416
67	0x4244273a	49.038307
68	0xc22dd904	-43.46193
69	0x4249f35e	50.487663
70	0x424c92d0	51.14337
71	0x4211ebe6	36.48037
72	0x424f1fae	51.780937
73	0x424cceb7	51.20187
74	0x424dbec0	51.43628
75	0x424c5166	51.07949
76	0x42432010	48.78131
77	0x424d336e	51.300224
78	0x424b9322	50.893684
79	0x424ea23a	51.658424
80	0xc2293026	-42.29702
81	0x424e62e9	51.596592
82	0x424d9058	51.39096
83	0x42436b85	48.855
84	0xc2269a0c	-41.650436
85	0x4230a3ba	44.15989
86	0x424dd640	51.45923
87	0xc2129b9e	-36.65197
88	0x3b889fe4	0.004169451
89	0x42279a12	41.90046
90	0x4244e440	49.2229
91	0x42495146	50.32937
92	0x42447a40	49.119385
93	0x3d6aac50	0.057293236
94	0x424e0e00	51.51367
95	0x3d9d5e68	0.07684022
96	0x424cdf3a	51.217995
97	0xc221d004	-40.45314
98	0xbdb3f305	-0.08786587
99	0xc2292132	-42.282417
100	0xc0a35463	-5.104051
101	0xbc9acdba	-0.018896926
102	0x42393c08	46.308624
103	0x424c61d5	51.09554
104	0xc1d61e85	-26.764902
105	0x424c743b	51.113506
106	0x4244a12e	49.157402
107	0x424ea8b7	51.66476
108	0x424c91b6	51.142296
109	0x424ddfe5	51.468647
110	0x424bf041	50.984623
111	0x4246007a	49.500465
112	0xbd2aafd2	-0.04167158
113	0x42496238	50.345917
114	0x42478bcf	49.88653
115	0x424a9c2c	50.65251
116	0xc242854f	-48.630184
117	0x424b51cf	50.82989
118	0x424a119f	50.51721
119	0xbcb7f9c0	-0.022457957
120	0x424a0ba5	50.51137
121	0x424c614b	51.095013
122	0xbd4897b0	-0.048972785
123	0x424c3ce1	51.059452
124	0x4227f002	41.984383
125	0x420ff4bc	35.989
126	0x424f1a2f	51.77557
127	0x4226967c	41.646957

6.bias f4 [2]
0	0x423bef7e	46.98388
1	0x4217ae66	37.92031
